/******************* colors *******************/
/******************** font-sizes *******************/
.fs-0 {
  font-size: 0px;
}

.fs-1 {
  font-size: 1px;
}

.fs-4 {
  font-size: 4px;
}

.fs-8 {
  font-size: 8px;
}

.fs-12 {
  font-size: 12px;
}

.fs-13 {
  font-size: 13px;
}

.fs-14 {
  font-size: 14px;
}

.fs-15 {
  font-size: 15px;
}

.fs-16 {
  font-size: 16px;
}

.fs-17 {
  font-size: 17px;
}

.fs-18 {
  font-size: 18px;
}

.fs-19 {
  font-size: 19px;
}

.fs-20 {
  font-size: 20px;
}

.fs-21 {
  font-size: 21px;
}

.fs-22 {
  font-size: 22px;
}

.fs-24 {
  font-size: 24px;
}

.fs-25 {
  font-size: 25px;
}

.fs-27 {
  font-size: 27px;
}

.fs-28 {
  font-size: 28px;
}

.fs-29 {
  font-size: 29px;
}

.fs-30 {
  font-size: 30px;
}

.fs-32 {
  font-size: 32px;
}

.fs-34 {
  font-size: 34px;
}

.fs-36 {
  font-size: 36px;
}

.fs-38 {
  font-size: 38px;
}

.fs-40 {
  font-size: 40px;
}

.fs-42 {
  font-size: 42px;
}

.fs-50 {
  font-size: 50px;
}

.fs-62 {
  font-size: 62px;
}

/************************** spacing-classes ******************************/
.my-auto {
  margin: 0 auto;
}

.margin-1 {
  margin: 1px;
}

.margin-60 {
  margin: 60px;
}

.margin-0 {
  margin: 0px;
}

.margin-4 {
  margin: 4px;
}

.margin-8 {
  margin: 8px;
}

.margin-12 {
  margin: 12px;
}

.margin-16 {
  margin: 16px;
}

.margin-20 {
  margin: 20px;
}

.margin-24 {
  margin: 24px;
}

.margin-28 {
  margin: 28px;
}

.margin-32 {
  margin: 32px;
}

.margin-40 {
  margin: 40px;
}

.padding-1 {
  padding: 1px;
}

.padding-60 {
  padding: 60px;
}

.padding-0 {
  padding: 0px;
}

.padding-4 {
  padding: 4px;
}

.padding-8 {
  padding: 8px;
}

.padding-12 {
  padding: 12px;
}

.padding-16 {
  padding: 16px;
}

.padding-20 {
  padding: 20px;
}

.padding-24 {
  padding: 24px;
}

.padding-28 {
  padding: 28px;
}

.padding-32 {
  padding: 32px;
}

.padding-36 {
  padding: 36px;
}

.padding-40 {
  padding: 40px;
}

.mr-1 {
  margin-right: 1px;
}

.mr-60 {
  margin-right: 60px;
}

.mr-0 {
  margin-right: 0px;
}

.mr-4 {
  margin-right: 4px;
}

.mr-8 {
  margin-right: 8px;
}

.mr-12 {
  margin-right: 12px;
}

.mr-16 {
  margin-right: 16px;
}

.mr-20 {
  margin-right: 20px;
}

.mr-24 {
  margin-right: 24px;
}

.mr-28 {
  margin-right: 28px;
}

.mr-32 {
  margin-right: 32px;
}

.mr-40 {
  margin-right: 40px;
}

.mb-1 {
  margin-bottom: 1px;
}

.mb-60 {
  margin-bottom: 60px;
}

.mb-0 {
  margin-bottom: 0px;
}

.mb-4 {
  margin-bottom: 4px;
}

.mb-8 {
  margin-bottom: 8px;
}

.mb-12 {
  margin-bottom: 12px;
}

.mb-16 {
  margin-bottom: 16px;
}

.mb-20 {
  margin-bottom: 20px;
}

.mb-24 {
  margin-bottom: 24px;
}

.mb-28 {
  margin-bottom: 28px;
}

.mb-32 {
  margin-bottom: 32px;
}

.mb-40 {
  margin-bottom: 40px;
}

.ml-1 {
  margin-bottom: 1px;
}

.ml-60 {
  margin-bottom: 60px;
}

.ml-0 {
  margin-left: 0px;
}

.ml-4 {
  margin-left: 4px;
}

.ml-8 {
  margin-left: 8px;
}

.ml-12 {
  margin-left: 12px;
}

.ml-16 {
  margin-left: 16px;
}

.ml-20 {
  margin-left: 20px;
}

.ml-24 {
  margin-left: 24px;
}

.ml-28 {
  margin-left: 28px;
}

.ml-32 {
  margin-left: 32px;
}

.ml-40 {
  margin-left: 40px;
}

.mt-1 {
  margin-top: 1px;
}

.mt-60 {
  margin-top: 60px;
}

.mt-68 {
  margin-top: 68px;
}

.mt-75 {
  margin-top: 75px;
}

.mt-90 {
  margin-top: 90px;
}

.mt-0 {
  margin-top: 0px;
}

.mt-4 {
  margin-top: 4px;
}

.mt-8 {
  margin-top: 8px;
}

.mt-12 {
  margin-top: 12px;
}

.mt-16 {
  margin-top: 16px;
}

.mt-20 {
  margin-top: 20px;
}

.mt-24 {
  margin-top: 24px;
}

.mt-28 {
  margin-top: 28px;
}

.mt-32 {
  margin-top: 32px;
}

.mt-40 {
  margin-top: 40px;
}

.mt-120 {
  margin-top: 120px;
}

.mb-120 {
  margin-bottom: 120px;
}

.m-auto {
  margin-right: auto;
  margin-left: auto;
}

/*********************** position-classes *********************/
.p-rel {
  position: relative;
}

.p-abs {
  position: absolute;
}

.p-st {
  position: static;
}

.p-fx {
  position: fixed;
}

.p-sty {
  position: sticky;
}

/*********************** z-index-classes ***********************/
.z-0 {
  z-index: 0;
}

.z-1 {
  z-index: 1;
}

.z-2 {
  z-index: 2;
}

.z-3 {
  z-index: 3;
}

.z-4 {
  z-index: 4;
}

.z-5 {
  z-index: 5;
}

.z-6 {
  z-index: 6;
}

.z-7 {
  z-index: 7;
}

.z-8 {
  z-index: 8;
}

.z-9 {
  z-index: 9;
}

/************************ transitions ***********************/
.t-1 {
  transition: all 0.1s ease;
}

.t-2 {
  transition: all 0.2s ease;
}

.t-3 {
  transition: all 0.3s ease;
}

.t-4 {
  transition: all 0.4s ease;
}

.t-5 {
  transition: all 0.5s ease;
}

.t-6 {
  transition: all 0.6s ease;
}

.t-7 {
  transition: all 0.7s ease;
}

.t-8 {
  transition: all 0.8s ease;
}

.t-9 {
  transition: all 0.9s ease;
}

/************************ overflows ****************************/
.o-a {
  overflow: auto;
}

.o-h {
  overflow: hidden;
}

.o-s {
  overflow: scroll;
}

.o-v {
  overflow: visible;
}

.ox-a {
  overflow-x: auto;
}

.ox-h {
  overflow-x: hidden;
}

.ox-s {
  overflow-x: scroll;
}

.ox-v {
  overflow-x: visible;
}

.oy-a {
  overflow-y: auto;
}

.oy-h {
  overflow-y: hidden;
}

.oy-s {
  overflow-y: scroll;
}

.oy-v {
  overflow-y: visible;
}

/************************** displays ***************************/
.d-n {
  display: none;
}

.d-i {
  display: inline;
}

.d-b {
  display: block;
}

.d-ib {
  display: inline-block;
}

/************************* border-radius *************************/
.br-100 {
  border-radius: 100%;
}

.br-50 {
  border-radius: 50%;
}

.tx-center {
  text-align: center;
}

.tx-end {
  text-align: end;
}

.tx-left {
  text-align: left;
}

.tx-start {
  text-align: start;
}

.full-vh {
  height: 100vh;
}

.h-auto {
  height: auto;
}

.bx-border-box {
  box-sizing: border-box;
}

.h-full {
  height: 100%;
}

.w-full {
  width: 100%;
}

.w-fc {
  width: -moz-fit-content;
  width: fit-content;
}

.cp {
  cursor: pointer;
}

.tx-dec-none {
  text-decoration: none;
}

/************************** breakpoints **************************/
@media screen and (min-width: 1721px) {
  .wds {
    width: 1650px;
  }
}
@media screen and (min-width: 1440px) and (max-width: 1720px) {
  .wds {
    width: 1350px;
  }
}
@media screen and (min-width: 1200px) and (max-width: 1440px) {
  .wds {
    width: 1050px;
  }
}
@media screen and (min-width: 992px) and (max-width: 1200px) {
  .wds {
    width: 940px;
  }
}
@media screen and (min-width: 700px) and (max-width: 992px) {
  .wds {
    width: 700px;
  }
}
@media screen and (max-width: 768px) {
  .wds {
    width: 100%;
    padding: 0 15px;
    box-sizing: border-box;
  }
}

/************************** triangles **************************/
@media screen and (max-width: 1720px) {
  .tgl-wds {
    width: 1730px;
    border-right-width: 865px;
    border-left-width: 865px;
  }
}
@media screen and (max-width: 1440px) {
  .tgl-wds {
    width: 1450px;
    border-right-width: 725px;
    border-left-width: 725px;
  }
}
@media screen and (max-width: 1200px) {
  .tgl-wds {
    width: 1210px;
    border-right-width: 605px;
    border-left-width: 605px;
  }
}

* {
  font-family: "Poppins", sans-serif;
  margin: 0;
  padding: 0;
}

@font-face {
  font-family: "Jost";
  src: url("../fonts/jost_font/Jost-Black-BF63dc52ccbba90.ttf") format("truetype");
  font-weight: 900;
  font-style: normal;
  font-display: swap;
}
@font-face {
  font-family: "Jost";
  src: url("../fonts/jost_font/Jost-Bold-BF63dc52d022010.ttf") format("truetype");
  font-style: normal;
  font-display: swap;
}
@font-face {
  font-family: "Jost";
  src: url("../fonts/jost_font/Jost-ExtraBold-BF63dc52d09ee91.ttf") format("truetype");
  font-style: normal;
  font-display: swap;
}
@font-face {
  font-family: "Jost";
  src: url("../fonts/jost_font/Jost-ExtraLight-BF63dc52cf9e5ef.ttf") format("truetype");
  font-style: normal;
  font-display: swap;
}
@font-face {
  font-family: "Jost";
  src: url("../fonts/jost_font/Jost-Light-BF63dc52d080910.ttf") format("truetype");
  font-style: normal;
  font-display: swap;
}
@font-face {
  font-family: "Jost";
  src: url("../fonts/jost_font/Jost-Medium-BF63dc52d2d8452.ttf") format("truetype");
  font-style: normal;
  font-display: swap;
}
@font-face {
  font-family: "Jost";
  src: url("../fonts/jost_font/Jost-Regular-BF63dc52d2b8031.ttf") format("truetype");
  font-style: normal;
  font-display: swap;
}
@font-face {
  font-family: "Jost";
  src: url("../fonts/jost_font/Jost-SemiBold-BF63dc52d0c0560.ttf") format("truetype");
  font-style: normal;
  font-display: swap;
}
@font-face {
  font-family: "Jost";
  src: url("../fonts/jost_font/Jost-Thin-BF63dc52d04ca41.ttf") format("truetype");
  font-style: normal;
  font-display: swap;
}
html,
body {
  padding: 0;
  margin: 0;
}

/************************** banner-upper-part **************************/
.banner-blur-circle-1 {
  background-color: #136dfb;
  filter: blur(195px);
  width: 325px;
  height: 325px;
  position: absolute;
  top: 225px;
  left: 50%;
  transform: translateX(-50%);
}

.banner-image {
  position: absolute;
  top: 135px;
  left: 50%;
  transform: translateX(-50%);
}
@media screen and (max-width: 576px) {
  .banner-image {
    position: absolute;
    top: 230px;
    left: 50%;
    width: 255px;
  }
}

.user-box-1 {
  border-radius: 8px;
  border: 1px solid rgba(19, 109, 251, 0.0509803922);
  -webkit-backdrop-filter: blur(150px);
          backdrop-filter: blur(150px);
  box-shadow: 0px 30px 60px 0px rgba(0, 0, 0, 0.2);
  background: linear-gradient(178.83deg, rgba(255, 255, 255, 0.6) 2.73%, rgba(249, 249, 249, 0.6) 97.04%);
  display: flex;
  flex-direction: row;
  justify-content: center;
  align-items: center;
  gap: 10px;
}
.user-box-1 span {
  font-size: 16px;
  line-height: 24px;
  font-weight: 600;
  color: #202323;
}
@media screen and (max-width: 576px) {
  .user-box-1 span {
    font-size: 10px;
    line-height: 24px;
    font-weight: 600;
    color: #202323;
  }
}
@media screen and (max-width: 576px) {
  .user-box-1 {
    padding: 5px;
    gap: 5px;
  }
}

.user-box-2 {
  border-radius: 8px;
  border: 1px solid rgba(19, 109, 251, 0.0509803922);
  -webkit-backdrop-filter: blur(150px);
          backdrop-filter: blur(150px);
  box-shadow: 0px 30px 60px 0px rgba(0, 0, 0, 0.2);
  background: linear-gradient(178.83deg, rgba(255, 255, 255, 0.6) 2.73%, rgba(249, 249, 249, 0.6) 97.04%);
  display: flex;
  flex-direction: row-reverse;
  justify-content: center;
  align-items: center;
  gap: 10px;
}
.user-box-2 span {
  font-size: 16px;
  line-height: 24px;
  font-weight: 600;
  color: #202323;
}
@media screen and (max-width: 576px) {
  .user-box-2 span {
    font-size: 10px;
    line-height: 24px;
    font-weight: 600;
    color: #202323;
  }
}

.user-box-left {
  position: absolute;
  top: 325px;
  left: 500px;
}
@media screen and (max-width: 1720px) {
  .user-box-left {
    position: absolute;
    top: 310px;
    left: 370px;
  }
}
@media screen and (max-width: 1440px) {
  .user-box-left {
    position: absolute;
    top: 330px;
    left: 240px;
  }
}
@media screen and (max-width: 992px) {
  .user-box-left {
    position: absolute;
    top: 210px;
    left: 44px;
  }
}
@media screen and (max-width: 576px) {
  .user-box-left {
    position: absolute;
    top: 190px;
    left: 17px;
  }
}

.user-box-right {
  position: absolute;
  top: 120px;
  right: 570px;
}
@media screen and (max-width: 1720px) {
  .user-box-right {
    position: absolute;
    top: 155px;
    right: 410px;
  }
}
@media screen and (max-width: 1440px) {
  .user-box-right {
    position: absolute;
    top: 155px;
    right: 290px;
  }
}
@media screen and (max-width: 992px) {
  .user-box-right {
    position: absolute;
    top: 210px;
    right: 33px;
  }
}
@media screen and (max-width: 576px) {
  .user-box-right {
    position: absolute;
    top: 145px;
    right: 15px;
  }
}

.banner-icon {
  width: 47px;
  height: 47px;
  display: flex;
  justify-content: center;
  align-items: center;
  background-color: #136dfb;
  border-radius: 8px;
}
@media screen and (max-width: 576px) {
  .banner-icon {
    width: 28px;
    height: 28px;
    border-radius: 4px;
  }
}
@media screen and (max-width: 576px) {
  .banner-icon img {
    width: 18px;
  }
}

.line-design {
  display: flex;
  flex-direction: column;
  justify-content: center;
  align-items: center;
  gap: 15px;
}
.line-design span {
  font-size: 16px;
  line-height: 24px;
  font-weight: 600;
  color: #d9d9d9;
}
@media screen and (max-width: 576px) {
  .line-design span {
    font-size: 10px;
    line-height: 11px;
    font-weight: 600;
    color: #d9d9d9;
  }
}

.box-logo-n-text {
  display: flex;
  flex-direction: column;
  justify-content: center;
  align-items: center;
  gap: 10px;
}
@media screen and (max-width: 992px) {
  .box-logo-n-text {
    display: flex;
    flex-direction: row;
    justify-content: center;
    align-items: center;
    gap: 10px;
  }
}
@media screen and (max-width: 576px) {
  .box-logo-n-text {
    display: flex;
    flex-direction: row;
    justify-content: center;
    align-items: center;
    gap: 5px;
  }
}

.line-logo-box {
  border: 1px solid #e5e6e8;
  display: flex;
  justify-content: center;
  align-items: center;
  width: 61px;
  height: 61px;
  border-radius: 12px;
  -webkit-backdrop-filter: blur(10px);
          backdrop-filter: blur(10px);
  background: linear-gradient(178.83deg, rgba(255, 255, 255, 0.6) 2.73%, rgba(249, 249, 249, 0.6) 97.04%);
}
@media screen and (max-width: 576px) {
  .line-logo-box {
    width: 28px;
    height: 28px;
    border-radius: 4px;
  }
}
@media screen and (max-width: 576px) {
  .line-logo-box img {
    width: 18px;
  }
}

.right-line-box {
  position: absolute;
  top: 80px;
  right: -70px;
}
@media screen and (max-width: 1440px) {
  .right-line-box {
    position: absolute;
    top: 80px;
    right: -150px;
  }
}
@media screen and (max-width: 992px) {
  .right-line-box {
    position: absolute;
    top: -17px;
    right: -168px;
  }
}
@media screen and (max-width: 576px) {
  .right-line-box {
    position: absolute;
    top: -45px;
    right: -230px;
  }
}
.right-line-box .right-inner-line {
  top: 85px;
  right: 43px;
}
@media screen and (max-width: 1440px) {
  .right-line-box .right-inner-line {
    top: 85px;
    right: -80px;
  }
}
@media screen and (max-width: 992px) {
  .right-line-box .right-inner-line {
    right: -100%;
  }
}

.left-line-box {
  position: absolute;
  top: 165px;
  left: -75px;
}
@media screen and (max-width: 1440px) {
  .left-line-box {
    position: absolute;
    top: 165px;
    left: -150px;
  }
}
@media screen and (max-width: 992px) {
  .left-line-box {
    position: absolute;
    top: -20px;
    left: -117px;
  }
}
@media screen and (max-width: 576px) {
  .left-line-box {
    position: absolute;
    top: 0px;
    left: -190px;
  }
}
.left-line-box .left-inner-line {
  top: 80px;
  left: 80px;
}
@media screen and (max-width: 1440px) {
  .left-line-box .left-inner-line {
    top: 100px;
    left: -42px;
  }
}
@media screen and (max-width: 992px) {
  .left-line-box .left-inner-line {
    left: -100%;
  }
}

/************************** buttons **************************/
.primary-button {
  display: flex;
  align-items: center;
  justify-content: center;
  cursor: pointer;
  height: 48px;
  padding: 0 20px;
  background-color: #136dfb;
  border: none;
  box-sizing: border-box;
  border-radius: 24px;
  font-size: 16px;
  line-height: 24px;
  font-weight: 500;
  color: #ffffff !important;
  transition: all 0.3s ease;
  width: -moz-fit-content;
  width: fit-content;
  box-shadow: 0px 15px 60px 0px rgba(10, 81, 201, 0.6);
}
.primary-button a.btn-text {
  font-size: 16px;
  line-height: 24px;
  font-weight: 500;
  color: #ffffff !important;
  text-decoration: none;
}
@media screen and (max-width: 1200px) {
  .primary-button {
    height: 42px;
    font-size: 14px;
  }
}
@media screen and (max-width: 576px) {
  .primary-button {
    font-size: 12px;
  }
}
.primary-button:hover {
  box-shadow: 0px 15px 60px 0px rgba(10, 81, 201, 0.6);
  background-color: #0041ae;
}

/************************ banner-lower-part *************************/
.banner-details {
  background: linear-gradient(178.83deg, rgba(255, 255, 255, 0.6) 2.73%, rgba(249, 249, 249, 0.6) 97.04%);
  width: 100%;
  height: calc(100vh - 480px);
  display: flex;
  flex-direction: column;
  justify-content: center;
  align-items: center;
  position: absolute;
  right: 0px;
  bottom: 0px;
  left: 0px;
  -webkit-backdrop-filter: blur(30px);
          backdrop-filter: blur(30px);
}

.inner-banner-heading {
  font-size: 58px;
  line-height: 86.7px;
  font-weight: 700;
  color: #202323;
}
@media screen and (max-width: 1440px) {
  .inner-banner-heading {
    font-size: 48px;
    line-height: 60px;
    font-weight: 700;
    color: #202323;
  }
}
@media screen and (max-width: 1200px) {
  .inner-banner-heading {
    font-size: 40px;
    line-height: 52px;
    font-weight: 700;
    color: #202323;
  }
}
@media screen and (max-width: 576px) {
  .inner-banner-heading {
    font-size: 24px;
    line-height: 30px;
    font-weight: 700;
    color: #202323;
  }
}

.inner-banner-content {
  font-size: 16px;
  line-height: 24px;
  font-weight: 500;
  color: #707070;
}
@media screen and (max-width: 576px) {
  .inner-banner-content {
    font-size: 12px;
    line-height: 16px;
    font-weight: 500;
    color: #707070;
    margin-bottom: 20px;
  }
}

/************************* contents ****************************/
.section-title {
  background: linear-gradient(270.13deg, #ff623f 19.37%, #bc1ae4 91.6%);
  -webkit-background-clip: text;
          background-clip: text;
  -webkit-text-fill-color: transparent;
  font-size: 24px;
  line-height: 36px;
  font-weight: 600;
}
@media screen and (max-width: 1440px) {
  .section-title {
    font-size: 20px;
    font-weight: 600;
  }
}
@media screen and (max-width: 1200px) {
  .section-title {
    font-size: 16px;
    font-weight: 600;
  }
}
@media screen and (max-width: 576px) {
  .section-title {
    font-size: 12px;
    line-height: 18px;
    font-weight: 600;
  }
}

.section-heading {
  font-size: 48px;
  line-height: 60px;
  font-weight: 600;
  color: #202323;
}
@media screen and (max-width: 1650px) {
  .section-heading {
    font-size: 42px;
    line-height: 50px;
    font-weight: 600;
    color: #202323;
  }
}
@media screen and (max-width: 1440px) {
  .section-heading {
    font-size: 34px;
    line-height: 40px;
    font-weight: 600;
    color: #202323;
    margin-bottom: 12px;
  }
}
@media screen and (max-width: 1200px) {
  .section-heading {
    font-size: 30px;
    line-height: 36px;
    margin-bottom: 8px;
  }
}
@media screen and (max-width: 576px) {
  .section-heading {
    font-size: 16px;
    line-height: 24px;
  }
}

.section-content {
  font-size: 16px;
  line-height: 25px;
  font-weight: 500;
  color: #707070;
}
@media screen and (max-width: 1200px) {
  .section-content {
    font-size: 12px;
    line-height: 16px;
  }
}

.inner-heading {
  font-size: 18px;
  line-height: 25px;
  font-weight: 600;
  color: #202323;
}

.inner-content {
  font-size: 14px;
  line-height: 25px;
  font-weight: 400;
  color: #707070;
}

.inner-title {
  font-size: 24px;
  line-height: 36px;
  font-weight: 400;
  color: #202323;
}

.footer-heading-text {
  font-size: 24px;
  font-weight: 600;
  color: #202323;
}

.footer-para-text {
  font-size: 18px;
  line-height: 28px;
  font-weight: 400;
  color: #707070;
}

/************************ TRIANGLES ***********************/
.upper-triangle {
  width: 1930px;
  height: 132px;
  position: absolute;
  top: -131px;
  border-top: 66px solid transparent;
  border-right: 965px solid transparent;
  border-bottom: 66px solid #f9f9f9;
  border-left: 965px solid #f9f9f9;
}
@media screen and (max-width: 576px) {
  .upper-triangle {
    width: 700px;
    height: 80px;
    position: absolute;
    top: -77px;
    border-top: 40px solid transparent;
    border-right: 350px solid transparent;
    border-bottom: 40px solid #f9f9f9;
    border-left: 350px solid #f9f9f9;
  }
}

.lower-triangle {
  width: 1930px;
  height: 132px;
  position: absolute;
  bottom: -131px;
  border-top: 66px solid #f9f9f9;
  border-right: 965px solid #f9f9f9;
  border-bottom: 66px solid transparent;
  border-left: 965px solid transparent;
}
@media screen and (max-width: 576px) {
  .lower-triangle {
    width: 700px;
    height: 80px;
    position: absolute;
    bottom: -90px;
    border-top: 40px solid #f9f9f9;
    border-right: 350px solid #f9f9f9;
    border-bottom: 50px solid transparent;
    border-left: 350px solid transparent;
  }
}

.oe-upper-triangle {
  width: 1930px;
  height: 96px;
  position: absolute;
  top: -96px;
  border-top: 48px solid transparent;
  border-right: 965px solid #f9f9f9;
  border-bottom: 48px solid #f9f9f9;
  border-left: 965px solid transparent;
}

.oe-lower-triangle {
  width: 1930px;
  height: 96px;
  position: absolute;
  bottom: -96px;
  border-top: 48px solid #f9f9f9;
  border-right: 965px solid transparent;
  border-bottom: 48px solid transparent;
  border-left: 965px solid #f9f9f9;
}

/******************************bg-colors**************************/
.back-transparent {
  background-color: transparent;
}

.blue-background {
  background-color: #136dfb;
}

.gray-backgorund {
  background-color: #f9f9f9;
}

.white-text {
  color: #ffffff;
}

/*****************************HEADER*****************************/
.header-wrapper {
  background-color: rgba(255, 255, 255, 0.7);
  -webkit-backdrop-filter: blur(10px);
          backdrop-filter: blur(10px);
  z-index: 40;
  top: 0px;
}
.header-wrapper .contact-us {
  background-color: #0a51c9;
  box-shadow: none;
}
.header-wrapper .contact-us:hover {
  background-color: #0041ae;
}
.header-wrapper .header {
  height: 80px;
  display: flex;
  flex-direction: row;
  justify-content: space-between;
  align-items: center;
}
@media screen and (max-width: 576px) {
  .header-wrapper .header {
    height: 48px;
  }
}
.header-wrapper .header .burger-btn {
  display: none;
}
@media screen and (max-width: 992px) {
  .header-wrapper .header .burger-btn {
    display: block !important;
    height: 24px;
  }
}
@media screen and (max-width: 576px) {
  .header-wrapper .header .burger-btn {
    height: 14px;
  }
}
.header-wrapper .header .logo {
  display: flex;
  align-items: center;
}
@media screen and (max-width: 576px) {
  .header-wrapper .header .logo img {
    width: 116px;
    height: 22px;
  }
}
.header-wrapper .header .navbar {
  display: flex;
  list-style-type: none;
  display: flex;
  flex-direction: row;
  align-items: center;
  gap: 46px;
}
@media screen and (max-width: 1200px) {
  .header-wrapper .header .navbar {
    gap: 35px;
  }
}
@media screen and (max-width: 992px) {
  .header-wrapper .header .navbar {
    display: none;
  }
}
.header-wrapper .header .navbar .nav-items a {
  text-decoration: none;
  font-size: 16px;
  line-height: 24px;
  font-weight: 400;
  color: #000000;
  cursor: pointer;
}
@media screen and (max-width: 1200px) {
  .header-wrapper .header .navbar .nav-items a {
    font-size: 14px;
  }
}
.header-wrapper .header .navbar .nav-items .primary-button .btn-text {
  color: #ffffff;
}
.header-wrapper .header .navbar .nav-items:hover a, .header-wrapper .header .navbar .nav-items.active a {
  color: #136dfb;
}

/*****************************FOOTER*****************************/
.footers-wrapper {
  margin-top: 220px;
  background-color: #f9f9f9;
  display: flex;
  flex-direction: column;
  justify-content: center;
  align-items: center;
  padding-top: 90px;
}
@media screen and (max-width: 576px) {
  .footers-wrapper {
    margin-top: 140px;
    padding-top: 24px;
  }
}
.footers-wrapper .footer {
  display: grid;
  grid-template-columns: repeat(4, 1fr);
  gap: 50px;
  border-bottom: 1px solid #999a9c;
  padding-bottom: 35px;
  margin-top: 120px;
}
@media screen and (max-width: 1366px) {
  .footers-wrapper .footer {
    grid-template-columns: repeat(2, 1fr);
  }
}
@media screen and (max-width: 992px) {
  .footers-wrapper .footer {
    grid-template-columns: repeat(1, 1fr);
    gap: 24px;
  }
}
@media screen and (max-width: 768px) {
  .footers-wrapper .footer {
    padding-bottom: 35px;
  }
}
.footers-wrapper .footer .service-info .logo {
  margin-bottom: 26px;
}
.footers-wrapper .footer .service-info .info {
  display: flex;
  justify-content: start;
  align-items: center;
  gap: 6px;
}
.footers-wrapper .footer .service-info .info p {
  line-height: auto;
}
.footers-wrapper .footer .service-info ul li {
  list-style-type: none;
}
.footers-wrapper .footer .service-info ul li::before {
  content: "";
  width: 8px;
  height: 8px;
  border-radius: 10px;
  background-color: #D9D9D9;
  display: inline-block;
  margin-right: 8px;
}
.footers-wrapper .second-footer {
  padding: 45px 0;
  display: flex;
  flex-direction: row;
  justify-content: space-between;
  align-items: center;
}
@media screen and (max-width: 768px) {
  .footers-wrapper .second-footer {
    padding: 45px 15px !important;
    display: flex;
    flex-direction: column;
    align-items: baseline;
    gap: 16px;
  }
}
.footers-wrapper .second-footer .footer-buttons {
  display: flex;
  flex-direction: row;
  align-items: center;
  gap: 15px;
}
@media screen and (max-width: 768px) {
  .footers-wrapper .second-footer .footer-buttons {
    width: 100%;
    justify-content: center;
  }
}
@media screen and (max-width: 400px) {
  .footers-wrapper .second-footer .footer-buttons {
    flex-direction: column;
  }
}
.footers-wrapper .second-footer .firm-logos {
  display: flex;
  flex-direction: row;
  justify-content: space-between;
  align-items: center;
  gap: 5px;
  font-size: 14px;
  line-height: 21px;
  font-weight: 500;
  color: #262626;
  padding: 0 15px;
  border: 0;
  height: 38px;
  border-radius: 19px;
  background-color: transparent;
}
.footers-wrapper .second-footer .firm-logos .outer-border {
  position: absolute;
  top: 0px;
  right: 0px;
  bottom: 0px;
  left: 0px;
  width: 100%;
  height: 38px;
  border-radius: 19px;
  background-color: transparent;
  border: 1px solid #999a9c;
}
.footers-wrapper .second-footer .firm-logos:hover {
  border-top: 0;
  border-right: 0;
  border-left: 0;
  border-radius: 0;
  overflow: hidden;
  background-color: transparent;
}
.footers-wrapper .second-footer .firm-logos:hover .outer-border {
  transform: translateX(101%);
}
.footers-wrapper .second-footer .firm-logos:hover .f-with-hover {
  display: block;
}
.footers-wrapper .second-footer .firm-logos:hover .f-no-hover {
  display: none;
}
.footers-wrapper .second-footer .facebook:hover {
  color: #0a51c9;
}
.footers-wrapper .second-footer .facebook:hover::after {
  width: 100%;
}
.footers-wrapper .second-footer .facebook::after {
  content: "";
  position: absolute;
  bottom: 0px;
  left: 0px;
  width: 0px;
  height: 1px;
  background-color: #0a51c9;
  transition: width 0.3s ease;
}
.footers-wrapper .second-footer .linkdin:hover {
  color: #0a51c9;
}
.footers-wrapper .second-footer .linkdin:hover::after {
  width: 100%;
}
.footers-wrapper .second-footer .linkdin::after {
  content: "";
  position: absolute;
  bottom: 0px;
  left: 0px;
  width: 0px;
  height: 1px;
  background-color: #0a51c9;
  transition: width 0.3s ease;
}
.footers-wrapper .second-footer .intagram:hover {
  color: #ef583b;
}
.footers-wrapper .second-footer .intagram:hover::after {
  width: 100%;
}
.footers-wrapper .second-footer .intagram::after {
  content: "";
  position: absolute;
  bottom: 0px;
  left: 0px;
  width: 0px;
  height: 1px;
  background-color: #ef583b;
  transition: width 0.3s ease;
}
.footers-wrapper .second-footer .rights-reserved {
  font-size: 14px;
  line-height: 21px;
  font-weight: 500;
  color: #202323;
}
.footers-wrapper .footer-headings {
  display: flex;
  flex-direction: row;
  justify-content: space-between;
  align-items: center;
  border-radius: 26px;
  padding: 32px;
  background-color: #136dfb;
}
@media screen and (max-width: 992px) {
  .footers-wrapper .footer-headings {
    flex-direction: column;
  }
}
.footers-wrapper .footer-headings .footer-left-header {
  max-width: 400px;
  display: flex;
  flex-direction: column;
  justify-content: start;
  align-items: start;
  gap: 8px;
}
@media screen and (max-width: 992px) {
  .footers-wrapper .footer-headings .footer-left-header {
    max-width: 100%;
    width: 100%;
  }
}
.footers-wrapper .footer-headings .footer-left-header .footer-heading {
  font-size: 24px;
  line-height: 36px;
  font-weight: 600;
  color: #ffffff;
}
.footers-wrapper .footer-headings .footer-left-header .footer-text {
  font-size: 18px;
  line-height: 28px;
  font-weight: 400;
  color: #ffffff;
}
.footers-wrapper .footer-headings .email-input {
  background-color: transparent;
  width: 361px;
  height: 48px;
  margin: 0;
  padding: 0 125px 0 45px;
  border-radius: 24px;
  border: 1px solid #ffffff;
  box-sizing: border-box;
  display: flex;
  flex-direction: row;
  align-items: center;
  min-width: 361px;
}
@media screen and (max-width: 992px) {
  .footers-wrapper .footer-headings .email-input {
    position: relative;
    margin: 20px 0 12px 0;
    width: 100%;
  }
}
@media screen and (max-width: 768px) {
  .footers-wrapper .footer-headings .email-input {
    width: 100%;
    min-width: auto;
  }
}
.footers-wrapper .footer-headings .email-input input {
  background-color: transparent;
  font-size: 14px;
  line-height: 21px;
  font-weight: 500;
  color: #ffffff;
  outline: none;
  border: none;
  width: calc(100% - 1px);
}
.footers-wrapper .footer-headings .email-input input::-moz-placeholder {
  font-size: 14px;
  line-height: 21px;
  font-weight: 500;
  color: #ffffff;
}
.footers-wrapper .footer-headings .email-input input::placeholder {
  font-size: 14px;
  line-height: 21px;
  font-weight: 500;
  color: #ffffff;
}
.footers-wrapper .footer-headings .email-input .user {
  position: absolute;
  top: 12px;
  left: 16px;
}
.footers-wrapper .footer-headings .email-input button {
  background-color: #ffffff;
  color: #136dfb !important;
  box-shadow: none;
  position: absolute;
  top: 2px;
  right: 2px;
  height: 42px;
}

/**************************color-full inner-box***************************/
.colored-inner-box {
  border-radius: 15px;
}
.colored-inner-box .z-img {
  position: absolute;
  top: 0px;
  right: 0px;
}
.colored-inner-box .logo {
  width: 50px;
  height: 50px;
  border-radius: 15px;
  background: #202323;
  display: flex;
  justify-content: center;
  align-items: center;
}
.colored-inner-box .box-heading {
  font-size: 28px;
  line-height: 42px;
  font-weight: 400;
  color: #202323;
}
.colored-inner-box .box-content {
  font-size: 14px;
  line-height: 20px;
  font-weight: 500;
  color: #707070;
}
.colored-inner-box::before {
  content: "";
  width: 100%;
  height: 100%;
  background: linear-gradient(109.92deg, #0096ff 12.78%, #bb64ff 37.63%, #f2416b 62.12%, #eb7500 87.3%);
  transition: all 0.3s ease;
  position: absolute;
  top: 50%;
  left: 50%;
  transform: translate(-50%, -50%);
  z-index: 0;
  border-radius: 15px;
}
.colored-inner-box .overlay {
  width: calc(100% - 2px);
  height: calc(100% - 2px);
  background-color: #ffffff;
  position: absolute;
  top: 50%;
  left: 50%;
  transform: translate(-50%, -50%);
  border-radius: 15px;
}
.colored-inner-box .circle {
  width: 220px;
  height: 220px;
  background-color: #c0bedd;
  filter: blur(100px);
  position: absolute;
  top: 0px;
  right: 0px;
}
.colored-inner-box:hover {
  box-shadow: 0px 30px 60px 0px rgba(0, 0, 0, 0.2);
}
.colored-inner-box:hover::before {
  visibility: hidden;
}
.colored-inner-box:hover .logo {
  background: linear-gradient(136.29deg, #0096FF -4.39%, #BB64FF 32.56%, #F2416B 83.66%, #EB7500 106.92%);
  display: flex;
  justify-content: center;
  align-items: center;
}

/**************************photo and content-wrapped***************************/
.pic-content-wrapped-section {
  display: flex;
  flex-direction: row;
  align-items: center;
  box-shadow: 0px 20px 80px 0px rgba(0, 0, 0, 0.0509803922);
  background-color: #ffffff;
  border-radius: 30px;
  margin-bottom: 120px;
}
@media screen and (max-width: 768px) {
  .pic-content-wrapped-section {
    margin-right: 15px;
    margin-left: 15px;
    width: calc(100% - 30px);
  }
}
.pic-content-wrapped-section .left-part img {
  width: 550px;
}
@media screen and (max-width: 1200px) {
  .pic-content-wrapped-section .left-part img {
    width: 520px;
  }
}
@media screen and (max-width: 992px) {
  .pic-content-wrapped-section .left-part img {
    display: none;
  }
}
.pic-content-wrapped-section .right-part {
  padding: 0 120px;
}
@media screen and (max-width: 1720px) {
  .pic-content-wrapped-section .right-part {
    padding: 0 90px;
  }
}
@media screen and (max-width: 1440px) {
  .pic-content-wrapped-section .right-part {
    padding: 0 25px;
  }
}
@media screen and (max-width: 992px) {
  .pic-content-wrapped-section .right-part {
    padding: 60px;
  }
}
.pic-content-wrapped-section .right-part .clr-variation {
  color: #136dfb;
}
.pic-content-wrapped-section .right-part .section-content {
  font-size: 14px;
  line-height: 25px;
  font-weight: 400;
  color: #707070;
}

.image-text-section-wrapper {
  background-color: #f9f9f9;
  padding: 120px 0;
}
.image-text-section-wrapper .image-text {
  display: flex;
  height: 479px;
}
@media screen and (max-width: 992px) {
  .image-text-section-wrapper .image-text {
    flex-direction: column;
    height: auto;
  }
}
.image-text-section-wrapper .image-text .img-section {
  width: 44%;
}
@media screen and (max-width: 992px) {
  .image-text-section-wrapper .image-text .img-section {
    width: 100%;
  }
}
.image-text-section-wrapper .image-text .img-section img {
  border-top-left-radius: 30px;
  border-bottom-left-radius: 30px;
}
@media screen and (max-width: 992px) {
  .image-text-section-wrapper .image-text .img-section img {
    width: 100%;
    border-radius: 30px;
    border-bottom-left-radius: 0px;
    border-bottom-right-radius: 0px;
  }
}
@media screen and (max-width: 576px) {
  .image-text-section-wrapper .image-text .img-section img {
    width: 100%;
    border-radius: 20px;
    border-bottom-left-radius: 0px;
    border-bottom-right-radius: 0px;
  }
}
.image-text-section-wrapper .image-text .text-section {
  width: 60%;
  background-color: white;
  border-top-right-radius: 30px;
  border-bottom-right-radius: 30px;
  display: flex;
  flex-direction: row;
  align-items: center;
}
@media screen and (max-width: 992px) {
  .image-text-section-wrapper .image-text .text-section {
    border-radius: 30px;
    width: 100%;
    border-top-left-radius: 0px;
    border-top-right-radius: 0px;
    margin-bottom: 40px;
  }
}
@media screen and (max-width: 576px) {
  .image-text-section-wrapper .image-text .text-section {
    border-radius: 20px;
  }
}
.image-text-section-wrapper .image-text .text-section .ios-app-circle1 {
  background-color: #ABCCFF;
  filter: blur(135px);
  width: 230px;
  height: 230px;
  position: absolute;
  top: 0px;
  right: 0px;
}
@media screen and (max-width: 576px) {
  .image-text-section-wrapper .image-text .text-section .ios-app-circle1 {
    display: none;
  }
}
.image-text-section-wrapper .image-text .text-section .ios-app-circle2 {
  background-color: #ABCCFF;
  filter: blur(125px);
  width: 200px;
  height: 200px;
  border-radius: 50%;
  position: absolute;
  bottom: 0px;
  left: -100px;
}
@media screen and (max-width: 576px) {
  .image-text-section-wrapper .image-text .text-section .ios-app-circle2 {
    display: none;
  }
}
.image-text-section-wrapper .image-text .text-section .section {
  width: 83%;
  padding: 0 0 0 80px;
}
@media screen and (max-width: 992px) {
  .image-text-section-wrapper .image-text .text-section .section {
    width: auto;
    display: flex;
    flex-direction: column;
    justify-content: start;
    align-items: start;
  }
}
.image-text-section-wrapper .image-text .text-section .section .points {
  list-style-type: none;
}
.image-text-section-wrapper .image-text .text-section .section .points li {
  padding: 0 0 0 30px;
}
.image-text-section-wrapper .image-text .text-section .section .points li::before {
  content: "";
  position: absolute;
  top: 50%;
  left: 10px;
  transform: translate(-50%, -50%);
  width: 8px;
  height: 8px;
  border-radius: 50%;
  background-color: #D9D9D9;
}
.image-text-section-wrapper .image-text .text-section .ios-app-z-img1 {
  position: absolute;
  top: 0px;
  right: 0px;
}

/****************************featured-aspects*******************************/
.aspects {
  border: 1px solid #e8e8e8;
  border-radius: 30px;
  background-color: #ffffff;
  box-shadow: 0px 20px 80px 0px rgba(0, 0, 0, 0.0509803922);
  margin-bottom: 120px;
}
@media screen and (max-width: 1200px) {
  .aspects {
    padding: 25px;
  }
}
.aspects .large-heading {
  font-size: 48px;
  line-height: 72px;
  font-weight: 600;
  color: #202323;
}
@media screen and (max-width: 1440px) {
  .aspects .large-heading {
    font-size: 42px;
    line-height: 52px;
    font-weight: 600;
    color: #202323;
  }
}
@media screen and (max-width: 992px) {
  .aspects .large-heading {
    font-size: 32px;
    line-height: 42px;
    font-weight: 600;
    color: #202323;
  }
}
@media screen and (max-width: 576px) {
  .aspects .large-heading {
    font-size: 22px;
    line-height: 32px;
    font-weight: 600;
    color: #202323;
  }
}
.aspects .invisible {
  font-size: 120px;
  line-height: 180px;
  font-weight: 600;
  color: #FAFAFA;
  position: absolute;
  top: -35px;
  right: 21px;
}
@media screen and (max-width: 1440px) {
  .aspects .invisible {
    font-size: 100px;
    line-height: 130px;
    font-weight: 600;
    color: #FAFAFA;
  }
}
@media screen and (max-width: 992px) {
  .aspects .invisible {
    font-size: 80px;
    line-height: 100px;
    font-weight: 600;
    color: #FAFAFA;
    top: 10px;
  }
}
@media screen and (max-width: 576px) {
  .aspects .invisible {
    font-size: 60px;
    line-height: 80px;
    font-weight: 600;
    color: #FAFAFA;
  }
}
.aspects .boxes {
  display: flex;
  flex-direction: row;
  justify-content: space-between;
}
@media screen and (max-width: 992px) {
  .aspects .boxes {
    display: flex;
    flex-direction: column;
    justify-content: space-between;
    gap: 24px;
  }
}
.aspects .boxes .aspect-card1:hover {
  background: linear-gradient(to right, #136DFB, #9AC1FF, #1A71FB);
}
.aspects .boxes .aspect-card2:hover {
  background: linear-gradient(to right, #BB64FF, #DCAFFF, #BB64FF);
}
.aspects .boxes .aspect-card3:hover {
  background: linear-gradient(to right, #F2416B, #FF83A0, #F2416B);
}
.aspects .boxes .aspect-card4:hover {
  background: linear-gradient(to right, #EB7500, #FFC183, #EB7500);
}
.aspects .boxes .box {
  border-radius: 12px;
  background-color: #f9f9f9;
  width: 360px;
  height: auto;
}
@media screen and (max-width: 1720px) {
  .aspects .boxes .box {
    width: 295px;
    height: auto;
  }
}
@media screen and (max-width: 1440px) {
  .aspects .boxes .box {
    width: 225px;
    height: auto;
  }
}
@media screen and (max-width: 1200px) {
  .aspects .boxes .box {
    width: 205px;
    height: auto;
  }
}
@media screen and (max-width: 992px) {
  .aspects .boxes .box {
    width: 100%;
    height: auto;
  }
}
.aspects .boxes .box .img1 {
  display: block;
}
.aspects .boxes .box .img2 {
  display: none;
}
.aspects .boxes .box .box-heading {
  font-size: 24px;
  line-height: 36px;
  font-weight: 600;
  color: #202323;
}
@media screen and (max-width: 1440px) {
  .aspects .boxes .box .box-heading {
    font-size: 24px;
    line-height: 32px;
    font-weight: 600;
    color: #202323;
  }
}
.aspects .boxes .box .box-text {
  font-size: 14px;
  line-height: 25px;
  font-weight: 400;
  color: #707070;
}
.aspects .boxes .box:hover .hover-effect {
  color: #ffffff;
}
.aspects .boxes .box:hover .img1 {
  display: none;
}
.aspects .boxes .box:hover .img2 {
  display: block;
}

/*********************************transforming-future-AI*********************************/
.blue-transform-future-wrapper {
  padding: 120px 0;
}
@media screen and (max-width: 1700px) {
  .blue-transform-future-wrapper {
    padding: 60px;
  }
}
@media screen and (max-width: 1340px) {
  .blue-transform-future-wrapper {
    padding: 40px;
  }
}
@media screen and (max-width: 580px) {
  .blue-transform-future-wrapper {
    padding: 20px;
  }
}
.blue-transform-future-wrapper .transform-future {
  width: 85%;
  display: flex;
  flex-direction: row;
  justify-content: space-between;
  gap: 86px;
}
@media screen and (max-width: 1520px) {
  .blue-transform-future-wrapper .transform-future {
    width: 100%;
  }
}
@media screen and (max-width: 980px) {
  .blue-transform-future-wrapper .transform-future {
    flex-direction: column;
  }
}
@media screen and (max-width: 580px) {
  .blue-transform-future-wrapper .transform-future {
    gap: 40px;
  }
}
.blue-transform-future-wrapper .transform-future .left-part {
  width: 48%;
  display: flex;
  flex-direction: column;
  justify-content: center;
}
@media screen and (max-width: 980px) {
  .blue-transform-future-wrapper .transform-future .left-part {
    width: 100%;
  }
}
.blue-transform-future-wrapper .transform-future .left-part .section-title-text {
  text-transform: uppercase;
  font-size: 24px;
  line-height: 36px;
  font-weight: 600;
  color: #ffffff;
}
@media screen and (max-width: 1400px) {
  .blue-transform-future-wrapper .transform-future .left-part .section-title-text {
    font-size: 18px;
    line-height: 28px;
    font-weight: 600;
    color: #ffffff;
  }
}
@media screen and (max-width: 1140px) {
  .blue-transform-future-wrapper .transform-future .left-part .section-title-text {
    font-size: 14px;
    line-height: 22px;
    font-weight: 600;
    color: #ffffff;
  }
}
@media screen and (max-width: 980px) {
  .blue-transform-future-wrapper .transform-future .left-part .section-title-text {
    margin-bottom: 5px;
  }
}
.blue-transform-future-wrapper .transform-future .left-part .section-title {
  text-transform: uppercase;
}
@media screen and (max-width: 1400px) {
  .blue-transform-future-wrapper .transform-future .left-part .section-title {
    font-size: 18px;
    line-height: 28px;
    font-weight: 600;
    color: #136dfb;
  }
}
@media screen and (max-width: 1140px) {
  .blue-transform-future-wrapper .transform-future .left-part .section-title {
    font-size: 14px;
    line-height: 18px;
    font-weight: 600;
    color: #136dfb;
  }
}
@media screen and (max-width: 980px) {
  .blue-transform-future-wrapper .transform-future .left-part .section-title {
    margin-bottom: 10px;
  }
}
.blue-transform-future-wrapper .transform-future .left-part .section-heading-white {
  font-size: 48px;
  line-height: 60px;
  font-weight: 600;
  color: #ffffff;
}
@media screen and (max-width: 1600px) {
  .blue-transform-future-wrapper .transform-future .left-part .section-heading-white {
    font-size: 40px;
    line-height: 48px;
    font-weight: 600;
    color: #ffffff;
  }
}
@media screen and (max-width: 1400px) {
  .blue-transform-future-wrapper .transform-future .left-part .section-heading-white {
    font-size: 32px;
    line-height: 40px;
    font-weight: 600;
    color: #ffffff;
  }
}
@media screen and (max-width: 1140px) {
  .blue-transform-future-wrapper .transform-future .left-part .section-heading-white {
    font-size: 24px;
    line-height: 28px;
    font-weight: 600;
    color: #ffffff;
  }
}
@media screen and (max-width: 980px) {
  .blue-transform-future-wrapper .transform-future .left-part .section-heading-white {
    margin-bottom: 10px;
  }
}
.blue-transform-future-wrapper .transform-future .left-part .section-content-white {
  width: 92%;
  font-size: 16px;
  line-height: 24px;
  font-weight: 400;
  color: #ffffff;
}
@media screen and (max-width: 1354px) {
  .blue-transform-future-wrapper .transform-future .left-part .section-content-white {
    font-size: 14px;
    line-height: 22px;
    font-weight: 400;
    color: #ffffff;
    width: 80%;
  }
}
@media screen and (max-width: 1070px) {
  .blue-transform-future-wrapper .transform-future .left-part .section-content-white {
    font-size: 12px;
    line-height: 18px;
    font-weight: 400;
    color: #ffffff;
    width: 90%;
  }
}
.blue-transform-future-wrapper .transform-future .left-part .section-heading {
  font-size: 48px;
  line-height: 60px;
  font-weight: 600;
  color: #202323;
}
@media screen and (max-width: 1600px) {
  .blue-transform-future-wrapper .transform-future .left-part .section-heading {
    font-size: 40px;
    line-height: 48px;
    font-weight: 600;
    color: #202323;
  }
}
@media screen and (max-width: 1400px) {
  .blue-transform-future-wrapper .transform-future .left-part .section-heading {
    font-size: 32px;
    line-height: 40px;
    font-weight: 600;
    color: #202323;
  }
}
@media screen and (max-width: 1140px) {
  .blue-transform-future-wrapper .transform-future .left-part .section-heading {
    font-size: 24px;
    line-height: 28px;
    font-weight: 600;
    color: #202323;
  }
}
@media screen and (max-width: 980px) {
  .blue-transform-future-wrapper .transform-future .left-part .section-heading {
    margin-bottom: 20px;
  }
}
.blue-transform-future-wrapper .transform-future .left-part .section-content {
  width: 92%;
  font-size: 16px;
  line-height: 24px;
  font-weight: 400;
  color: #707070;
}
@media screen and (max-width: 1354px) {
  .blue-transform-future-wrapper .transform-future .left-part .section-content {
    font-size: 14px;
    line-height: 22px;
    font-weight: 400;
    color: #707070;
    width: 80%;
  }
}
@media screen and (max-width: 1070px) {
  .blue-transform-future-wrapper .transform-future .left-part .section-content {
    font-size: 12px;
    line-height: 18px;
    font-weight: 400;
    color: #707070;
    width: 90%;
  }
}
@media screen and (max-width: 980px) {
  .blue-transform-future-wrapper .transform-future .left-part .section-content {
    margin-bottom: 30px;
  }
}
.blue-transform-future-wrapper .transform-future .left-part .white-button {
  background-color: #ffffff;
  color: #136dfb;
}
.blue-transform-future-wrapper .transform-future .right-part {
  width: 50%;
  background-color: #ffffff;
  border-radius: 15px;
  position: relative;
}
@media screen and (max-width: 1440px) {
  .blue-transform-future-wrapper .transform-future .right-part {
    padding: 15px;
  }
}
@media screen and (max-width: 980px) {
  .blue-transform-future-wrapper .transform-future .right-part {
    width: 100%;
    padding: 10px;
  }
}
@media screen and (max-width: 580px) {
  .blue-transform-future-wrapper .transform-future .right-part {
    padding: 5px;
  }
}
.blue-transform-future-wrapper .transform-future .colorful-background::after, .blue-transform-future-wrapper .transform-future .colorful-background::before {
  content: "";
  position: absolute;
  left: 0;
  top: 0;
  width: 100%;
  height: 100%;
  background: linear-gradient(-360deg, rgba(0, 150, 255, 0.3), rgba(187, 100, 255, 0.3), rgba(242, 65, 107, 0.3), rgba(235, 117, 0, 0.3));
  z-index: -1;
  background-size: 400%;
  border-radius: 15px;
}
.blue-transform-future-wrapper .transform-future .colorful-background::after {
  filter: blur(80px);
}
.blue-transform-future-wrapper .z-img1 {
  position: absolute;
  top: 0;
  right: 0;
}
.blue-transform-future-wrapper .z-img2 {
  position: absolute;
  left: 0;
  bottom: 0;
}
.blue-transform-future-wrapper .circle1 {
  width: 500px;
  height: 500px;
  background-color: white;
  filter: blur(295px);
  position: absolute;
  top: 0;
  right: 0;
}
.blue-transform-future-wrapper .circle2 {
  width: 500px;
  height: 500px;
  background-color: white;
  filter: blur(295px);
  position: absolute;
  bottom: 0;
  right: 600px;
}
.blue-transform-future-wrapper .circle3 {
  width: 200px;
  height: 200px;
  background-color: white;
  filter: blur(115px);
  position: absolute;
  top: 0;
  left: 0;
}

/*********************************transforming-future-AI*******************************/
.transform-future-wrapper {
  margin-bottom: 120px;
  padding: 40px 0;
  background-color: #f9f9f9;
}
.transform-future-wrapper .transform-future {
  display: flex;
  flex-direction: row;
  justify-content: space-between;
  gap: 60px;
}
@media screen and (max-width: 992px) {
  .transform-future-wrapper .transform-future {
    display: flex;
    flex-direction: column-reverse;
    justify-content: space-between;
    gap: 36px;
  }
}
.transform-future-wrapper .transform-future-alternate {
  display: flex;
  flex-direction: row-reverse;
  justify-content: space-between;
  gap: 60px;
}
@media screen and (max-width: 992px) {
  .transform-future-wrapper .transform-future-alternate {
    display: flex;
    flex-direction: column-reverse;
    justify-content: space-between;
    gap: 36px;
  }
}
.transform-future-wrapper .left-part {
  width: 50%;
  display: flex;
  flex-direction: column;
  justify-content: center;
}
@media screen and (max-width: 992px) {
  .transform-future-wrapper .left-part {
    width: 100%;
  }
}
.transform-future-wrapper .right-part {
  width: 50%;
  background-color: #ffffff;
  border-radius: 15px;
}
@media screen and (max-width: 992px) {
  .transform-future-wrapper .right-part {
    width: 100%;
  }
}
@media screen and (max-width: 1440px) {
  .transform-future-wrapper .right-part img {
    height: 100%;
    -o-object-fit: cover;
       object-fit: cover;
    border-radius: 10px;
  }
}

/**********************************full-spectrum [ MOBILE PAGE ] ********************************/
.full-spectrum-outer {
  padding-top: 120px;
  padding-bottom: 100px;
  display: flex;
  flex-direction: column;
  justify-content: center;
  align-items: center;
}

.full-spectrum-cards {
  width: 80%;
  display: flex;
  gap: 20px;
}
@media screen and (max-width: 1810px) {
  .full-spectrum-cards {
    flex-wrap: wrap;
    width: 96%;
    justify-content: center;
  }
}

.full-spectrum-inner {
  padding: 25px;
  border-radius: 15px;
  background-color: #F9F9F9;
  width: 20%;
}
@media screen and (max-width: 1400px) {
  .full-spectrum-inner {
    width: 40%;
  }
}
@media screen and (max-width: 620px) {
  .full-spectrum-inner {
    width: 80%;
  }
}
.full-spectrum-inner .spectrum {
  display: flex;
  align-items: center;
  gap: 10px;
}
.full-spectrum-inner .spectrum .div {
  border-radius: 12px;
  background-color: #0096FF;
  padding: 12px;
}
.full-spectrum-inner .spectrum .div img {
  width: 100%;
}
@media screen and (max-width: 480px) {
  .full-spectrum-inner .spectrum .div {
    width: 20px;
    height: 20px;
  }
}
.full-spectrum-inner .spectrum .img-div2 {
  background-color: #BB64FF;
}
.full-spectrum-inner .spectrum .img-div3 {
  background-color: #F2416B;
}
.full-spectrum-inner .spectrum .img-div4 {
  background-color: #EB7500;
}
.full-spectrum-inner .spectrum .mobile {
  font-size: 18px;
  line-height: 30px;
  font-weight: 600;
  color: #202323;
}
@media screen and (max-width: 870px) {
  .full-spectrum-inner .spectrum .mobile {
    font-size: 16px;
    line-height: 26px;
    font-weight: 600;
    color: #202323;
  }
}
.full-spectrum-inner .text {
  font-size: 14px;
  line-height: 25px;
  font-weight: 400;
  color: #707070;
}
@media screen and (max-width: 870px) {
  .full-spectrum-inner .text {
    font-size: 13px;
    line-height: 20px;
    font-weight: 400;
    color: #707070;
  }
}

.fs-large-heading {
  text-align: center;
  font-size: 48px;
  line-height: 72px;
  font-weight: 600;
  color: #202323;
}
@media screen and (max-width: 1480px) {
  .fs-large-heading {
    font-size: 42px;
    line-height: 52px;
    font-weight: 600;
    color: #202323;
  }
}
@media screen and (max-width: 1094px) {
  .fs-large-heading {
    font-size: 32px;
    line-height: 42px;
    font-weight: 600;
    color: #202323;
  }
}
@media screen and (max-width: 480px) {
  .fs-large-heading {
    font-size: 22px;
    line-height: 32px;
    font-weight: 600;
    color: #202323;
  }
}

.fs-normal-text {
  text-align: center;
  width: 40%;
  font-size: 14px;
  line-height: 25px;
  font-weight: 400;
  color: #707070;
}
@media screen and (max-width: 1440px) {
  .fs-normal-text {
    width: 60%;
  }
}
@media screen and (max-width: 1094px) {
  .fs-normal-text {
    width: 80%;
  }
}
@media screen and (max-width: 480px) {
  .fs-normal-text {
    font-size: 12px;
    line-height: 20px;
    font-weight: 400;
    color: #707070;
  }
}

.services-we-offer {
  margin-bottom: 120px;
}
.services-we-offer .boxes-wrapper {
  display: flex;
  flex-direction: row;
  justify-content: center;
  align-items: center;
  flex-wrap: wrap;
  gap: 17px;
}
.services-we-offer .boxes-wrapper .box {
  width: calc(25% - 13px);
  height: 300px;
  border: 1px solid #E8E8E8;
  box-shadow: 0px 20px 80px 0px rgba(0, 0, 0, 0.0509803922);
  background-color: #ffffff;
  border-radius: 16px;
}
@media screen and (max-width: 1440px) {
  .services-we-offer .boxes-wrapper .box {
    width: calc(25% - 13px);
    height: 340px;
  }
}
@media screen and (max-width: 1200px) {
  .services-we-offer .boxes-wrapper .box {
    width: calc(33% - 9px);
    height: 314px;
  }
}
@media screen and (max-width: 992px) {
  .services-we-offer .boxes-wrapper .box {
    width: calc(50% - 9px);
    height: 285px;
  }
}
@media screen and (max-width: 768px) {
  .services-we-offer .boxes-wrapper .box {
    width: 100%;
    height: auto;
  }
}
.services-we-offer .boxes-wrapper .box .logo {
  display: flex;
  flex-direction: row;
  justify-content: center;
  align-items: center;
  border-radius: 16px;
  width: 60px;
  height: 60px;
  position: absolute;
  top: -30px;
  left: 25px;
}
.services-we-offer .boxes-wrapper .box .logo.logo-1 {
  background-color: #136DFB;
  box-shadow: 0px 10px 60px 0px rgba(19, 109, 251, 0.4);
}
.services-we-offer .boxes-wrapper .box .logo.logo-2 {
  background-color: #EB7500;
  box-shadow: 0px 10px 60px 0px rgba(235, 117, 0, 0.4);
}
.services-we-offer .boxes-wrapper .box .logo.logo-3 {
  background-color: #BB64FF;
  box-shadow: 0px 10px 60px 0px rgba(187, 100, 255, 0.4);
}
.services-we-offer .boxes-wrapper .box .logo.logo-4 {
  background-color: #F2416B;
  box-shadow: 0px 10px 60px 0px rgba(242, 65, 107, 0.4);
}
.services-we-offer .boxes-wrapper .box .logo.logo-5 {
  background-color: #BB64FF;
  box-shadow: 0px 10px 60px 0px rgba(187, 100, 255, 0.4);
}
.services-we-offer .boxes-wrapper .box .logo.logo-6 {
  background-color: #F2416B;
  box-shadow: 0px 10px 60px 0px rgba(242, 65, 107, 0.4);
}
.services-we-offer .boxes-wrapper .box .logo.logo-7 {
  background-color: #136DFB;
  box-shadow: 0px 10px 60px 0px rgba(19, 109, 251, 0.4);
}
.services-we-offer .boxes-wrapper .box .number {
  font-size: 24px;
  line-height: 24px;
  font-weight: 600;
  color: #EDEEED;
  position: absolute;
  top: 12px;
  right: 12px;
}
.services-we-offer .boxes-wrapper .box .box-heading {
  font-size: 24px;
  line-height: 36px;
  font-weight: 600;
  color: #202323;
}
.services-we-offer .boxes-wrapper .box .box-content {
  font-size: 14px;
  line-height: 26px;
  font-weight: 400;
  color: #707070;
}

/***************************** KEY FEATURES ********************************/
.kf-wrapper {
  margin-bottom: 120px;
  padding: 120px 0;
  background-color: #f9f9f9;
}
.kf-wrapper .kf-main-content {
  width: 700px;
}
.kf-wrapper .key-features .kf-boxes-wrapper {
  display: flex;
  flex-direction: row;
  justify-content: space-between;
  align-items: center;
  gap: 20px;
}
@media screen and (max-width: 1440px) {
  .kf-wrapper .key-features .kf-boxes-wrapper {
    display: flex;
    flex-direction: row;
    justify-content: space-between;
    align-items: center;
    gap: 14px;
  }
}
@media screen and (max-width: 1200px) {
  .kf-wrapper .key-features .kf-boxes-wrapper {
    display: flex;
    flex-direction: row;
    justify-content: start;
    align-items: center;
    flex-wrap: wrap;
    gap: 14px;
  }
}
.kf-wrapper .key-features .kf-boxes-wrapper .kf-box {
  border-radius: 16px;
  background-color: #ffffff;
  width: 313px;
  height: 170px;
}
@media screen and (max-width: 1720px) {
  .kf-wrapper .key-features .kf-boxes-wrapper .kf-box {
    width: 254px;
    height: 190px;
  }
}
@media screen and (max-width: 1440px) {
  .kf-wrapper .key-features .kf-boxes-wrapper .kf-box {
    padding: 14px;
    width: 199px;
    height: 225px;
  }
}
@media screen and (max-width: 1200px) {
  .kf-wrapper .key-features .kf-boxes-wrapper .kf-box {
    width: 303px;
    height: 125px;
  }
}
@media screen and (max-width: 992px) {
  .kf-wrapper .key-features .kf-boxes-wrapper .kf-box {
    width: 343px;
    height: 110px;
  }
}
@media screen and (max-width: 768px) {
  .kf-wrapper .key-features .kf-boxes-wrapper .kf-box {
    width: calc(50% - 7px);
    height: auto;
  }
}
.kf-wrapper .key-features .kf-boxes-wrapper .kf-box .box-heading {
  font-size: 18px;
  line-height: 22px;
  font-weight: 600;
  color: #136dfb;
}
.kf-wrapper .key-features .kf-boxes-wrapper .kf-box .box-heading span {
  color: #202323;
  margin-right: 4px;
}
@media screen and (max-width: 1440px) {
  .kf-wrapper .key-features .kf-boxes-wrapper .kf-box .section-content {
    margin-top: 6px;
  }
}

/************************************ AI SOLUTIONS ***************************************/
@media screen and (max-width: 768px) {
  .ai-solutions {
    padding: 15px;
    box-sizing: border-box;
  }
}

.as-main-content {
  width: 936px;
}
@media screen and (max-width: 992px) {
  .as-main-content {
    width: 700px;
  }
}

.as-box {
  width: 345px;
  height: 190px;
  box-shadow: 0px 20px 80px 0px rgba(0, 0, 0, 0.0509803922);
  background-color: #ffffff;
  border: 1px solid #E8E8E8;
  border-radius: 12px;
}
@media screen and (max-width: 1720px) {
  .as-box {
    width: 315px;
    height: 190px;
  }
}
@media screen and (max-width: 1440px) {
  .as-box {
    width: 247px;
    height: 210px;
  }
}
@media screen and (max-width: 1200px) {
  .as-box {
    width: 300px;
    height: 160px;
  }
}
@media screen and (max-width: 992px) {
  .as-box {
    width: 340px;
    height: 157px;
  }
}
@media screen and (max-width: 768px) {
  .as-box {
    width: 100%;
    height: auto;
  }
}
.as-box .upper-part {
  display: flex;
  flex-direction: row;
  align-items: center;
  gap: 16px;
  position: absolute;
  top: 0px;
  left: 0px;
}
@media screen and (max-width: 1440px) {
  .as-box .upper-part {
    display: flex;
    flex-direction: row;
    align-items: center;
    gap: 12px;
  }
}
.as-box .upper-part .logo-wrapper {
  width: 58px;
  height: 58px;
  background-color: #ffffff;
  border-bottom-right-radius: 12px;
  border-right: 1px solid #E8E8E8;
  border-bottom: 1px solid #E8E8E8;
  padding: 0 8px 8px 0;
}
.as-box .upper-part .logo-wrapper::before {
  content: "";
  position: relative;
  display: block;
  top: -1px;
  left: -1px;
  width: calc(100% + 9px);
  height: calc(100% + 9px);
  background-color: #ffffff;
  border-bottom-right-radius: 12px;
}
.as-box .upper-part .logo-wrapper .logo {
  display: flex;
  justify-content: center;
  align-items: center;
  position: absolute;
  top: 0px;
  left: 0px;
  background-color: #202323;
  width: 50px;
  height: 50px;
  border-radius: 12px;
}
.as-box .box-heading {
  font-size: 24px;
  font-weight: 600;
  color: #136dfb;
}
@media screen and (max-width: 1440px) {
  .as-box .box-heading {
    width: calc(100% - 80px);
    font-size: 20px;
    font-weight: 600;
    color: #136dfb;
  }
}
@media screen and (max-width: 1200px) {
  .as-box .box-heading {
    width: auto;
  }
}
.as-box .inner-section-content {
  margin-top: 52px;
}

.as-boxes {
  display: grid;
  justify-content: space-between;
  gap: 30px;
  grid-template-columns: repeat(4, auto);
  margin-top: 40px;
  padding: 0 90px;
  margin-bottom: 120px;
}
@media screen and (max-width: 1720px) {
  .as-boxes {
    padding: 0;
  }
}
@media screen and (max-width: 1440px) {
  .as-boxes {
    gap: 20px;
  }
}
@media screen and (max-width: 1200px) {
  .as-boxes {
    grid-template-columns: repeat(3, auto);
  }
}
@media screen and (max-width: 992px) {
  .as-boxes {
    grid-template-columns: repeat(2, auto);
  }
}
@media screen and (max-width: 576px) {
  .as-boxes {
    grid-template-columns: repeat(1, auto);
  }
}

/*************************************** ed-banner *************************************/
.ed-banner .ed-banner-heading {
  width: 1200px;
}
.ed-banner .ed-banner-content {
  width: 1020px;
}
.ed-banner .banner-image {
  position: absolute;
  top: 90px;
  left: 50%;
}
.ed-banner .banner-blur-circle-1 {
  filter: blur(290px);
}
.ed-banner .banner-circle-border {
  width: 701px;
  height: 701px;
  position: absolute;
  top: 100px;
  left: 50%;
  transform: translateX(-50%);
  border: 1px solid #E8E8E8;
}
.ed-banner .ed-inner-box {
  width: 1835px;
  height: 200px;
  top: 110px;
  left: 50%;
  transform: translate(-50%, -50%);
}
.ed-banner .ed-inner-box .img-circle {
  width: 61px;
  height: 61px;
  display: flex;
  justify-content: center;
  align-items: center;
}
.ed-banner .ed-inner-box .light-circle {
  background-color: #ffffff;
  border: 1px solid rgba(19, 109, 251, 0.0509803922);
}
.ed-banner .ed-inner-box .dark-circle {
  width: 47px;
  height: 47px;
  background-color: #202323;
}
.ed-banner .ed-inner-box .chair-n-bag {
  width: 424px;
  height: 73px;
  padding: 0 6px;
  border-radius: 36px;
}
.ed-banner .ed-inner-box .chair-n-bag.cb-top {
  background: #E8E8E8;
  display: flex;
  flex-direction: row;
  justify-content: space-between;
  align-items: center;
  position: absolute;
  top: 100px;
  left: 50%;
  transform: translateX(-50%);
}
.ed-banner .ed-inner-box .chair-n-bag.cb-left {
  background: linear-gradient(90deg, #FFFFFF 0%, #EBEBEB 100%);
  display: flex;
  flex-direction: row;
  justify-content: end;
  align-items: center;
  position: absolute;
  top: 277px;
  left: 22%;
  transform: translateX(-50%);
}
.ed-banner .ed-inner-box .chair-n-bag.cb-right {
  background: linear-gradient(90deg, #EBEBEB 0%, #FFFFFF 100%);
  display: flex;
  flex-direction: row;
  justify-content: start;
  align-items: center;
  position: absolute;
  top: 277px;
  left: 78%;
  transform: translateX(-50%);
}
.ed-banner .ed-inner-box .logo-n-label {
  width: -moz-fit-content;
  width: fit-content;
}
.ed-banner .ed-inner-box .logo-n-label.management {
  display: flex;
  flex-direction: row-reverse;
  justify-content: space-between;
  align-items: center;
  gap: 10px;
  position: absolute;
  top: 183px;
  left: 31%;
  transform: translateX(-50%);
}
.ed-banner .ed-inner-box .logo-n-label.efficiency {
  display: flex;
  flex-direction: row-reverse;
  justify-content: space-between;
  align-items: center;
  gap: 10px;
  position: absolute;
  top: 387px;
  left: 27%;
  transform: translateX(-50%);
}
.ed-banner .ed-inner-box .logo-n-label.shopping {
  display: flex;
  flex-direction: row;
  justify-content: space-between;
  align-items: center;
  gap: 10px;
  position: absolute;
  top: 183px;
  left: 68%;
  transform: translateX(-50%);
}
.ed-banner .ed-inner-box .logo-n-label.market {
  display: flex;
  flex-direction: row;
  justify-content: space-between;
  align-items: center;
  gap: 10px;
  position: absolute;
  top: 387px;
  left: 72%;
  transform: translateX(-50%);
}

/********************************** VISION TO LIFE *************************************/
.vision-to-life {
  background-image: url("../../custom/images/bg-img.svg");
  background-repeat: no-repeat;
  background-size: cover;
  display: flex;
  flex-direction: row;
  justify-content: start;
  align-items: center;
  background-position: right;
  padding: 0 90px;
  height: 460px;
  border-radius: 30px;
  margin-bottom: 200px;
  border: 1px solid #E8E8E8;
}
@media screen and (max-width: 1720px) {
  .vision-to-life {
    height: 380px;
  }
}
.vision-to-life .content {
  width: 838px;
}
.vision-to-life .content .vision {
  color: #F2416B;
}
.vision-to-life .content .start {
  color: #136dfb;
}

/********************************** REMARKABLE BENEFITS *************************************/
.cs-remarkable-benefits-wrapper {
  margin-bottom: 120px;
}
@media screen and (max-width: 768px) {
  .cs-remarkable-benefits-wrapper {
    padding: 15px;
    box-sizing: border-box;
  }
}
@media screen and (max-width: 992px) {
  .cs-remarkable-benefits-wrapper .section-heading {
    width: 700px;
    margin-right: auto;
    margin-left: auto;
  }
}
@media screen and (max-width: 768px) {
  .cs-remarkable-benefits-wrapper .section-heading {
    width: 100%;
  }
}
.cs-remarkable-benefits-wrapper .boxes-wrapper {
  box-shadow: 0px 20px 80px 0px rgba(0, 0, 0, 0.0509803922);
  border: 1px solid #E8E8E8;
  border-radius: 30px;
  display: grid;
  grid-template-columns: repeat(4, auto);
  justify-content: space-between;
  gap: 46px;
  margin-top: 40px;
}
@media screen and (max-width: 1720px) {
  .cs-remarkable-benefits-wrapper .boxes-wrapper {
    gap: 36px;
  }
}
@media screen and (max-width: 1440px) {
  .cs-remarkable-benefits-wrapper .boxes-wrapper {
    padding: 28px;
    gap: 28px;
  }
}
@media screen and (max-width: 1200px) {
  .cs-remarkable-benefits-wrapper .boxes-wrapper {
    grid-template-columns: repeat(3, auto);
  }
}
@media screen and (max-width: 992px) {
  .cs-remarkable-benefits-wrapper .boxes-wrapper {
    grid-template-columns: repeat(2, auto);
  }
}
@media screen and (max-width: 576px) {
  .cs-remarkable-benefits-wrapper .boxes-wrapper {
    grid-template-columns: repeat(1, auto);
  }
}
.cs-remarkable-benefits-wrapper .boxes-wrapper .box {
  width: 358px;
  height: auto;
  background-color: #f9f9f9;
  border-radius: 15px;
}
@media screen and (max-width: 1720px) {
  .cs-remarkable-benefits-wrapper .boxes-wrapper .box {
    width: 290px;
    height: auto;
  }
}
@media screen and (max-width: 1440px) {
  .cs-remarkable-benefits-wrapper .boxes-wrapper .box {
    width: 227px;
    height: auto;
    padding: 14px;
  }
}
@media screen and (max-width: 1200px) {
  .cs-remarkable-benefits-wrapper .boxes-wrapper .box {
    width: 275px;
    height: auto;
  }
}
@media screen and (max-width: 992px) {
  .cs-remarkable-benefits-wrapper .boxes-wrapper .box {
    width: 307px;
    height: auto;
  }
}
@media screen and (max-width: 768px) {
  .cs-remarkable-benefits-wrapper .boxes-wrapper .box {
    width: 100%;
    height: auto;
  }
}
.cs-remarkable-benefits-wrapper .boxes-wrapper .box .upper-part {
  margin-bottom: 18px;
  display: flex;
  flex-direction: row;
  align-items: center;
  gap: 15px;
}
@media screen and (max-width: 1440px) {
  .cs-remarkable-benefits-wrapper .boxes-wrapper .box .upper-part {
    margin-bottom: 10px;
    gap: 12px;
  }
}
.cs-remarkable-benefits-wrapper .boxes-wrapper .box .upper-part .logo {
  width: 60px;
  height: 60px;
  display: flex;
  justify-content: center;
  align-items: center;
  border-radius: 16px;
}
@media screen and (max-width: 1440px) {
  .cs-remarkable-benefits-wrapper .boxes-wrapper .box .upper-part .logo {
    border-radius: 12px;
    width: 44px;
    height: 44px;
  }
}
@media screen and (max-width: 1440px) {
  .cs-remarkable-benefits-wrapper .boxes-wrapper .box .upper-part .logo img {
    width: 30px;
  }
}
.cs-remarkable-benefits-wrapper .boxes-wrapper .box .upper-part .logo.logo-1 {
  background-color: #136DFB;
  box-shadow: 0px 10px 60px 0px rgba(19, 109, 251, 0.4);
}
.cs-remarkable-benefits-wrapper .boxes-wrapper .box .upper-part .logo.logo-2 {
  background-color: #EB7500;
  box-shadow: 0px 10px 60px 0px rgba(235, 117, 0, 0.4);
}
.cs-remarkable-benefits-wrapper .boxes-wrapper .box .upper-part .logo.logo-3 {
  background-color: #BB64FF;
  box-shadow: 0px 10px 60px 0px rgba(187, 100, 255, 0.4);
}
.cs-remarkable-benefits-wrapper .boxes-wrapper .box .upper-part .logo.logo-4 {
  background-color: #F2416B;
  box-shadow: 0px 10px 60px 0px rgba(242, 65, 107, 0.4);
}
.cs-remarkable-benefits-wrapper .boxes-wrapper .box .upper-part .logo.logo-5 {
  background-color: #BB64FF;
  box-shadow: 0px 10px 60px 0px rgba(187, 100, 255, 0.4);
}
.cs-remarkable-benefits-wrapper .boxes-wrapper .box .upper-part .logo.logo-6 {
  background-color: #F2416B;
  box-shadow: 0px 10px 60px 0px rgba(242, 65, 107, 0.4);
}
.cs-remarkable-benefits-wrapper .boxes-wrapper .box .upper-part .logo.logo-7 {
  background-color: #136DFB;
  box-shadow: 0px 10px 60px 0px rgba(19, 109, 251, 0.4);
}
.cs-remarkable-benefits-wrapper .boxes-wrapper .box .upper-part .logo.logo-8 {
  background-color: #EB7500;
  box-shadow: 0px 10px 60px 0px rgba(235, 117, 0, 0.4);
}
.cs-remarkable-benefits-wrapper .boxes-wrapper .box .upper-part .box-heading {
  width: calc(100% - 60px);
  font-size: 24px;
  line-height: 30px;
  font-weight: 600;
  color: #202323;
}
@media screen and (max-width: 1720px) {
  .cs-remarkable-benefits-wrapper .boxes-wrapper .box .upper-part .box-heading {
    font-size: 20px;
    line-height: 24px;
    font-weight: 600;
    color: #202323;
  }
}
@media screen and (max-width: 1440px) {
  .cs-remarkable-benefits-wrapper .boxes-wrapper .box .upper-part .box-heading {
    font-size: 16px;
    line-height: 20px;
    font-weight: 600;
    color: #202323;
  }
}

/********************************** DIGITAL TRANSFORMATION *************************************/
.cs-digital-transform-wrapper {
  position: relative;
}
.cs-digital-transform-wrapper .overley {
  content: "";
  margin: auto;
  position: absolute;
  left: 25%;
  top: 0px;
  z-index: -1;
  height: 100%;
  width: 600px;
  background: linear-gradient(109.92deg, rgba(0, 149, 255, 0.3), rgba(187, 100, 255, 0.3), rgba(242, 65, 107, 0.3), rgba(235, 117, 0, 0.3));
  filter: blur(80px);
}
.cs-digital-transform-wrapper .digital-transformation {
  width: 90%;
  height: 520px;
  margin-top: 120px;
  overflow: hidden;
  border-radius: 30px;
  box-shadow: 0px 20px 80px 0px rgba(0, 0, 0, 0.0509803922);
  display: flex;
  flex-direction: row;
  justify-content: space-between;
}
@media screen and (max-width: 1520px) {
  .cs-digital-transform-wrapper .digital-transformation {
    width: 95%;
  }
}
@media screen and (max-width: 980px) {
  .cs-digital-transform-wrapper .digital-transformation {
    flex-direction: column;
    height: auto;
  }
}
.cs-digital-transform-wrapper .digital-transformation .left-part {
  padding: 0 100px 0 84px;
  background-color: #ffffff;
  box-shadow: 0px 20px 80px 0px rgba(0, 0, 0, 0.5);
  display: flex;
  flex-direction: column;
  justify-content: center;
  border-top-right-radius: 30px;
  border-bottom-right-radius: 30px;
}
@media screen and (max-width: 1440px) {
  .cs-digital-transform-wrapper .digital-transformation .left-part {
    padding: 50px;
  }
}
@media screen and (max-width: 980px) {
  .cs-digital-transform-wrapper .digital-transformation .left-part {
    width: 90%;
  }
}
@media screen and (max-width: 480px) {
  .cs-digital-transform-wrapper .digital-transformation .left-part {
    width: 91%;
    padding: 20px;
    border-radius: 0;
  }
}
.cs-digital-transform-wrapper .digital-transformation .left-part .section-title {
  text-transform: uppercase;
}
@media screen and (max-width: 1400px) {
  .cs-digital-transform-wrapper .digital-transformation .left-part .section-title {
    font-size: 18px;
    line-height: 28px;
    font-weight: 600;
    color: #136dfb;
  }
}
@media screen and (max-width: 1140px) {
  .cs-digital-transform-wrapper .digital-transformation .left-part .section-title {
    font-size: 14px;
    line-height: 22px;
    font-weight: 600;
    color: #136dfb;
  }
}
@media screen and (max-width: 980px) {
  .cs-digital-transform-wrapper .digital-transformation .left-part .section-title {
    margin-bottom: 5px;
  }
}
.cs-digital-transform-wrapper .digital-transformation .left-part .section-heading {
  font-size: 48px;
  line-height: 60px;
  font-weight: 600;
  color: #202323;
}
@media screen and (max-width: 1600px) {
  .cs-digital-transform-wrapper .digital-transformation .left-part .section-heading {
    font-size: 40px;
    line-height: 48px;
    font-weight: 600;
    color: #202323;
  }
}
@media screen and (max-width: 1400px) {
  .cs-digital-transform-wrapper .digital-transformation .left-part .section-heading {
    font-size: 32px;
    line-height: 40px;
    font-weight: 600;
    color: #202323;
  }
}
@media screen and (max-width: 1140px) {
  .cs-digital-transform-wrapper .digital-transformation .left-part .section-heading {
    font-size: 22px;
    line-height: 28px;
    font-weight: 600;
    color: #202323;
  }
}
@media screen and (max-width: 980px) {
  .cs-digital-transform-wrapper .digital-transformation .left-part .section-heading {
    margin-bottom: 10px;
  }
}
.cs-digital-transform-wrapper .digital-transformation .left-part .section-content {
  width: 100%;
  font-size: 16px;
  line-height: 24px;
  font-weight: 400;
  color: #707070;
}
@media screen and (max-width: 1354px) {
  .cs-digital-transform-wrapper .digital-transformation .left-part .section-content {
    font-size: 14px;
    line-height: 22px;
    font-weight: 400;
    color: #707070;
    width: 80%;
  }
}
@media screen and (max-width: 1070px) {
  .cs-digital-transform-wrapper .digital-transformation .left-part .section-content {
    font-size: 12px;
    line-height: 18px;
    font-weight: 400;
    color: #707070;
    width: 90%;
  }
}
@media screen and (max-width: 980px) {
  .cs-digital-transform-wrapper .digital-transformation .left-part .section-content {
    margin-bottom: 0px;
  }
}
.cs-digital-transform-wrapper .digital-transformation .right-part {
  background-color: #ffffff;
  border-radius: 15px;
}
@media screen and (max-width: 1440px) {
  .cs-digital-transform-wrapper .digital-transformation .right-part {
    width: 50%;
  }
}
@media screen and (max-width: 980px) {
  .cs-digital-transform-wrapper .digital-transformation .right-part {
    width: 100%;
    border-top-right-radius: 30px;
    border-top-left-radius: 30px;
    border-bottom-right-radius: 0;
    border-bottom-left-radius: 0;
  }
  .cs-digital-transform-wrapper .digital-transformation .right-part img {
    width: 100%;
  }
}
.cs-digital-transform-wrapper .digital-transformation .z-img1 {
  position: absolute;
  z-index: 10;
  right: 0;
}
@media screen and (max-width: 980px) {
  .cs-digital-transform-wrapper .digital-transformation .z-img1 {
    display: none;
  }
}
.cs-digital-transform-wrapper .digital-transformation .circle4 {
  position: absolute;
  top: 0;
  right: 0;
  width: 400px;
  height: 400px;
  background-color: #c0bedd;
  filter: blur(125px);
}
@media screen and (max-width: 980px) {
  .cs-digital-transform-wrapper .digital-transformation .circle4 {
    display: none;
  }
}

/********************************** DIGITAL TRANSFORMATION *************************************/
.cs-great-solution {
  padding: 60px 0;
}
.cs-great-solution .section-heading {
  font-size: 38px;
  line-height: 60px;
  font-weight: 600;
  color: #202323;
}
.cs-great-solution .right-img {
  position: absolute;
  top: 0px;
  right: 0px;
}
.cs-great-solution .left-img {
  position: absolute;
  top: 0px;
  left: 0px;
}
.cs-great-solution .circle {
  background-color: #c0bedd;
  width: 500px;
  height: 500px;
  filter: blur(100px);
}
.cs-great-solution .circle.left-circle {
  position: absolute;
  top: 0px;
  left: 0px;
}
.cs-great-solution .circle.right-circle {
  position: absolute;
  top: 0px;
  right: 0px;
}

/********************************** START YOUR PROJECT *************************************/
.start-your-project {
  overflow: hidden;
  padding: 120px 0;
  display: flex;
  flex-direction: column;
  justify-content: center;
  align-items: center;
}
@media screen and (max-width: 1200px) {
  .start-your-project {
    height: auto;
    padding: 100px 0;
  }
}
@media screen and (max-width: 576px) {
  .start-your-project {
    padding: 20px;
  }
}
.start-your-project .large-text {
  font-size: 38px;
  line-height: 60px;
  font-weight: 600;
  color: #202323;
}
@media screen and (max-width: 1200px) {
  .start-your-project .large-text {
    font-size: 28px;
    line-height: 60px;
    font-weight: 600;
    color: #202323;
  }
}
@media screen and (max-width: 576px) {
  .start-your-project .large-text {
    font-size: 18px;
    line-height: 60px;
    font-weight: 600;
    color: #202323;
  }
}
.start-your-project .normal-text {
  width: 47%;
  text-align: center;
  font-size: 14px;
  line-height: 25px;
  font-weight: 400;
  color: #707070;
}
@media screen and (max-width: 1400px) {
  .start-your-project .normal-text {
    width: 60%;
  }
}
@media screen and (max-width: 576px) {
  .start-your-project .normal-text {
    width: 90%;
    font-size: 12px;
    line-height: 20px;
    font-weight: 400;
    color: #707070;
  }
}
@media screen and (max-width: 576px) {
  .start-your-project .primary-button {
    font-size: 12px;
    line-height: 20px;
    font-weight: 400;
    color: #ffffff;
  }
}
.start-your-project .right-side {
  position: absolute;
  top: -62px;
  right: 0;
}
.start-your-project .left-side {
  position: absolute;
  bottom: -60px;
  left: -11px;
}
.start-your-project .ios-app-circle1 {
  background-color: #ABCCFF;
  filter: blur(170px);
  width: 400px;
  height: 400px;
  position: absolute;
  right: 40px;
  bottom: -120px;
}
.start-your-project .ios-app-circle2 {
  background-color: #ABCCFF;
  filter: blur(145px);
  width: 350px;
  height: 350px;
  border-radius: 50%;
  position: absolute;
  top: -60px;
  left: -60px;
}
.start-your-project .z-img2 {
  position: absolute;
  top: -15px;
  left: 0;
}
@media screen and (max-width: 1200px) {
  .start-your-project .z-img2 {
    display: none;
  }
}
.start-your-project .z-img3 {
  position: absolute;
  top: 11px;
  right: 0;
}
.start-your-project ::before {
  content: "";
  position: absolute;
  top: -0.4px;
  left: -0.4px;
  right: -0.4px;
  bottom: -0.4px;
  border: 0.5px solid transparent;
  background: linear-gradient(109.92deg, #0096FF 12.78%, #BB64FF 37.63%, #F2416B 62.12%, #EB7500 87.3%);
  -webkit-mask: linear-gradient(#fff 0 0) content-box, linear-gradient(#fff 0 0);
  -webkit-mask-composite: destination-out;
  mask-composite: exclude;
  pointer-events: none;
  transition: all 0.4s ease;
  z-index: 0;
}

/*********************[][][][][][]********************* HOME PAGE *******************[][][][][][]********************/
.the-lines {
  display: none !important;
}

.outer-box-home-page {
  background-color: #ffffff;
  top: -32px;
  /***********************banner********************/
  /**********************what-we-do********************/
  /**********************why-choose-us*****************/
  /**********************our-strategy*****************/
  /**********************our-expertise*****************/
  /**********************our-community*****************/
}
.outer-box-home-page .the-lines {
  position: absolute;
  top: 2125px;
  bottom: -40px;
  z-index: 1;
}
@media screen and (max-width: 1720pxpx) {
  .outer-box-home-page .the-lines {
    position: absolute;
    top: 2290px;
    left: -140px;
  }
}
@media screen and (max-width: 1440pxpx) {
  .outer-box-home-page .the-lines {
    position: absolute;
    top: 2030px;
    left: -285px;
  }
}
.outer-box-home-page .banner-left-circle {
  position: absolute;
  top: 100px;
  left: -600px;
  width: 895px;
  height: 895px;
  filter: blur(112px);
  background: radial-gradient(circle, #c0bedd 60%, rgba(192, 190, 221, 0) 100%);
}
.outer-box-home-page .banner-right-circle {
  position: absolute;
  top: 100px;
  right: -500px;
  width: 895px;
  height: 895px;
  filter: blur(96px);
  background-color: #e5eaf9;
}
.outer-box-home-page .bold-circle {
  position: absolute;
  top: 605px;
  left: 50%;
  transform: translateX(-50%);
}
@media screen and (max-width: 1440pxpx) {
  .outer-box-home-page .bold-circle {
    position: absolute;
    top: 400px;
  }
}
@media screen and (max-width: 992px) {
  .outer-box-home-page .bold-circle {
    position: absolute;
    top: 300px;
    left: 43%;
    transform: translateX(-50%);
  }
}
.outer-box-home-page .banner .left-z {
  position: absolute;
  top: 225px;
  left: 0px;
}
.outer-box-home-page .banner .right-z {
  position: absolute;
  top: 245px;
  right: 0px;
}
.outer-box-home-page .banner .banner-items-wrapper {
  display: flex;
  flex-direction: column;
  justify-content: center;
}
.outer-box-home-page .banner .banner-items-wrapper .banner-heading {
  font-family: "Jost", sans-serif;
  width: 1350px;
  font-size: 70.63px;
  line-height: 90.75px;
  font-weight: 800;
  background: linear-gradient(90.25deg, #0096ff 0.14%, #bb64ff 28.32%, #f2416b 71.8%, #eb7500 95.68%);
  -webkit-background-clip: text;
          background-clip: text;
  -webkit-text-fill-color: transparent;
  margin: 40px auto 30px auto;
  position: relative;
  z-index: 1;
}
@media screen and (max-width: 1440px) {
  .outer-box-home-page .banner .banner-items-wrapper .banner-heading {
    width: 900px;
    font-size: 55.63px;
    line-height: 79.75px;
  }
}
@media screen and (max-width: 992px) {
  .outer-box-home-page .banner .banner-items-wrapper .banner-heading {
    width: 651px;
    font-size: 42.63px;
    line-height: 58.75px;
  }
}
@media screen and (max-width: 768px) {
  .outer-box-home-page .banner .banner-items-wrapper .banner-heading {
    text-align: start;
    position: relative;
    margin: 0;
    padding: 0 20px;
    width: 100%;
  }
}
@media screen and (max-width: 480px) {
  .outer-box-home-page .banner .banner-items-wrapper .banner-heading {
    font-size: 40px;
    line-height: 50px;
    word-wrap: break-word;
  }
}
.outer-box-home-page .banner .banner-items-wrapper .banner-heading .ai-gif {
  height: 130px;
  position: absolute;
  top: 70px;
  left: 800px;
}
@media screen and (max-width: 1440px) {
  .outer-box-home-page .banner .banner-items-wrapper .banner-heading .ai-gif {
    width: 100px;
    height: 100px;
    position: absolute;
    top: 68px;
    left: 667px;
  }
}
@media screen and (max-width: 992px) {
  .outer-box-home-page .banner .banner-items-wrapper .banner-heading .ai-gif {
    width: 70px;
    height: 70px;
    position: absolute;
    top: 113px;
    left: 237px;
  }
}
@media screen and (max-width: 768px) {
  .outer-box-home-page .banner .banner-items-wrapper .banner-heading .ai-gif {
    position: absolute;
    top: 56px;
    left: 483px;
  }
}
@media screen and (max-width: 722px) {
  .outer-box-home-page .banner .banner-items-wrapper .banner-heading .ai-gif {
    position: absolute;
    top: 113px;
    left: 149px;
  }
}
@media screen and (max-width: 621px) {
  .outer-box-home-page .banner .banner-items-wrapper .banner-heading .ai-gif {
    position: absolute;
    top: 166px;
    left: 12px;
  }
}
@media screen and (max-width: 499px) {
  .outer-box-home-page .banner .banner-items-wrapper .banner-heading .ai-gif {
    position: absolute;
    top: 166px;
    left: 148px;
  }
}
@media screen and (max-width: 480px) {
  .outer-box-home-page .banner .banner-items-wrapper .banner-heading .ai-gif {
    position: absolute;
    top: 139px;
    left: 12px;
  }
}
@media screen and (max-width: 471px) {
  .outer-box-home-page .banner .banner-items-wrapper .banner-heading .ai-gif {
    position: absolute;
    top: 139px;
    left: 139px;
  }
}
@media screen and (max-width: 363px) {
  .outer-box-home-page .banner .banner-items-wrapper .banner-heading .ai-gif {
    position: absolute;
    top: 190px;
    left: 139px;
  }
}
@media screen and (max-width: 343px) {
  .outer-box-home-page .banner .banner-items-wrapper .banner-heading .ai-gif {
    position: absolute;
    top: 190px;
    left: 177px;
  }
}
@media screen and (max-width: 343px) {
  .outer-box-home-page .banner .banner-items-wrapper .banner-heading .ai-gif {
    position: absolute;
    top: 240px;
    left: 12px;
  }
}
.outer-box-home-page .banner .banner-items-wrapper .banner-content {
  width: 650px;
  font-size: 16px;
  line-height: 24px;
  font-weight: 500;
  color: #707070;
  margin: 0 auto 40px auto;
}
@media screen and (max-width: 992px) {
  .outer-box-home-page .banner .banner-items-wrapper .banner-content {
    margin: 0 auto 20px auto;
  }
}
@media screen and (max-width: 768px) {
  .outer-box-home-page .banner .banner-items-wrapper .banner-content {
    text-align: start;
    position: relative;
    z-index: 1;
    margin: 0;
    padding: 0 20px;
    width: 100%;
  }
}
@media screen and (max-width: 576px) {
  .outer-box-home-page .banner .banner-items-wrapper .banner-content {
    font-size: 12px;
    line-height: 18px;
    font-weight: 500;
    color: #707070;
    margin-top: 12px;
  }
}
.outer-box-home-page .banner .banner-items-wrapper button {
  z-index: 1;
}
@media screen and (max-width: 768px) {
  .outer-box-home-page .banner .banner-items-wrapper button {
    margin: 15px auto 0 15px;
  }
}
.outer-box-home-page .banner .banner-bg-circles {
  width: 895px;
  height: 895px;
  filter: blur(244px);
  border-radius: 50%;
}
.outer-box-home-page .what-we-do {
  padding: 30px;
  background-color: #f9f9f9;
  border-radius: 30px;
  margin: 0 auto 120px auto;
  z-index: 1;
}
@media screen and (max-width: 768px) {
  .outer-box-home-page .what-we-do {
    width: calc(100% - 30px);
    padding: 15px;
  }
}
@media screen and (max-width: 576px) {
  .outer-box-home-page .what-we-do {
    border-radius: 20px;
    margin: 0 auto 50px auto;
  }
}
.outer-box-home-page .what-we-do .mouse-gif {
  position: absolute;
  top: -140px;
  left: 50%;
  width: 60px;
  transform: translateX(-50%);
}
@media screen and (max-width: 1440px) {
  .outer-box-home-page .what-we-do .mouse-gif {
    position: absolute;
    top: -105px;
  }
}
@media screen and (max-width: 992px) {
  .outer-box-home-page .what-we-do .mouse-gif {
    position: absolute;
    top: -140px;
    left: 50%;
    transform: translateX(-50%);
    width: 45px;
  }
}
.outer-box-home-page .what-we-do .section-heading {
  width: 860px;
}
@media screen and (max-width: 1200px) {
  .outer-box-home-page .what-we-do .section-heading {
    margin-top: 10px;
    width: 640px;
  }
}
@media screen and (max-width: 768px) {
  .outer-box-home-page .what-we-do .section-heading {
    width: 100%;
    margin-bottom: 24px;
  }
}
.outer-box-home-page .what-we-do .boxes-wrapper {
  display: flex;
  flex-direction: row;
  gap: 28px;
}
@media screen and (max-width: 992px) {
  .outer-box-home-page .what-we-do .boxes-wrapper {
    flex-direction: column;
    width: 100%;
  }
}
.outer-box-home-page .what-we-do .inner-box {
  border-radius: 15px;
  padding: 15px;
  background-color: #ffffff;
  width: calc(25% - 21px);
}
@media screen and (max-width: 1720px) {
  .outer-box-home-page .what-we-do .inner-box {
    display: flex;
    flex-direction: column;
    justify-content: space-between;
    height: auto;
  }
}
@media screen and (max-width: 992px) {
  .outer-box-home-page .what-we-do .inner-box {
    width: 100%;
    padding: 12px;
  }
}
@media screen and (max-width: 576px) {
  .outer-box-home-page .what-we-do .inner-box {
    gap: 6px;
  }
}
.outer-box-home-page .what-we-do .inner-box .inner-box-heading {
  font-size: 20px;
  line-height: 30px;
  font-weight: 600;
  color: #202323;
  margin-bottom: 10px;
}
@media screen and (max-width: 1200px) {
  .outer-box-home-page .what-we-do .inner-box .inner-box-heading {
    font-size: 16px;
    line-height: 18px;
    height: 32px;
  }
}
@media screen and (max-width: 992px) {
  .outer-box-home-page .what-we-do .inner-box .inner-box-heading {
    height: auto;
    font-size: 22px;
    line-height: 18px;
  }
}
@media screen and (max-width: 576px) {
  .outer-box-home-page .what-we-do .inner-box .inner-box-heading {
    font-size: 14px;
    line-height: 16px;
    font-weight: 500;
    color: #202323;
    margin-bottom: 0 !important;
  }
}
.outer-box-home-page .what-we-do .inner-box .main-img {
  margin-top: 6px;
}
.outer-box-home-page .what-we-do .inner-box .learn-more .learn-more-arrow {
  position: absolute;
  left: 0px;
  width: 28px;
  opacity: 0;
  visibility: hidden;
  transition: opacity 0.4s ease, visibility 0.4s ease;
}
.outer-box-home-page .what-we-do .inner-box:hover .inner-box-heading {
  background: linear-gradient(270.13deg, #ff623f 19.37%, #bc1ae4 91.6%);
  -webkit-background-clip: text;
          background-clip: text;
  -webkit-text-fill-color: transparent;
}
.outer-box-home-page .what-we-do .inner-box:hover .learn-more {
  color: #0a51c9;
  transition: all 0.3s ease;
  padding-left: 34px;
  font-weight: 500;
}
.outer-box-home-page .what-we-do .inner-box:hover .learn-more-arrow {
  opacity: 1;
  visibility: visible;
  position: absolute;
  left: 0px;
  transition: opacity 0.4s ease, visibility 0.4s ease;
  width: 28px;
}
.outer-box-home-page .why-choose-us {
  position: relative;
}
.outer-box-home-page .why-choose-us::before {
  position: absolute;
  content: "";
  background-color: #f9f9f9;
  width: 1470px;
  height: 694px;
  border-radius: 30px;
  z-index: 0;
  top: 50%;
  left: 50%;
  transform: translate(-50%, -50%);
}
@media screen and (max-width: 1720px) {
  .outer-box-home-page .why-choose-us::before {
    width: 1420px;
  }
}
@media screen and (max-width: 1440px) {
  .outer-box-home-page .why-choose-us::before {
    width: 1160px;
    height: 640px;
  }
}
@media screen and (max-width: 1200px) {
  .outer-box-home-page .why-choose-us::before {
    width: 990px;
    height: 600px;
  }
}
@media screen and (max-width: 992px) {
  .outer-box-home-page .why-choose-us::before {
    height: 1170px;
  }
}
@media screen and (max-width: 576px) {
  .outer-box-home-page .why-choose-us::before {
    height: 1490px;
  }
}
@media screen and (max-width: 576px) {
  .outer-box-home-page .why-choose-us {
    box-sizing: border-box;
    padding: 0 15px;
  }
}
.outer-box-home-page .why-choose-us .circle-gif {
  position: absolute;
  bottom: -120px;
  left: 510px;
}
@media screen and (max-width: 1720px) {
  .outer-box-home-page .why-choose-us .circle-gif {
    position: absolute;
    bottom: -120px;
    left: 410px;
  }
}
@media screen and (max-width: 1440px) {
  .outer-box-home-page .why-choose-us .circle-gif {
    position: absolute;
    bottom: -60px;
    left: 265px;
  }
}
@media screen and (max-width: 992px) {
  .outer-box-home-page .why-choose-us .circle-gif {
    left: 135px;
  }
}
@media screen and (max-width: 992px) {
  .outer-box-home-page .why-choose-us .circle-gif {
    bottom: -82px;
  }
}
.outer-box-home-page .why-choose-us .section-heading {
  width: 100%;
}
@media screen and (max-width: 1200px) {
  .outer-box-home-page .why-choose-us .section-heading {
    width: 520px;
    margin-top: 10px;
  }
}
@media screen and (max-width: 576px) {
  .outer-box-home-page .why-choose-us .section-heading {
    width: 100%;
  }
}
.outer-box-home-page .why-choose-us .section-content {
  width: 100%;
  margin: 10px auto 40px auto;
}
@media screen and (max-width: 576px) {
  .outer-box-home-page .why-choose-us .section-content {
    width: 100%;
    margin: 10px auto 24px auto;
  }
}
.outer-box-home-page .why-choose-us .choose-div {
  cursor: pointer;
  margin-bottom: 180px;
  display: flex;
  flex-direction: row;
  justify-content: space-between;
}
@media screen and (max-width: 992px) {
  .outer-box-home-page .why-choose-us .choose-div {
    flex-direction: column;
    gap: 24px;
  }
}
@media screen and (max-width: 576px) {
  .outer-box-home-page .why-choose-us .choose-div {
    margin-bottom: 100px;
  }
}
@media screen and (max-width: 480px) {
  .outer-box-home-page .why-choose-us .choose-div {
    top: -420px;
  }
}
.outer-box-home-page .why-choose-us .choose-div .item {
  border-radius: 15px;
  padding: 20px;
  overflow: hidden;
  background: linear-gradient(to right, #307ffc, #a1c6ff, #136dfb);
  height: 374px;
  width: 388px;
  box-sizing: border-box;
  border: 4px solid rgba(255, 255, 255, 0.3019607843);
  display: flex;
  justify-content: start;
  flex-direction: column;
  display: flex;
  align-items: "";
  justify-content: "";
  flex-direction: column;
  flex-wrap: "";
  position: relative;
}
@media screen and (max-width: 1720px) {
  .outer-box-home-page .why-choose-us .choose-div .item {
    height: 355px;
    width: 318px;
  }
}
@media screen and (max-width: 1440px) {
  .outer-box-home-page .why-choose-us .choose-div .item {
    padding: 14px;
    height: 339px;
    width: 248px;
  }
}
@media screen and (max-width: 1200px) {
  .outer-box-home-page .why-choose-us .choose-div .item {
    height: 350px;
    width: 225px;
  }
}
@media screen and (max-width: 992px) {
  .outer-box-home-page .why-choose-us .choose-div .item {
    width: 100%;
    height: 215px;
  }
}
@media screen and (max-width: 576px) {
  .outer-box-home-page .why-choose-us .choose-div .item {
    height: 300px;
  }
}
@media screen and (max-width: 480px) {
  .outer-box-home-page .why-choose-us .choose-div .item {
    height: 280px;
    margin-top: 0;
  }
}
.outer-box-home-page .why-choose-us .choose-div .item .small-circle1 {
  width: 23%;
  position: absolute;
  left: "";
  top: 10px;
  right: 10px;
  bottom: "";
  z-index: "";
  transition: transform 0.5s ease-in;
}
.outer-box-home-page .why-choose-us .choose-div .item .small-circle2 {
  width: 23%;
  position: absolute;
  left: 50px;
  top: "";
  right: "";
  bottom: 60px;
  z-index: "";
  transition: transform 0.5s ease-in;
}
.outer-box-home-page .why-choose-us .choose-div .item .big-circle {
  width: 30%;
  position: absolute;
  left: "";
  top: "";
  right: 0;
  bottom: 0;
  z-index: "";
  transition: transform 0.2s ease-in;
}
.outer-box-home-page .why-choose-us .choose-div .item .z-img {
  width: 250px;
  position: absolute;
  top: 0px;
  left: 135px;
}
.outer-box-home-page .why-choose-us .choose-div .item h1 {
  font-size: 48px;
  font-weight: 600;
  color: #ffffff;
  text-align: start;
  animation: texth1 0.5s ease-in-out;
  margin: 0;
}
@media screen and (max-width: 1440px) {
  .outer-box-home-page .why-choose-us .choose-div .item h1 {
    font-size: 40px;
  }
}
@media screen and (max-width: 1094px) {
  .outer-box-home-page .why-choose-us .choose-div .item h1 {
    font-size: 35px;
  }
}
@media screen and (max-width: 480px) {
  .outer-box-home-page .why-choose-us .choose-div .item h1 {
    font-size: 30px;
  }
}
.outer-box-home-page .why-choose-us .choose-div .item .h2 {
  display: none;
  text-align: start;
}
.outer-box-home-page .why-choose-us .choose-div .item h2 {
  font-size: 38px;
  text-align: start;
  font-weight: 300;
  color: #ffffff;
  line-height: 40px;
  animation: texth2 0.5s ease-in-out;
}
@media screen and (max-width: 1440px) {
  .outer-box-home-page .why-choose-us .choose-div .item h2 {
    font-size: 28px;
    line-height: 32px;
    margin: 16px 0;
  }
}
@media screen and (max-width: 1200px) {
  .outer-box-home-page .why-choose-us .choose-div .item h2 {
    font-size: 24px;
    line-height: 28px;
  }
}
@media screen and (max-width: 480px) {
  .outer-box-home-page .why-choose-us .choose-div .item h2 {
    font-size: 24px;
    line-height: 28px;
  }
}
.outer-box-home-page .why-choose-us .choose-div .item .list {
  list-style-type: none;
  box-sizing: border-box;
  margin-top: 70px;
  -webkit-backdrop-filter: blur(10px);
          backdrop-filter: blur(10px);
  background-color: rgba(215, 215, 215, 0.2);
  border-radius: 15px;
  padding: 10px;
  width: 90%;
  z-index: 1;
  bottom: 15px;
  left: 50%;
  transform: translateX(-50%);
  gap: 5px;
  border: 1.79px solid rgba(215, 215, 215, 0.2);
  list-style-type: disc;
  list-style-position: outside;
  display: flex;
  align-items: "";
  justify-content: "";
  flex-direction: column;
  flex-wrap: "";
  position: absolute;
}
@media screen and (max-width: 1440px) {
  .outer-box-home-page .why-choose-us .choose-div .item .list {
    bottom: -3px;
  }
}
@media screen and (max-width: 480px) {
  .outer-box-home-page .why-choose-us .choose-div .item .list {
    margin-top: 20px;
    margin-bottom: 0;
    bottom: 10px;
  }
}
.outer-box-home-page .why-choose-us .choose-div .item .list li {
  list-style-type: none;
  font-size: 14px;
  font-weight: 500;
  color: #ffffff;
  line-height: 20px;
  padding-left: 16px;
  text-align: start;
  position: relative;
}
.outer-box-home-page .why-choose-us .choose-div .item .list li::before {
  content: "";
  width: 8px;
  height: 8px;
  background-color: #fff;
  border-radius: 50%;
  position: absolute;
  top: 6px;
  left: 0px;
}
@media screen and (max-width: 480px) {
  .outer-box-home-page .why-choose-us .choose-div .item .list li {
    font-size: 12px;
    line-height: 18px;
  }
}
.outer-box-home-page .why-choose-us .choose-div .item:hover {
  background: linear-gradient(to right, #0096ff, #bb64ff, #f2416b, #eb7500) border-box;
  border: 4px solid rgba(255, 255, 255, 0.3019607843);
}
.outer-box-home-page .why-choose-us .choose-div .item:hover h1 {
  animation: moveInOut 0.5s ease-in-out, moveIn 0.5s 0.5s ease-in-out;
  opacity: 0.5;
}
.outer-box-home-page .why-choose-us .choose-div .item:hover h2 {
  animation: moveInOut2 0.5s ease-in-out, moveIn2 0.5s 0.5s ease-in-out;
  font-weight: 500;
}
.outer-box-home-page .why-choose-us .choose-div .item:hover .big-circle {
  transform: translateX(90%);
}
.outer-box-home-page .why-choose-us .choose-div .item:hover .small-circle1 {
  transform: translateX(100%);
}
.outer-box-home-page .why-choose-us .choose-div .item:hover .small-circle2 {
  transform: translateX(-200%);
}
.outer-box-home-page .our-strategy {
  background-color: #f9f9f9;
  margin: 270px 0 300px 0;
  display: flex;
  flex-direction: row;
  gap: 92px;
  padding: 30px 0 20px 0;
}
@media screen and (max-width: 1200px) {
  .outer-box-home-page .our-strategy {
    padding: 0;
  }
}
@media screen and (max-width: 576px) {
  .outer-box-home-page .our-strategy {
    margin: 120px 0 200px 0;
  }
}
@media screen and (max-width: 1200px) {
  .outer-box-home-page .our-strategy .section-heading {
    margin-top: 10px;
  }
}
.outer-box-home-page .our-strategy .left-right-part-wrapper {
  display: flex;
  flex-direction: row;
  justify-content: space-between;
}
@media screen and (max-width: 992px) {
  .outer-box-home-page .our-strategy .left-right-part-wrapper {
    display: flex;
    flex-direction: column;
    gap: 54px;
  }
}
@media screen and (max-width: 576px) {
  .outer-box-home-page .our-strategy .left-right-part-wrapper {
    display: flex;
    flex-direction: column;
    gap: 0px;
    padding-bottom: 50px;
  }
}
.outer-box-home-page .our-strategy .right-boxes {
  margin-top: 50px;
}
@media screen and (max-width: 768px) {
  .outer-box-home-page .our-strategy .right-boxes {
    margin-top: 0;
  }
}
.outer-box-home-page .our-strategy .left-part {
  width: 710px;
}
@media screen and (max-width: 1720px) {
  .outer-box-home-page .our-strategy .left-part {
    width: 590px;
  }
}
.outer-box-home-page .our-strategy .left-part .section-heading {
  margin: 10px 0 20px 0;
}
@media screen and (max-width: 576px) {
  .outer-box-home-page .our-strategy .left-part .section-heading {
    margin: 10px 0 10px 0;
  }
}
@media screen and (max-width: 1200pxpx) {
  .outer-box-home-page .our-strategy .left-part .section-content {
    margin: 0px 0 24px 0;
  }
}
@media screen and (max-width: 576px) {
  .outer-box-home-page .our-strategy .left-part .wcu-btn {
    margin-top: 24px;
  }
}
@media screen and (max-width: 992px) {
  .outer-box-home-page .our-strategy .left-part {
    width: 100%;
  }
}
.outer-box-home-page .our-strategy .right-part {
  display: flex;
  flex-direction: row;
  gap: 26px;
}
@media screen and (max-width: 992px) {
  .outer-box-home-page .our-strategy .right-part {
    justify-content: center;
  }
}
@media screen and (max-width: 576px) {
  .outer-box-home-page .our-strategy .right-part {
    display: flex;
    flex-direction: row;
    gap: 10px;
  }
}
@media screen and (max-width: 576px) {
  .outer-box-home-page .our-strategy .right-part .left-boxes,
  .outer-box-home-page .our-strategy .right-part .right-boxes {
    width: calc(50% - 5px);
  }
}
.outer-box-home-page .our-strategy .right-part .gradient-border {
  border-radius: 16px;
  padding: 15px;
  width: 355px;
  height: 190px;
}
@media screen and (max-width: 1720px) {
  .outer-box-home-page .our-strategy .right-part .gradient-border {
    width: 276px;
  }
}
@media screen and (max-width: 768px) {
  .outer-box-home-page .our-strategy .right-part .gradient-border {
    width: 100%;
  }
}
@media screen and (max-width: 576px) {
  .outer-box-home-page .our-strategy .right-part .gradient-border {
    padding: 10px;
    height: 150px;
  }
}
.outer-box-home-page .our-strategy .right-part .gradient-border .inner-box {
  border-radius: 15px;
  z-index: 4;
}
.outer-box-home-page .our-strategy .right-part .gradient-border .inner-box .box-logo {
  width: 40px;
  height: 40px;
  display: flex;
  flex-direction: row;
  justify-content: center;
  align-items: center;
  border-radius: 8px;
  background-color: #202323;
}
@media screen and (max-width: 576px) {
  .outer-box-home-page .our-strategy .right-part .gradient-border .inner-box .box-logo {
    width: 32px;
    height: 32px;
  }
}
@media screen and (max-width: 576px) {
  .outer-box-home-page .our-strategy .right-part .gradient-border .inner-box .box-logo img {
    width: 16px;
    height: 16px;
  }
}
.outer-box-home-page .our-strategy .right-part .gradient-border .inner-box .box-title {
  font-size: 20px;
  line-height: 25px;
  font-weight: 600;
  color: #202323;
  margin: 15px 0 10px 0;
}
@media screen and (max-width: 576px) {
  .outer-box-home-page .our-strategy .right-part .gradient-border .inner-box .box-title {
    margin: 12px 0 6px 0;
    font-size: 16px;
    line-height: 25px;
    font-weight: 600;
    color: #202323;
  }
}
.outer-box-home-page .our-strategy .right-part .gradient-border .inner-box .gb-content {
  margin: 6px 0;
}
.outer-box-home-page .our-strategy .right-part .gradient-border .circle {
  position: absolute;
  right: -42px;
  bottom: -50px;
  width: 220px;
  height: 220px;
  background: radial-gradient(circle, #c0bedd 100%, #c0bedd 100%);
  filter: blur(80px);
  z-index: 2;
}
.outer-box-home-page .our-strategy .right-part .gradient-border .snake {
  position: absolute;
  right: 0px;
  bottom: 0px;
  z-index: 2;
}
.outer-box-home-page .our-strategy .right-part .gradient-border .white-overlay {
  position: absolute;
  top: 0px;
  right: 0px;
  width: 0%;
  height: 100%;
  background-color: #ffffff;
  border-radius: 16px;
  z-index: 3;
}
.outer-box-home-page .our-strategy .right-part .gradient-border .white-inner-overlay {
  position: absolute;
  top: 0px;
  right: 0px;
  width: 0%;
  height: 100%;
  background-color: #ffffff;
  border-radius: 16px;
  z-index: 1;
}
.outer-box-home-page .our-strategy .right-part .gradient-border::before {
  content: "";
  position: absolute;
  top: 0px;
  right: 0px;
  bottom: 0px;
  left: 0px;
  border-radius: 16px;
  border: 1px solid transparent;
  background: linear-gradient(109.92deg, #0096ff 12.78%, #bb64ff 37.63%, #f2416b 62.12%, #eb7500 87.3%);
  -webkit-mask: linear-gradient(#fff 0 0) content-box, linear-gradient(#fff 0 0);
  -webkit-mask-composite: destination-out;
  mask-composite: exclude;
  pointer-events: none;
  transition: all 0.4s ease;
  z-index: 0;
}
.outer-box-home-page .our-strategy .right-part .gradient-border:hover {
  box-shadow: 0px 30px 60px 0px rgba(0, 0, 0, 0.2);
}
.outer-box-home-page .our-strategy .right-part .gradient-border:hover .white-inner-overlay {
  width: 100%;
}
.outer-box-home-page .our-strategy .right-part .gradient-border:hover .box-logo {
  background: linear-gradient(136.29deg, #0096ff -4.39%, #bb64ff 32.56%, #f2416b 83.66%, #eb7500 106.92%);
  transition: all 0.3s ease;
}
.outer-box-home-page .our-strategy .right-part .gradient-border:hover .box-logo img {
  width: 28px;
  transition: width 0.4s ease;
  box-shadow: 0px 8px 25px 0px rgba(19, 109, 251, 0.4);
}
.outer-box-home-page .our-strategy .right-part .lower-box {
  margin: 48px 0 0 16px;
}
@media screen and (max-width: 768px) {
  .outer-box-home-page .our-strategy .right-part .lower-box {
    margin: 20px 0 0 0;
  }
}
@media screen and (max-width: 576px) {
  .outer-box-home-page .our-strategy .right-part .lower-box {
    margin: 10px 0 0 0;
  }
}
@media screen and (max-width: 576px) {
  .outer-box-home-page .our-expertise {
    box-sizing: border-box;
    padding: 0 15px;
  }
}
@media screen and (max-width: 1720px) {
  .outer-box-home-page .our-expertise .wcu-heading {
    width: 650px;
    margin: 0 auto;
  }
}
@media screen and (max-width: 768px) {
  .outer-box-home-page .our-expertise .wcu-heading {
    width: 100%;
    margin: 0 auto;
  }
}
@media screen and (max-width: 1200px) {
  .outer-box-home-page .our-expertise .section-heading {
    margin-top: 10px;
  }
}
.outer-box-home-page .our-expertise .lower-part {
  display: flex;
  flex-direction: row;
  align-items: center;
  background-color: transparent;
  margin: 100px 0 120px 0;
  padding: 0 15px;
}
@media screen and (max-width: 992px) {
  .outer-box-home-page .our-expertise .lower-part {
    margin: 100px 0 60px 0;
  }
}
@media screen and (max-width: 576px) {
  .outer-box-home-page .our-expertise .lower-part {
    margin: 36px 0 110px 0;
  }
}
.outer-box-home-page .our-expertise .lower-part .tech-circles {
  width: 100%;
  height: 600px;
  position: relative;
  overflow: visible;
}
@media screen and (max-width: 992px) {
  .outer-box-home-page .our-expertise .lower-part .tech-circles {
    height: 530px;
  }
}
@media screen and (max-width: 768px) {
  .outer-box-home-page .our-expertise .lower-part .tech-circles {
    height: auto;
    display: grid;
    grid-template-columns: repeat(3, 1fr);
    place-items: center;
    gap: 24px;
  }
}
.outer-box-home-page .our-expertise .lower-part .tech-circles .line-lg {
  position: absolute;
  left: 50%;
  transform: translateX(-50%);
}
@media screen and (max-width: 768px) {
  .outer-box-home-page .our-expertise .lower-part .tech-circles .line-lg {
    display: none;
  }
}
.outer-box-home-page .our-expertise .lower-part .tech-circles .line-sm {
  position: absolute;
  left: 50%;
  transform: translateX(-50%);
}
@media screen and (min-width: 768px) {
  .outer-box-home-page .our-expertise .lower-part .tech-circles .line-sm {
    display: none;
    width: 100%;
  }
}
.outer-box-home-page .our-expertise .lower-part .tech-circles .tech-circle {
  display: flex;
  flex-direction: column;
  justify-content: center;
  align-items: center;
  gap: 20px;
}
@media screen and (max-width: 1200px) {
  .outer-box-home-page .our-expertise .lower-part .tech-circles .tech-circle {
    display: flex;
    flex-direction: column;
    justify-content: center;
    align-items: center;
    gap: 8px;
  }
}
.outer-box-home-page .our-expertise .lower-part .tech-circles .tech-circle.angular {
  position: absolute;
  top: -74px;
  left: 47%;
}
@media screen and (max-width: 1200px) {
  .outer-box-home-page .our-expertise .lower-part .tech-circles .tech-circle.angular {
    position: absolute;
    top: -40px;
    left: 47%;
  }
}
@media screen and (max-width: 768px) {
  .outer-box-home-page .our-expertise .lower-part .tech-circles .tech-circle.angular {
    position: relative;
    top: unset;
    left: unset;
  }
}
.outer-box-home-page .our-expertise .lower-part .tech-circles .tech-circle.laravel {
  position: absolute;
  top: -36px;
  left: 26%;
}
@media screen and (max-width: 1720px) {
  .outer-box-home-page .our-expertise .lower-part .tech-circles .tech-circle.laravel {
    position: absolute;
    top: -55px;
    left: 26%;
  }
}
@media screen and (max-width: 1440px) {
  .outer-box-home-page .our-expertise .lower-part .tech-circles .tech-circle.laravel {
    position: absolute;
    top: -58px;
    left: 24%;
  }
}
@media screen and (max-width: 1200px) {
  .outer-box-home-page .our-expertise .lower-part .tech-circles .tech-circle.laravel {
    position: absolute;
    top: -25px;
    left: 24%;
  }
}
@media screen and (max-width: 768px) {
  .outer-box-home-page .our-expertise .lower-part .tech-circles .tech-circle.laravel {
    position: relative;
    top: unset;
    left: unset;
  }
}
.outer-box-home-page .our-expertise .lower-part .tech-circles .tech-circle.java {
  position: absolute;
  top: -36px;
  left: 68%;
}
@media screen and (max-width: 1720px) {
  .outer-box-home-page .our-expertise .lower-part .tech-circles .tech-circle.java {
    position: absolute;
    top: -55px;
    left: 68%;
  }
}
@media screen and (max-width: 1440px) {
  .outer-box-home-page .our-expertise .lower-part .tech-circles .tech-circle.java {
    position: absolute;
    top: -67px;
    left: 66%;
  }
}
@media screen and (max-width: 1200px) {
  .outer-box-home-page .our-expertise .lower-part .tech-circles .tech-circle.java {
    position: absolute;
    top: -34px;
    left: 66%;
  }
}
@media screen and (max-width: 768px) {
  .outer-box-home-page .our-expertise .lower-part .tech-circles .tech-circle.java {
    position: relative;
    top: unset;
    left: unset;
  }
}
.outer-box-home-page .our-expertise .lower-part .tech-circles .tech-circle.tensorflow {
  position: absolute;
  top: 87px;
  left: 6%;
}
@media screen and (max-width: 1720px) {
  .outer-box-home-page .our-expertise .lower-part .tech-circles .tech-circle.tensorflow {
    position: absolute;
    top: 15px;
    left: 6%;
  }
}
@media screen and (max-width: 1440px) {
  .outer-box-home-page .our-expertise .lower-part .tech-circles .tech-circle.tensorflow {
    position: absolute;
    top: -23px;
    left: 3%;
  }
}
@media screen and (max-width: 1200px) {
  .outer-box-home-page .our-expertise .lower-part .tech-circles .tech-circle.tensorflow {
    position: absolute;
    top: 11px;
    left: 3%;
  }
}
@media screen and (max-width: 768px) {
  .outer-box-home-page .our-expertise .lower-part .tech-circles .tech-circle.tensorflow {
    position: relative;
    top: unset;
    left: unset;
  }
}
.outer-box-home-page .our-expertise .lower-part .tech-circles .tech-circle.pytorch {
  position: absolute;
  top: 87px;
  left: 87%;
}
@media screen and (max-width: 1720px) {
  .outer-box-home-page .our-expertise .lower-part .tech-circles .tech-circle.pytorch {
    position: absolute;
    top: 15px;
    left: 87%;
  }
}
@media screen and (max-width: 1440px) {
  .outer-box-home-page .our-expertise .lower-part .tech-circles .tech-circle.pytorch {
    position: absolute;
    top: -37px;
    left: 84%;
  }
}
@media screen and (max-width: 1200px) {
  .outer-box-home-page .our-expertise .lower-part .tech-circles .tech-circle.pytorch {
    position: absolute;
    top: -7px;
    left: 84%;
  }
}
@media screen and (max-width: 768px) {
  .outer-box-home-page .our-expertise .lower-part .tech-circles .tech-circle.pytorch {
    position: relative;
    top: unset;
    left: unset;
  }
}
.outer-box-home-page .our-expertise .lower-part .tech-circles .tech-circle.node {
  position: absolute;
  top: 190px;
  left: 16%;
}
@media screen and (max-width: 1720px) {
  .outer-box-home-page .our-expertise .lower-part .tech-circles .tech-circle.node {
    position: absolute;
    top: 150px;
    left: 18%;
  }
}
@media screen and (max-width: 1200px) {
  .outer-box-home-page .our-expertise .lower-part .tech-circles .tech-circle.node {
    position: absolute;
    top: 164px;
    left: 18%;
  }
}
@media screen and (max-width: 768px) {
  .outer-box-home-page .our-expertise .lower-part .tech-circles .tech-circle.node {
    position: relative;
    top: unset;
    left: unset;
  }
}
.outer-box-home-page .our-expertise .lower-part .tech-circles .tech-circle.flutter {
  position: absolute;
  top: 130px;
  left: 59%;
}
@media screen and (max-width: 1200px) {
  .outer-box-home-page .our-expertise .lower-part .tech-circles .tech-circle.flutter {
    position: absolute;
    top: 163px;
    left: 59%;
  }
}
@media screen and (max-width: 768px) {
  .outer-box-home-page .our-expertise .lower-part .tech-circles .tech-circle.flutter {
    position: relative;
    top: unset;
    left: unset;
  }
}
.outer-box-home-page .our-expertise .lower-part .tech-circles .tech-circle.react {
  position: absolute;
  top: 120px;
  left: 38%;
}
@media screen and (max-width: 1200px) {
  .outer-box-home-page .our-expertise .lower-part .tech-circles .tech-circle.react {
    position: absolute;
    top: 154px;
    left: 38%;
  }
}
@media screen and (max-width: 768px) {
  .outer-box-home-page .our-expertise .lower-part .tech-circles .tech-circle.react {
    position: relative;
    top: unset;
    left: unset;
  }
}
.outer-box-home-page .our-expertise .lower-part .tech-circles .tech-circle.python {
  position: absolute;
  top: 200px;
  left: 76%;
}
@media screen and (max-width: 1720px) {
  .outer-box-home-page .our-expertise .lower-part .tech-circles .tech-circle.python {
    position: absolute;
    top: 150px;
    left: 74%;
  }
}
@media screen and (max-width: 1200px) {
  .outer-box-home-page .our-expertise .lower-part .tech-circles .tech-circle.python {
    position: absolute;
    top: 170px;
    left: 75%;
  }
}
@media screen and (max-width: 768px) {
  .outer-box-home-page .our-expertise .lower-part .tech-circles .tech-circle.python {
    position: relative;
    top: unset;
    left: unset;
  }
}
.outer-box-home-page .our-expertise .lower-part .tech-circles .tech-circle.adobe-xd {
  position: absolute;
  top: 316px;
  left: 48%;
}
@media screen and (max-width: 1200px) {
  .outer-box-home-page .our-expertise .lower-part .tech-circles .tech-circle.adobe-xd {
    position: absolute;
    top: 345px;
    left: 48%;
  }
}
@media screen and (max-width: 768px) {
  .outer-box-home-page .our-expertise .lower-part .tech-circles .tech-circle.adobe-xd {
    position: relative;
    top: unset;
    left: unset;
  }
}
.outer-box-home-page .our-expertise .lower-part .tech-circles .tech-circle.devops {
  position: absolute;
  top: 350px;
  left: 66%;
}
@media screen and (max-width: 1200px) {
  .outer-box-home-page .our-expertise .lower-part .tech-circles .tech-circle.devops {
    position: absolute;
    top: 365px;
    left: 66%;
  }
}
@media screen and (max-width: 768px) {
  .outer-box-home-page .our-expertise .lower-part .tech-circles .tech-circle.devops {
    position: relative;
    top: unset;
    left: unset;
  }
}
.outer-box-home-page .our-expertise .lower-part .tech-circles .tech-circle.figma {
  position: absolute;
  top: 350px;
  left: 30%;
}
@media screen and (max-width: 1200px) {
  .outer-box-home-page .our-expertise .lower-part .tech-circles .tech-circle.figma {
    position: absolute;
    top: 365px;
    left: 30%;
  }
}
@media screen and (max-width: 768px) {
  .outer-box-home-page .our-expertise .lower-part .tech-circles .tech-circle.figma {
    position: relative;
    top: unset;
    left: unset;
  }
}
.outer-box-home-page .our-expertise .lower-part .tech-circles .tech-circle .text {
  font-size: 21px;
  line-height: 26px;
  font-weight: 600;
}
@media screen and (max-width: 1200px) {
  .outer-box-home-page .our-expertise .lower-part .tech-circles .tech-circle .text {
    font-size: 14px;
    line-height: 18px;
    font-weight: 600;
  }
}
.outer-box-home-page .our-expertise .lower-part .tech-circles .tech-circle .text.angular-text {
  color: #C3002F;
}
.outer-box-home-page .our-expertise .lower-part .tech-circles .tech-circle .text.laravel-text {
  color: #FF2D20;
}
.outer-box-home-page .our-expertise .lower-part .tech-circles .tech-circle .text.java-text {
  color: #0E8AC8;
}
.outer-box-home-page .our-expertise .lower-part .tech-circles .tech-circle .text.tensorflow-text {
  color: #FF6F00;
}
.outer-box-home-page .our-expertise .lower-part .tech-circles .tech-circle .text.pytorch-text {
  color: #EE4C2C;
}
.outer-box-home-page .our-expertise .lower-part .tech-circles .tech-circle .text.node-text {
  color: #404137;
}
.outer-box-home-page .our-expertise .lower-part .tech-circles .tech-circle .text.react-text {
  color: #66C0FF;
}
.outer-box-home-page .our-expertise .lower-part .tech-circles .tech-circle .text.flutter-text {
  color: #00569E;
}
.outer-box-home-page .our-expertise .lower-part .tech-circles .tech-circle .text.python-text {
  color: #3775AA;
}
.outer-box-home-page .our-expertise .lower-part .tech-circles .tech-circle .text.figma-text {
  color: #F24E1E;
}
.outer-box-home-page .our-expertise .lower-part .tech-circles .tech-circle .text.adobe-xd-text {
  color: #FF61F6;
}
.outer-box-home-page .our-expertise .lower-part .tech-circles .tech-circle .text.devops-text {
  color: #0D2C40;
}
.outer-box-home-page .our-expertise .lower-part .tech-circles .tech-circle .circle {
  display: flex;
  flex-direction: row;
  justify-content: center;
  align-items: center;
  box-shadow: 0px 37.63px 75.26px 0px rgba(0, 0, 0, 0.2);
  background-color: #ffffff;
}
.outer-box-home-page .our-expertise .lower-part .tech-circles .tech-circle .circle.angular-circle {
  border: 2px solid #AF052E;
  width: 160px;
  height: 160px;
}
@media screen and (max-width: 1200px) {
  .outer-box-home-page .our-expertise .lower-part .tech-circles .tech-circle .circle.angular-circle {
    width: 83px;
    height: 83px;
  }
}
.outer-box-home-page .our-expertise .lower-part .tech-circles .tech-circle .circle.angular-circle img {
  width: 97px;
  height: 106px;
}
@media screen and (max-width: 1200px) {
  .outer-box-home-page .our-expertise .lower-part .tech-circles .tech-circle .circle.angular-circle img {
    width: 51px;
    height: 56px;
  }
}
.outer-box-home-page .our-expertise .lower-part .tech-circles .tech-circle .circle.laravel-circle {
  border: 2px solid #F12B1E;
  width: 154px;
  height: 154px;
}
@media screen and (max-width: 1200px) {
  .outer-box-home-page .our-expertise .lower-part .tech-circles .tech-circle .circle.laravel-circle {
    width: 81px;
    height: 81px;
  }
}
.outer-box-home-page .our-expertise .lower-part .tech-circles .tech-circle .circle.laravel-circle img {
  width: 90px;
  height: 90px;
}
@media screen and (max-width: 1200px) {
  .outer-box-home-page .our-expertise .lower-part .tech-circles .tech-circle .circle.laravel-circle img {
    width: 47px;
    height: 47px;
  }
}
.outer-box-home-page .our-expertise .lower-part .tech-circles .tech-circle .circle.java-circle {
  border: 2px solid #0E8AC8;
  width: 160px;
  height: 160px;
}
@media screen and (max-width: 1200px) {
  .outer-box-home-page .our-expertise .lower-part .tech-circles .tech-circle .circle.java-circle {
    width: 84px;
    height: 84px;
  }
}
.outer-box-home-page .our-expertise .lower-part .tech-circles .tech-circle .circle.java-circle img {
  width: 96px;
  height: 96px;
}
@media screen and (max-width: 1200px) {
  .outer-box-home-page .our-expertise .lower-part .tech-circles .tech-circle .circle.java-circle img {
    width: 50px;
    height: 50px;
  }
}
.outer-box-home-page .our-expertise .lower-part .tech-circles .tech-circle .circle.tensorflow-circle {
  border: 2px solid #FF6F00;
  width: 148px;
  height: 148px;
}
@media screen and (max-width: 1200px) {
  .outer-box-home-page .our-expertise .lower-part .tech-circles .tech-circle .circle.tensorflow-circle {
    width: 78px;
    height: 78px;
  }
}
.outer-box-home-page .our-expertise .lower-part .tech-circles .tech-circle .circle.tensorflow-circle img {
  width: 82px;
  height: 82px;
}
@media screen and (max-width: 1200px) {
  .outer-box-home-page .our-expertise .lower-part .tech-circles .tech-circle .circle.tensorflow-circle img {
    width: 43px;
    height: 43px;
  }
}
.outer-box-home-page .our-expertise .lower-part .tech-circles .tech-circle .circle.pytorch-circle {
  border: 2px solid #EE4C2C;
  width: 171px;
  height: 171px;
}
@media screen and (max-width: 1200px) {
  .outer-box-home-page .our-expertise .lower-part .tech-circles .tech-circle .circle.pytorch-circle {
    width: 90px;
    height: 90px;
  }
}
.outer-box-home-page .our-expertise .lower-part .tech-circles .tech-circle .circle.pytorch-circle img {
  width: 86px;
  height: 104px;
}
@media screen and (max-width: 1200px) {
  .outer-box-home-page .our-expertise .lower-part .tech-circles .tech-circle .circle.pytorch-circle img {
    width: 45px;
    height: 54px;
  }
}
.outer-box-home-page .our-expertise .lower-part .tech-circles .tech-circle .circle.node-circle {
  border: 2px solid #83CD29;
  width: 174px;
  height: 174px;
}
@media screen and (max-width: 1200px) {
  .outer-box-home-page .our-expertise .lower-part .tech-circles .tech-circle .circle.node-circle {
    width: 91px;
    height: 91px;
  }
}
.outer-box-home-page .our-expertise .lower-part .tech-circles .tech-circle .circle.node-circle img {
  width: 130px;
  height: 130px;
}
@media screen and (max-width: 1200px) {
  .outer-box-home-page .our-expertise .lower-part .tech-circles .tech-circle .circle.node-circle img {
    width: 68px;
    height: 68px;
  }
}
.outer-box-home-page .our-expertise .lower-part .tech-circles .tech-circle .circle.react-circle {
  border: 2px solid #66C0FF;
  width: 150px;
  height: 150px;
}
@media screen and (max-width: 1200px) {
  .outer-box-home-page .our-expertise .lower-part .tech-circles .tech-circle .circle.react-circle {
    width: 80px;
    height: 80px;
  }
}
.outer-box-home-page .our-expertise .lower-part .tech-circles .tech-circle .circle.react-circle img {
  width: 94px;
  height: 94px;
}
@media screen and (max-width: 1200px) {
  .outer-box-home-page .our-expertise .lower-part .tech-circles .tech-circle .circle.react-circle img {
    width: 49px;
    height: 49px;
  }
}
.outer-box-home-page .our-expertise .lower-part .tech-circles .tech-circle .circle.flutter-circle {
  border: 2px solid #00569E;
  width: 141px;
  height: 141px;
}
@media screen and (max-width: 1200px) {
  .outer-box-home-page .our-expertise .lower-part .tech-circles .tech-circle .circle.flutter-circle {
    width: 74px;
    height: 74px;
  }
}
.outer-box-home-page .our-expertise .lower-part .tech-circles .tech-circle .circle.flutter-circle img {
  width: 84px;
  height: 84px;
}
@media screen and (max-width: 1200px) {
  .outer-box-home-page .our-expertise .lower-part .tech-circles .tech-circle .circle.flutter-circle img {
    width: 44px;
    height: 44px;
  }
}
.outer-box-home-page .our-expertise .lower-part .tech-circles .tech-circle .circle.python-circle {
  border: 2px solid #3775AA;
  width: 160px;
  height: 160px;
}
@media screen and (max-width: 1200px) {
  .outer-box-home-page .our-expertise .lower-part .tech-circles .tech-circle .circle.python-circle {
    width: 84px;
    height: 84px;
  }
}
.outer-box-home-page .our-expertise .lower-part .tech-circles .tech-circle .circle.python-circle img {
  width: 106px;
  height: 106px;
}
@media screen and (max-width: 1200px) {
  .outer-box-home-page .our-expertise .lower-part .tech-circles .tech-circle .circle.python-circle img {
    width: 56px;
    height: 56px;
  }
}
.outer-box-home-page .our-expertise .lower-part .tech-circles .tech-circle .circle.figma-circle {
  border: 2px solid #F24E1E;
  width: 136px;
  height: 136px;
}
@media screen and (max-width: 1200px) {
  .outer-box-home-page .our-expertise .lower-part .tech-circles .tech-circle .circle.figma-circle {
    width: 71px;
    height: 71px;
  }
}
.outer-box-home-page .our-expertise .lower-part .tech-circles .tech-circle .circle.figma-circle img {
  width: 80px;
  height: 80px;
}
@media screen and (max-width: 1200px) {
  .outer-box-home-page .our-expertise .lower-part .tech-circles .tech-circle .circle.figma-circle img {
    width: 42px;
    height: 42px;
  }
}
.outer-box-home-page .our-expertise .lower-part .tech-circles .tech-circle .circle.adobe-xd-circle {
  border: 2px solid #FF61F6;
  width: 150px;
  height: 150px;
}
@media screen and (max-width: 1200px) {
  .outer-box-home-page .our-expertise .lower-part .tech-circles .tech-circle .circle.adobe-xd-circle {
    width: 80px;
    height: 80px;
  }
}
.outer-box-home-page .our-expertise .lower-part .tech-circles .tech-circle .circle.adobe-xd-circle img {
  width: 72px;
  height: 70px;
}
@media screen and (max-width: 1200px) {
  .outer-box-home-page .our-expertise .lower-part .tech-circles .tech-circle .circle.adobe-xd-circle img {
    width: 37px;
    height: 39px;
  }
}
.outer-box-home-page .our-expertise .lower-part .tech-circles .tech-circle .circle.devops-circle {
  border: 2px solid #0D2C40;
  width: 136px;
  height: 136px;
}
@media screen and (max-width: 1200px) {
  .outer-box-home-page .our-expertise .lower-part .tech-circles .tech-circle .circle.devops-circle {
    width: 72px;
    height: 72px;
  }
}
.outer-box-home-page .our-expertise .lower-part .tech-circles .tech-circle .circle.devops-circle img {
  width: 90px;
  height: 90px;
}
@media screen and (max-width: 1200px) {
  .outer-box-home-page .our-expertise .lower-part .tech-circles .tech-circle .circle.devops-circle img {
    width: 47px;
    height: 47px;
  }
}
@media screen and (max-width: 576px) {
  .outer-box-home-page .our-community .wcu-heading {
    width: 100%;
  }
}
.outer-box-home-page .wcu-heading,
.outer-box-home-page .section-title {
  width: 900px;
  margin: 0 auto;
}
@media screen and (max-width: 1440px) {
  .outer-box-home-page .wcu-heading {
    width: 650px;
  }
}
.outer-box-home-page .owl-carousel .owl-item img {
  display: block;
  width: auto !important;
}
.outer-box-home-page .slider {
  width: -moz-fit-content;
  width: fit-content;
  margin: 40px 0 110px 0;
  display: flex;
  flex-direction: row;
  align-items: center;
  flex-wrap: nowrap;
  gap: 30px;
}
.outer-box-home-page .slider .owl-carousel {
  display: flex;
  gap: 20px;
}
.outer-box-home-page .slider .owl-stage-outer .owl-stage .owl-item {
  width: 347px !important;
}
.outer-box-home-page .slider .content-wrapper {
  width: 347px;
  height: 340px;
  border-radius: 20px;
  background: #f3f4f6;
  padding: 30px 20px;
  flex: 0 0 auto;
}
.outer-box-home-page .slider .content-wrapper .bottom-border {
  position: absolute;
  right: 88px;
  bottom: 0px;
}
.outer-box-home-page .slider .content-wrapper .right-border {
  position: absolute;
  bottom: 75px;
  left: 0px;
}
.outer-box-home-page .slider .content-wrapper .upper-img {
  width: 32px;
  height: 32px;
}
.outer-box-home-page .slider .content-wrapper .slider-content {
  font-size: 18px;
  line-height: 30px;
  font-weight: 500;
  color: #707070;
  margin: 40px 0 0 0;
}
.outer-box-home-page .slider .content-wrapper .about-profile {
  width: 230px;
  height: 95px;
  position: absolute;
  bottom: 0px;
  left: 0px;
  display: flex;
  flex-direction: row;
  align-items: center;
  gap: 15px;
  background-color: #ffffff;
  border-radius: 20px;
}
.outer-box-home-page .slider .content-wrapper .name-n-profile {
  display: flex;
  flex-direction: column;
  justify-content: center;
  align-items: baseline;
}
.outer-box-home-page .slider .content-wrapper .name-n-profile .name {
  font-size: 18px;
  font-weight: 600;
  color: #202323;
}
.outer-box-home-page .slider .content-wrapper .name-n-profile .sol {
  font-size: 18px;
  font-weight: 500;
  color: #707070;
}

@keyframes texth1 {
  0% {
    transform: translateY(-120%);
    opacity: 0.5;
  }
  100% {
    transform: translateY(0);
    opacity: 1;
  }
}
@keyframes texth2 {
  0% {
    transform: translateX(-120%);
  }
  100% {
    transform: translateX(0);
    opacity: 1;
  }
}
@keyframes moveInOut {
  0% {
    transform: translateY(0);
    opacity: 0.5;
  }
  100% {
    transform: translateY(-120%);
    opacity: 1;
  }
}
@keyframes moveInOut2 {
  0% {
    transform: translateX(0);
    opacity: 1;
  }
  100% {
    transform: translateX(-100%);
  }
}
/*********************[][][][][][]********************* UI-UX Page *******************[][][][][][]********************/
.outer-box-ui-page .ui-banner .ui-banner-details .banner-heading {
  width: 1188px;
}
@media screen and (max-width: 1200px) {
  .outer-box-ui-page .ui-banner .ui-banner-details .banner-heading {
    width: 700px;
  }
}
@media screen and (max-width: 768px) {
  .outer-box-ui-page .ui-banner .ui-banner-details .banner-heading {
    width: 100%;
    padding: 0 15px;
    box-sizing: border-box;
  }
}
.outer-box-ui-page .ui-banner .ui-banner-details .banner-content {
  width: 649px;
}
@media screen and (max-width: 768px) {
  .outer-box-ui-page .ui-banner .ui-banner-details .banner-content {
    width: 100%;
    padding: 0 15px;
    box-sizing: border-box;
  }
}
.outer-box-ui-page .ux-design-services-wrapper {
  background-color: #f9f9f9;
  padding: 120px 0;
}
.outer-box-ui-page .ux-design-services-wrapper .service-boxes {
  display: flex;
  flex-direction: row;
  justify-content: space-between;
  align-items: center;
  gap: 47px;
}
@media screen and (max-width: 1440px) {
  .outer-box-ui-page .ux-design-services-wrapper .service-boxes {
    display: flex;
    flex-direction: column;
    justify-content: space-between;
    align-items: center;
    gap: 47px;
  }
}
.outer-box-ui-page .ux-design-services-wrapper .service-boxes .box {
  background-color: #ffffff;
  border-radius: 15px;
  width: 377px;
  height: 360px;
}
@media screen and (max-width: 1720px) {
  .outer-box-ui-page .ux-design-services-wrapper .service-boxes .box {
    height: 390px;
  }
}
@media screen and (max-width: 1440px) {
  .outer-box-ui-page .ux-design-services-wrapper .service-boxes .box {
    width: auto;
    height: 100%;
  }
}
.outer-box-ui-page .ux-design-services-wrapper .service-boxes .box .overlay {
  width: 100%;
  height: 100%;
  background-color: #ffffff;
  border-radius: 15px;
  position: absolute;
  top: 50%;
  left: 50%;
  transform: translate(-50%, -50%);
}
.outer-box-ui-page .ux-design-services-wrapper .service-boxes .box::before {
  content: "";
  position: absolute;
  top: 50%;
  left: 50%;
  transform: translate(-50%, -50%);
  background: linear-gradient(131.86deg, rgba(0, 150, 255, 0.3) 1.26%, rgba(187, 100, 255, 0.3) 34.29%, rgba(242, 65, 107, 0.3) 77.51%, rgba(235, 117, 0, 0.3) 98.39%);
  width: calc(100% + 2px);
  height: calc(100% + 2px);
  visibility: hidden;
  border-radius: 15px;
}
.outer-box-ui-page .ux-design-services-wrapper .service-boxes .box .logo-n-heading {
  display: flex;
  flex-direction: row;
  align-items: center;
  gap: 10px;
}
.outer-box-ui-page .ux-design-services-wrapper .service-boxes .box .logo-n-heading .logo {
  width: 50px;
  height: 50px;
  display: flex;
  justify-content: center;
  align-items: center;
  background: linear-gradient(135.63deg, #0096ff 6.52%, #bb64ff 84.54%, #f2416b 198.83%, #eb7500 235.04%);
  border-radius: 12px;
}
.outer-box-ui-page .ux-design-services-wrapper .service-boxes .box .logo-n-heading span {
  font-size: 18px;
  line-height: 30px;
  font-weight: 600;
  color: #202323;
}
@media screen and (max-width: 1720px) {
  .outer-box-ui-page .ux-design-services-wrapper .service-boxes .box .logo-n-heading span {
    font-size: 18px;
    line-height: 25px;
    font-weight: 600;
    color: #202323;
  }
}
.outer-box-ui-page .ux-design-services-wrapper .service-boxes .box .content {
  font-size: 14px;
  line-height: 25px;
  font-weight: 400;
  color: #707070;
}
.outer-box-ui-page .ux-design-services-wrapper .service-boxes .box .footer-n-arrow {
  display: flex;
  flex-direction: row;
  justify-content: space-between;
  align-items: center;
}
.outer-box-ui-page .ux-design-services-wrapper .service-boxes .box .footer-n-arrow .without-hover {
  display: block;
}
.outer-box-ui-page .ux-design-services-wrapper .service-boxes .box .footer-n-arrow .with-hover {
  display: none;
  transform: rotate(45deg);
}
.outer-box-ui-page .ux-design-services-wrapper .service-boxes .box .footer-n-arrow .lets-go {
  font-size: 16px;
  line-height: 22px;
  font-weight: 500;
  color: #d9d9d9;
}
.outer-box-ui-page .ux-design-services-wrapper .service-boxes .box .footer-n-arrow .lets-go::before {
  content: "";
  background-color: #136DFB;
  width: 8px;
  height: 1px;
  position: absolute;
  bottom: 0px;
  left: 0px;
  visibility: hidden;
  transition: all ease 0.3s;
}
.outer-box-ui-page .ux-design-services-wrapper .service-boxes .box .footer-n-arrow .lets-go:hover::before {
  width: 100%;
  height: 1px;
}
.outer-box-ui-page .ux-design-services-wrapper .service-boxes .box .footer-n-arrow .arrow-circle {
  width: 34px;
  height: 34px;
  display: flex;
  justify-content: center;
  align-items: center;
  border: 1px solid #d9d9d9;
}
.outer-box-ui-page .ux-design-services-wrapper .service-boxes .box:hover {
  box-shadow: 0px 20px 40px 0px rgba(0, 0, 0, 0.2);
}
.outer-box-ui-page .ux-design-services-wrapper .service-boxes .box:hover::before {
  visibility: visible;
}
.outer-box-ui-page .ux-design-services-wrapper .service-boxes .box:hover .without-hover {
  display: none;
}
.outer-box-ui-page .ux-design-services-wrapper .service-boxes .box:hover .with-hover {
  display: block;
  transform: rotate(0deg);
}
.outer-box-ui-page .ux-design-services-wrapper .service-boxes .box:hover .arrow-circle {
  border: 1px solid #136DFB;
}
.outer-box-ui-page .ux-design-services-wrapper .service-boxes .box:hover .lets-go {
  color: #136DFB;
}
.outer-box-ui-page .ux-design-services-wrapper .service-boxes .box:hover .lets-go::before {
  visibility: visible;
}
.outer-box-ui-page .ux-design-services-wrapper .service-boxes .box:hover .logo {
  background: linear-gradient(141.71deg, #0096FF -24.18%, #BB64FF -15.58%, #F2416B 55.67%, #EB7500 96.47%);
}
.outer-box-ui-page .ux-design-services-wrapper .service-boxes .box:hover .logo-img {
  width: 26px;
  height: 26px;
}
.outer-box-ui-page .digital-development-wrapper {
  padding: 120px 0;
}
.outer-box-ui-page .digital-development-wrapper .digital-development {
  display: grid;
  grid-template-columns: repeat(4, auto);
  background-color: rgba(249, 249, 249, 0.6);
  gap: 30px;
  padding: 80px;
  border: 1px solid #e8e8e8;
  border-radius: 20px;
}
@media screen and (max-width: 1720px) {
  .outer-box-ui-page .digital-development-wrapper .digital-development {
    padding: 51px;
  }
}
@media screen and (max-width: 1440px) {
  .outer-box-ui-page .digital-development-wrapper .digital-development {
    padding: 35px;
    grid-template-columns: repeat(3, auto);
  }
}
@media screen and (max-width: 1200px) {
  .outer-box-ui-page .digital-development-wrapper .digital-development {
    grid-template-columns: repeat(2, auto);
  }
}
@media screen and (max-width: 768px) {
  .outer-box-ui-page .digital-development-wrapper .digital-development {
    margin: 0 15px;
    width: calc(100% - 30px);
    display: flex;
    flex-direction: column;
    gap: 30px;
  }
}
.outer-box-ui-page .digital-development-wrapper .digital-development .rectangles-wrapper {
  display: flex;
  flex-direction: row-reverse;
}
.outer-box-ui-page .digital-development-wrapper .digital-development .rectangles-wrapper.rectangles-wrapper-1 {
  position: absolute;
  top: 0px;
  right: 200px;
}
.outer-box-ui-page .digital-development-wrapper .digital-development .rectangles-wrapper.rectangles-wrapper-2 {
  position: absolute;
  right: 200px;
  bottom: 0px;
}
.outer-box-ui-page .digital-development-wrapper .digital-development .rectangles-wrapper.rectangles-wrapper-3 {
  position: absolute;
  top: 0px;
  left: 200px;
}
.outer-box-ui-page .digital-development-wrapper .digital-development .rectangles-wrapper .rectangles {
  width: 115px;
  height: 115px;
  filter: blur(100px);
}
.outer-box-ui-page .digital-development-wrapper .digital-development .rectangles-wrapper .rectangle-1 {
  background-color: #EB7500;
}
.outer-box-ui-page .digital-development-wrapper .digital-development .rectangles-wrapper .rectangle-2 {
  background-color: #F2416B;
}
.outer-box-ui-page .digital-development-wrapper .digital-development .rectangles-wrapper .rectangle-3 {
  background-color: #BB64FF;
}
.outer-box-ui-page .digital-development-wrapper .digital-development .rectangles-wrapper .rectangle-4 {
  background-color: #0096FF;
}
.outer-box-ui-page .digital-development-wrapper .digital-development .title-n-heading {
  grid-column: 1/3;
}
@media screen and (min-width: 992px) and (max-width: 1440px) {
  .outer-box-ui-page .digital-development-wrapper .digital-development .title-n-heading {
    grid-column: 1/4;
  }
}
.outer-box-ui-page .digital-development-wrapper .digital-development .title-n-heading .section-content {
  font-size: 16px;
  line-height: 25px;
  font-weight: 500;
  color: #707070;
}
.outer-box-ui-page .digital-development-wrapper .digital-development .colored-inner-box {
  width: 347px;
  height: 312px;
}
@media screen and (max-width: 1720px) {
  .outer-box-ui-page .digital-development-wrapper .digital-development .colored-inner-box {
    width: 290px;
    height: 294px;
  }
}
@media screen and (max-width: 1440px) {
  .outer-box-ui-page .digital-development-wrapper .digital-development .colored-inner-box {
    width: 295px;
    height: 294px;
  }
}
@media screen and (max-width: 1200px) {
  .outer-box-ui-page .digital-development-wrapper .digital-development .colored-inner-box {
    width: 269px;
    height: 294px;
  }
}
@media screen and (max-width: 992px) {
  .outer-box-ui-page .digital-development-wrapper .digital-development .colored-inner-box {
    width: 299px;
    height: 294px;
  }
}
@media screen and (max-width: 768px) {
  .outer-box-ui-page .digital-development-wrapper .digital-development .colored-inner-box {
    width: 100%;
    height: auto;
  }
}
.outer-box-ui-page .gs-border {
  height: 1px;
  background: linear-gradient(109.92deg, rgba(0, 150, 255, 0.3) 12.78%, rgba(187, 100, 255, 0.3) 37.63%, rgba(242, 65, 107, 0.3) 62.12%, rgba(235, 117, 0, 0.3) 87.3%);
}
.outer-box-ui-page .your-expert-wrapper .circle-1 {
  width: 473px;
  height: 473px;
  filter: blur(150px);
  background-color: #c0bedd;
  position: absolute;
  top: 570px;
  right: 75px;
}
.outer-box-ui-page .your-expert-wrapper .circle-2 {
  width: 312px;
  height: 312px;
  filter: blur(150px);
  background-color: #c0bedd;
  position: absolute;
  top: 80px;
  left: 0px;
}
.outer-box-ui-page .your-expert-wrapper .your-expert {
  padding: 120px 90px;
}
@media screen and (max-width: 1440px) {
  .outer-box-ui-page .your-expert-wrapper .your-expert {
    padding: 120px 0;
  }
}
@media screen and (max-width: 1440px) {
  .outer-box-ui-page .your-expert-wrapper .your-expert {
    padding: 120px 15px;
  }
}
.outer-box-ui-page .your-expert-wrapper .your-expert .section-heading {
  width: 880px;
}
.outer-box-ui-page .your-expert-wrapper .your-expert .section-heading {
  width: 800px;
}
.outer-box-ui-page .your-expert-wrapper .your-expert .boxes {
  display: flex;
  flex-direction: row;
  justify-content: space-between;
  align-items: center;
  gap: 27px;
}
@media screen and (max-width: 1720px) {
  .outer-box-ui-page .your-expert-wrapper .your-expert .boxes {
    display: flex;
    flex-direction: row;
    justify-content: space-between;
    align-items: center;
    gap: 16px;
  }
}
@media screen and (max-width: 992px) {
  .outer-box-ui-page .your-expert-wrapper .your-expert .boxes {
    display: flex;
    flex-direction: column;
    justify-content: space-between;
    align-items: center;
    gap: 40px;
  }
}
.outer-box-ui-page .your-expert-wrapper .your-expert .boxes .box {
  width: 347px;
  height: auto;
  border: 1px solid #ececec;
  background-color: #ffffff;
  border-radius: 12px;
}
@media screen and (max-width: 1720px) {
  .outer-box-ui-page .your-expert-wrapper .your-expert .boxes .box {
    width: 270px;
    height: auto;
  }
}
@media screen and (max-width: 1440px) {
  .outer-box-ui-page .your-expert-wrapper .your-expert .boxes .box {
    width: 225px;
    height: auto;
  }
}
@media screen and (max-width: 992px) {
  .outer-box-ui-page .your-expert-wrapper .your-expert .boxes .box {
    width: 100%;
    height: auto;
    border-radius: 24px;
  }
}
.outer-box-ui-page .your-expert-wrapper .your-expert .boxes .box img {
  width: 100%;
}
.outer-box-ui-page .your-expert-wrapper .your-expert .boxes .box .content .heading {
  font-size: 18px;
  line-height: 27px;
  font-weight: 600;
  color: #202323;
}
.outer-box-ui-page .your-expert-wrapper .your-expert .boxes .box .content .inner-content {
  font-size: 14px;
  line-height: 25px;
  font-weight: 400;
  color: #707070;
}
.outer-box-ui-page .your-expert-wrapper .your-expert .boxes .box:hover {
  box-shadow: 0px 15px 60px 0px rgba(0, 0, 0, 0.2);
}

/*********************[][][][][][]********************* AI-ML Page *******************[][][][][][]********************/
.outer-box-ai-ml-page .ui-banner .the-circle {
  filter: blur(195px);
  width: 325px;
  height: 325px;
  transform: translateX(-50%);
}
.outer-box-ai-ml-page .ui-banner .ui-banner-blur-circle {
  background-color: #136dfb;
  position: absolute;
  top: 225px;
  left: 50%;
}
.outer-box-ai-ml-page .ui-banner .ui-banner-blur-circle-II {
  background-color: #F2416B;
  position: absolute;
  top: 225px;
  left: 64%;
}
.outer-box-ai-ml-page .ui-banner .ai-ml-banner-line {
  position: absolute;
  top: 140px;
  left: -42px;
}
.outer-box-ai-ml-page .ui-banner .banner-girl-image {
  position: absolute;
  top: 135px;
  left: 50%;
  transform: translateX(-50%);
}
.outer-box-ai-ml-page .ui-banner .banner-girl-image .banner-gif {
  width: 300px;
  position: absolute;
  top: -86px;
  left: -50px;
}
.outer-box-ai-ml-page .ui-banner .user-box.ios-app-left {
  position: absolute;
  top: 385px;
  left: 340px;
}
.outer-box-ai-ml-page .ui-banner .user-box.ios-app-right {
  position: absolute;
  top: 385px;
  right: 330px;
}
.outer-box-ai-ml-page .ui-banner .user-box.ios-app-bottom {
  position: absolute;
  top: 180px;
  left: 390px;
}
.outer-box-ai-ml-page .ui-banner .user-box.ai-bot {
  position: absolute;
  top: 205px;
  right: 410px;
}
.outer-box-ai-ml-page .ui-banner .user-box span {
  font-size: 16px;
  line-height: 24px;
  font-weight: 600;
  color: #202323;
}
.outer-box-ai-ml-page .ui-banner .ui-banner-details .banner-heading {
  width: 1188px;
}
.outer-box-ai-ml-page .ui-banner .ui-banner-details .banner-content {
  width: 960px;
}
.outer-box-ai-ml-page .main-content {
  width: 936px;
}
@media screen and (max-width: 992px) {
  .outer-box-ai-ml-page .main-content {
    width: 700px;
  }
}
@media screen and (max-width: 768px) {
  .outer-box-ai-ml-page .main-content {
    width: 100%;
  }
}
.outer-box-ai-ml-page .business-growth-wrapper {
  height: 908px;
}
@media screen and (max-width: 1200px) {
  .outer-box-ai-ml-page .business-growth-wrapper {
    height: 1200px;
  }
}
.outer-box-ai-ml-page .business-growth-wrapper .business-growth-outer {
  background-color: #136dfb;
  border-top-left-radius: 60px;
  border-top-right-radius: 60px;
  height: 455px;
}
@media screen and (max-width: 1200px) {
  .outer-box-ai-ml-page .business-growth-wrapper .business-growth-outer {
    height: 700px;
  }
}
.outer-box-ai-ml-page .business-growth-wrapper .business-growth-outer .business-growth-content {
  padding-top: 80px;
}
.outer-box-ai-ml-page .business-growth-wrapper .business-growth-outer .business-growth-content .section-title {
  color: #ffffff;
  background: none;
  -webkit-text-fill-color: unset;
}
.outer-box-ai-ml-page .business-growth-wrapper .business-growth-outer .business-growth-content .section-heading {
  color: #ffffff;
}
.outer-box-ai-ml-page .business-growth-wrapper .business-growth-outer .business-growth-content .section-content {
  font-size: 16px;
  line-height: 24px;
  font-weight: 500;
  color: #ffffff;
}
.outer-box-ai-ml-page .business-growth-wrapper .business-growth-outer .business-growth-boxes {
  background-color: #ffffff;
  border-radius: 30px;
  display: flex;
  flex-direction: row;
  justify-content: space-between;
  position: absolute;
  top: 280px;
  left: 50%;
  transform: translateX(-50%);
}
@media screen and (max-width: 1440px) {
  .outer-box-ai-ml-page .business-growth-wrapper .business-growth-outer .business-growth-boxes {
    padding: 28px;
  }
}
@media screen and (max-width: 1200px) {
  .outer-box-ai-ml-page .business-growth-wrapper .business-growth-outer .business-growth-boxes {
    display: flex;
    flex-direction: column;
    justify-content: space-between;
    gap: 28px;
    position: absolute;
    top: 300px;
    left: 50%;
  }
}
@media screen and (max-width: 992px) {
  .outer-box-ai-ml-page .business-growth-wrapper .business-growth-outer .business-growth-boxes {
    position: absolute;
    top: 320px;
    left: 50%;
  }
}
.outer-box-ai-ml-page .business-growth-wrapper .business-growth-outer .business-growth-boxes .colored-inner-box {
  width: 369px;
  height: 382px;
  border-radius: 15px;
}
@media screen and (max-width: 1720px) {
  .outer-box-ai-ml-page .business-growth-wrapper .business-growth-outer .business-growth-boxes .colored-inner-box {
    width: 290px;
    height: 410px;
  }
}
@media screen and (max-width: 1440px) {
  .outer-box-ai-ml-page .business-growth-wrapper .business-growth-outer .business-growth-boxes .colored-inner-box {
    width: 230px;
    height: 342px;
    padding: 12px;
  }
}
@media screen and (max-width: 1200px) {
  .outer-box-ai-ml-page .business-growth-wrapper .business-growth-outer .business-growth-boxes .colored-inner-box {
    width: 100%;
    height: auto;
  }
}
.outer-box-ai-ml-page .business-growth-wrapper .business-growth-outer .business-growth-boxes .colored-inner-box .logo {
  width: 60px;
  height: 60px;
}
@media screen and (max-width: 1440px) {
  .outer-box-ai-ml-page .business-growth-wrapper .business-growth-outer .business-growth-boxes .colored-inner-box .logo {
    margin-bottom: 8px;
  }
}
@media screen and (max-width: 1440px) {
  .outer-box-ai-ml-page .business-growth-wrapper .business-growth-outer .business-growth-boxes .colored-inner-box .box-heading {
    font-size: 20px;
    line-height: 24px;
    font-weight: 400;
    color: #202323;
    margin: 8px 0;
  }
}
@media screen and (max-width: 1440px) {
  .outer-box-ai-ml-page .business-growth-wrapper .business-growth-outer .business-growth-boxes .colored-inner-box .box-content {
    font-size: 13px;
    line-height: 18px;
    font-weight: 400;
    color: #707070;
    margin: 8px 0;
  }
}

/*********************[][][][][][]********************* MOBILE Page *******************[][][][][][]********************/
.outer-box-mobile-page .ui-banner .ui-banner-details .banner-heading {
  width: 1188px;
}
.outer-box-mobile-page .ui-banner .ui-banner-details .banner-content {
  width: 649px;
}

/*********************[][][][][][]********************* PRODUCT PAGE *******************[][][][][][]********************/
.outer-box-product-page {
  /******** banner ********/
}
.outer-box-product-page .ui-banner .the-circle {
  filter: blur(195px);
  width: 325px;
  height: 325px;
  transform: translateX(-50%);
}
.outer-box-product-page .ui-banner .ui-banner-blur-circle {
  background-color: #136dfb;
  position: absolute;
  top: 225px;
  left: 50%;
}
.outer-box-product-page .ui-banner .ui-banner-blur-circle-II {
  background-color: #f2416b;
  position: absolute;
  top: 225px;
  left: 64%;
}
.outer-box-product-page .ui-banner .ai-ml-banner-line {
  position: absolute;
  top: 140px;
  left: -42px;
}
.outer-box-product-page .ui-banner .banner-girl-image {
  position: absolute;
  top: 135px;
  left: 37%;
}
.outer-box-product-page .ui-banner .banner-girl-image .banner-gif {
  width: 499px;
  position: absolute;
  right: 0px;
  left: 0px;
}
.outer-box-product-page .ui-banner .user-box {
  border-radius: 8px;
  border: 1px solid rgba(19, 109, 251, 0.0509803922);
  -webkit-backdrop-filter: blur(150px);
          backdrop-filter: blur(150px);
  box-shadow: 0px 30px 60px 0px rgba(0, 0, 0, 0.2);
  background: linear-gradient(178.83deg, rgba(255, 255, 255, 0.6) 2.73%, rgba(249, 249, 249, 0.6) 97.04%);
  display: flex;
  flex-direction: row;
  justify-content: center;
  align-items: center;
  gap: 10px;
}
.outer-box-product-page .ui-banner .user-box.ios-app-left {
  position: absolute;
  top: 385px;
  left: 340px;
}
.outer-box-product-page .ui-banner .user-box.ios-app-right {
  position: absolute;
  top: 385px;
  right: 270px;
}
.outer-box-product-page .ui-banner .user-box.ios-app-bottom {
  position: absolute;
  top: 180px;
  left: 390px;
}
.outer-box-product-page .ui-banner .user-box.ai-bot {
  position: absolute;
  top: 205px;
  right: 348px;
}
.outer-box-product-page .ui-banner .user-box .icon {
  width: 47px;
  height: 47px;
  display: flex;
  justify-content: center;
  align-items: center;
  background-color: #136dfb;
  border-radius: 8px;
}
.outer-box-product-page .ui-banner .user-box span {
  font-size: 16px;
  line-height: 24px;
  font-weight: 600;
  color: #202323;
}
.outer-box-product-page .ui-banner .ui-banner-details {
  background: linear-gradient(178.83deg, rgba(255, 255, 255, 0.6) 2.73%, rgba(249, 249, 249, 0.6) 97.04%);
  width: 100%;
  height: calc(100vh - 504px);
  display: flex;
  flex-direction: column;
  justify-content: center;
  align-items: center;
  position: absolute;
  right: 0px;
  bottom: 0px;
  left: 0px;
  -webkit-backdrop-filter: blur(30px);
          backdrop-filter: blur(30px);
}
.outer-box-product-page .ui-banner .ui-banner-details .banner-heading {
  width: 900px;
  margin-bottom: 16px;
  text-transform: uppercase;
  font-size: 58px;
  line-height: 86.7px;
  font-weight: 700;
  color: #202323;
}
@media screen and (max-width: 1200px) {
  .outer-box-product-page .ui-banner .ui-banner-details .banner-heading {
    font-size: 36px;
    line-height: 48.7px;
    font-weight: 700;
    color: #202323;
    width: 840px;
  }
}
.outer-box-product-page .ui-banner .ui-banner-details .banner-content {
  width: 960px;
  margin-bottom: 28px;
  font-size: 16px;
  line-height: 24px;
  font-weight: 500;
  color: #707070;
}
.outer-box-product-page .key-features {
  padding: 120px;
  background-color: #136dfb;
  margin: 120px 0;
  gap: 30px;
  display: grid;
  grid-template-columns: repeat(auto-fill, minmax(470px, 1fr));
  grid-template-rows: repeat(auto-fill, minmax(195px, 1fr));
}
@media screen and (max-width: 1210px) {
  .outer-box-product-page .key-features {
    padding: 70px;
    grid-template-columns: repeat(auto-fill, minmax(370px, 1fr));
  }
}
@media screen and (max-width: 980px) {
  .outer-box-product-page .key-features {
    padding: 50px;
    grid-template-columns: repeat(auto-fill, minmax(270px, 1fr));
  }
}
@media screen and (max-width: 580px) {
  .outer-box-product-page .key-features {
    padding: 10px;
  }
}
.outer-box-product-page .key-features p {
  margin: 0;
  font-size: 48px;
  line-height: 55px;
  font-weight: 300;
  color: #ffffff;
}
.outer-box-product-page .key-features p span {
  font-size: 48px;
  line-height: 55px;
  font-weight: 600;
  color: #ffffff;
}
@media screen and (max-width: 1094px) {
  .outer-box-product-page .key-features p span {
    font-size: 42px;
    line-height: 50px;
…
  transform: translate(-50%, -50%);
}
.outer-box-mobile-app-development .ed-banner .ed-inner-box .img-circle {
  width: 61px;
  height: 61px;
  display: flex;
  justify-content: center;
  align-items: center;
}
.outer-box-mobile-app-development .ed-banner .ed-inner-box .light-circle {
  background-color: #ffffff;
  border: 1px solid rgba(19, 109, 251, 0.0509803922);
}
.outer-box-mobile-app-development .ed-banner .ed-inner-box .dark-circle {
  width: 47px;
  height: 47px;
  background-color: #202323;
}
.outer-box-mobile-app-development .ed-banner .ed-inner-box .chair-n-bag {
  width: 424px;
  height: 73px;
  padding: 0 6px;
  border-radius: 36px;
}
.outer-box-mobile-app-development .ed-banner .ed-inner-box .chair-n-bag.cb-top {
  background: #E8E8E8;
  display: flex;
  flex-direction: row;
  justify-content: space-between;
  align-items: center;
  position: absolute;
  top: 100px;
  left: 50%;
  transform: translateX(-50%);
}
.outer-box-mobile-app-development .ed-banner .ed-inner-box .chair-n-bag.cb-left {
  background: linear-gradient(90deg, #FFFFFF 0%, #EBEBEB 100%);
  display: flex;
  flex-direction: row;
  justify-content: end;
  align-items: center;
  position: absolute;
  top: 277px;
  left: 22%;
  transform: translateX(-50%);
}
.outer-box-mobile-app-development .ed-banner .ed-inner-box .chair-n-bag.cb-right {
  background: linear-gradient(90deg, #EBEBEB 0%, #FFFFFF 100%);
  display: flex;
  flex-direction: row;
  justify-content: start;
  align-items: center;
  position: absolute;
  top: 277px;
  left: 78%;
  transform: translateX(-50%);
}
.outer-box-mobile-app-development .ed-banner .ed-inner-box .logo-n-label {
  width: -moz-fit-content;
  width: fit-content;
}
.outer-box-mobile-app-development .ed-banner .ed-inner-box .logo-n-label.management {
  display: flex;
  flex-direction: row-reverse;
  justify-content: space-between;
  align-items: center;
  gap: 10px;
  position: absolute;
  top: 183px;
  left: 31%;
  transform: translateX(-50%);
}
.outer-box-mobile-app-development .ed-banner .ed-inner-box .logo-n-label.efficiency {
  display: flex;
  flex-direction: row-reverse;
  justify-content: space-between;
  align-items: center;
  gap: 10px;
  position: absolute;
  top: 387px;
  left: 27%;
  transform: translateX(-50%);
}
.outer-box-mobile-app-development .ed-banner .ed-inner-box .logo-n-label.shopping {
  display: flex;
  flex-direction: row;
  justify-content: space-between;
  align-items: center;
  gap: 10px;
  position: absolute;
  top: 183px;
  left: 68%;
  transform: translateX(-50%);
}
.outer-box-mobile-app-development .ed-banner .ed-inner-box .logo-n-label.market {
  display: flex;
  flex-direction: row;
  justify-content: space-between;
  align-items: center;
  gap: 10px;
  position: absolute;
  top: 387px;
  left: 72%;
  transform: translateX(-50%);
}
.outer-box-mobile-app-development .image-text-section-wrapper {
  background-color: #ffffff;
  padding: 0;
}
.outer-box-mobile-app-development .image-text-section-wrapper .image-text {
  border-radius: 30px;
  box-shadow: 0px 20px 80px 0px rgba(0, 0, 0, 0.0509803922);
  height: auto;
}
.outer-box-mobile-app-development .full-service-development .main-content {
  width: 820px;
}
.outer-box-mobile-app-development .full-service-development .boxes-wrapper {
  display: flex;
  flex-direction: row;
  justify-content: space-between;
  align-items: center;
  flex-wrap: wrap;
  gap: 40pxpx;
}
.outer-box-mobile-app-development .full-service-development .boxes-wrapper .box {
  width: calc(20% - 32px);
  padding: 10px;
  display: flex;
  flex-direction: row;
  justify-content: start;
  align-items: center;
  gap: 15px;
  border: 1px solid #E8E8E8;
  box-shadow: 0px 20px 80px 0px rgba(0, 0, 0, 0.0509803922);
  border-radius: 16px;
}
.outer-box-mobile-app-development .full-service-development .boxes-wrapper .box .box-inner-content {
  width: calc(100% - 75px);
}
.outer-box-mobile-app-development .full-service-development .boxes-wrapper .box .logo {
  width: 60px;
  height: 60px;
  display: flex;
  justify-content: center;
  align-items: center;
  border-radius: 16px;
}
.outer-box-mobile-app-development .full-service-development .boxes-wrapper .box .logo.logo-box-1, .outer-box-mobile-app-development .full-service-development .boxes-wrapper .box .logo.logo-box-3 {
  background-color: #136DFB;
  box-shadow: 0px 10px 60px 0px rgba(19, 109, 251, 0.4);
}
.outer-box-mobile-app-development .full-service-development .boxes-wrapper .box .logo.logo-box-2, .outer-box-mobile-app-development .full-service-development .boxes-wrapper .box .logo.logo-box-5, .outer-box-mobile-app-development .full-service-development .boxes-wrapper .box .logo.logo-box-9 {
  background-color: #EB7500;
  box-shadow: 0px 10px 60px 0px rgba(235, 117, 0, 0.4);
}
.outer-box-mobile-app-development .full-service-development .boxes-wrapper .box .logo.logo-box-4, .outer-box-mobile-app-development .full-service-development .boxes-wrapper .box .logo.logo-box-7 {
  background-color: #F2416B;
  box-shadow: 0px 10px 60px 0px rgba(242, 65, 107, 0.4);
}
.outer-box-mobile-app-development .full-service-development .boxes-wrapper .box .logo.logo-box-6, .outer-box-mobile-app-development .full-service-development .boxes-wrapper .box .logo.logo-box-8, .outer-box-mobile-app-development .full-service-development .boxes-wrapper .box .logo.logo-box-10 {
  background-color: #BB64FF;
  box-shadow: 0px 10px 60px 0px rgba(187, 100, 255, 0.4);
}
.outer-box-mobile-app-development .app-development .main-content {
  width: 1010px;
}
.outer-box-mobile-app-development .app-development .parts {
  display: flex;
  flex-direction: row;
  justify-content: space-between;
  align-items: center;
  box-shadow: 0px 20px 80px 0px rgba(0, 0, 0, 0.0509803922);
  border-radius: 30px;
  border: 1px solid #E8E8E8;
  padding: 30px;
}
.outer-box-mobile-app-development .app-development .parts .box {
  width: 30%;
}
.outer-box-mobile-app-development .app-development .parts .box .logo-n-heading {
  display: flex;
  flex-direction: row;
  justify-content: start;
  align-items: center;
  gap: 10px;
}
.outer-box-mobile-app-development .app-development .parts .box .logo-n-heading .heading {
  font-size: 24px;
  line-height: 36px;
  font-weight: 600;
  color: #202323;
}
.outer-box-mobile-app-development .app-development .parts .box.box:not(:last-child)::after {
  content: "";
  position: absolute;
  top: 50%;
  right: -33px;
  transform: translate(-50%, -50%);
  width: 1px;
  height: 129px;
  background-color: #707070;
}

/*********************[][][][][][]********************* SOFTWARE AND TESTING *******************[][][][][][]********************/
.outer-box-software-n-testing .ed-banner .ed-banner-heading {
  width: 1365px;
}
.outer-box-software-n-testing .ed-banner .banner-image {
  width: 400px;
  position: absolute;
  top: 170px;
  left: 50%;
}
.outer-box-software-n-testing .cs-digital-transform-wrapper .digital-transformation {
  box-shadow: 0px 20px 80px 0px rgba(0, 0, 0, 0.0509803922);
}
.outer-box-software-n-testing .quality-assurance .boxes {
  display: grid;
  grid-template-columns: repeat(3, 1fr);
  grid-template-rows: auto auto;
  gap: 10px;
  width: 100%;
  margin: auto;
  gap: 44px;
  justify-items: center;
}
.outer-box-software-n-testing .quality-assurance .boxes .box {
  width: 100%;
  box-shadow: 0px 20px 80px 0px rgba(0, 0, 0, 0.0509803922);
  border: 1px solid #E8E8E8;
  border-radius: 16px;
  box-sizing: border-box;
  background-color: #ffffff;
  padding: 20px;
  min-height: 265px;
}
.outer-box-software-n-testing .quality-assurance .boxes .box .logo-n-heading {
  display: flex;
  flex-direction: row;
  align-items: center;
  gap: 10px;
}
.outer-box-software-n-testing .quality-assurance .boxes .box .logo-n-heading .logo {
  width: 60px;
  height: 60px;
  border-radius: 16px;
  box-shadow: 0px 10px 60px 0px rgba(19, 109, 251, 0.4);
  display: flex;
  flex-direction: row;
  justify-content: center;
  align-items: center;
  background-color: #136dfb;
}
.outer-box-software-n-testing .quality-assurance .boxes .box .logo-n-heading .heading {
  width: calc(100% - 60px);
  font-size: 24px;
  line-height: 36px;
  font-weight: 600;
  color: #202323;
  margin: 0;
}
.outer-box-software-n-testing .quality-assurance .boxes .box .inner-content {
  margin: 0;
}
.outer-box-software-n-testing .quality-assurance .boxes .row2 {
  display: flex;
  justify-content: center;
  grid-column: 1/span 3;
  gap: 44px;
}
.outer-box-software-n-testing .quality-assurance .boxes .row2 .box {
  width: 31.5%;
  min-height: 265px;
}
.outer-box-software-n-testing .testing-services-wrapper {
  margin-top: 120px;
}
.outer-box-software-n-testing .testing-services-wrapper .box-before {
  position: absolute;
  top: 0px;
  left: 50%;
  transform: translateX(-50%);
  background-color: #f9f9f9;
  width: 100%;
  height: 490px;
}
.outer-box-software-n-testing .testing-services-wrapper .testing-services {
  padding-top: 120px;
}
.outer-box-software-n-testing .testing-services-wrapper .testing-services .listing-n-img {
  display: flex;
  flex-direction: row;
  justify-content: space-between;
  border-radius: 16px;
  border: 1px solid #E8E8E8;
  background-color: #ffffff;
}
.outer-box-software-n-testing .testing-services-wrapper .testing-services .listing-n-img .upper-circle {
  position: absolute;
  top: -362px;
  right: 15%;
  background-color: #c0bedd;
  filter: blur(200px);
  width: 507px;
  height: 507px;
}
.outer-box-software-n-testing .testing-services-wrapper .testing-services .listing-n-img .lower-circle {
  position: absolute;
  bottom: -355pxpx;
  left: -240pxpx;
  background-color: #c0bedd;
  filter: blur(200px);
  width: 507px;
  height: 507px;
  bottom: -355px;
  left: -240px;
}
.outer-box-software-n-testing .testing-services-wrapper .testing-services .listing-n-img .testing-list {
  padding: 48px 40px;
  width: 100%;
  display: grid;
  grid-template-columns: repeat(3, 1fr);
  gap: 26px;
}
.outer-box-software-n-testing .testing-services-wrapper .testing-services .listing-n-img .testing-list li {
  font-size: 18px;
  font-weight: 500;
  color: #202323;
  display: inline-block;
  width: 100%;
  line-height: 27px;
  position: relative;
  display: flex;
  flex-direction: row;
  align-items: center;
  gap: 10px;
}
.outer-box-software-n-testing .testing-services-wrapper .testing-services .listing-n-img .testing-list li .light-circle {
  width: 18px;
  height: 18px;
  display: flex;
  flex-direction: row;
  justify-content: center;
  align-items: center;
  background-color: #E8F1FF;
}
.outer-box-software-n-testing .testing-services-wrapper .testing-services .listing-n-img .testing-list li .light-circle::before {
  content: "";
  position: absolute;
  top: 50%;
  left: 50%;
  transform: translate(-50%, -50%);
  width: 6px;
  height: 6px;
  border-radius: 50%;
  background-color: #136dfb;
}

/*********************[][][][][][]********************* DATABASE DEVELOPMENT *******************[][][][][][]********************/
.outer-box-database-development .ed-banner .ed-inner-box .qa-testing {
  position: absolute;
  top: 183px;
  left: 33%;
}
.outer-box-database-development .ed-banner .ed-inner-box .software {
  position: absolute;
  top: 387px;
  left: 29%;
}
.outer-box-database-development .ed-banner .ed-banner-heading {
  width: 1365px;
}
.outer-box-database-development .ed-banner .banner-image {
  width: auto;
  position: absolute;
  top: 150px;
  left: 50%;
}
.outer-box-database-development .kf-wrapper .key-features .kf-boxes-wrapper .kf-box {
  height: auto;
}
.outer-box-database-development .cs-digital-transform-wrapper ul {
  padding-left: 20px;
  list-style-type: none;
}
.outer-box-database-development .cs-digital-transform-wrapper ul li {
  margin-bottom: 5px;
}
.outer-box-database-development .cs-digital-transform-wrapper ul li::before {
  content: "";
  position: absolute;
  top: 50%;
  left: -20px;
  transform: translateY(-50%);
  width: 8px;
  height: 8px;
  background-color: #D9D9D9;
  border-radius: 50%;
}
.outer-box-database-development .cs-digital-transform-wrapper .digital-transformation .left-part {
  padding: 0 84px 0 84px;
}
.outer-box-database-development .dd-services-wrapper .dd-services .boxes-wrapper {
  border-radius: 30px;
  border: 1px solid #E8E8E8;
  box-shadow: 0px 20px 80px 0px rgba(0, 0, 0, 0.0509803922);
  display: flex;
  flex-direction: column;
  gap: 25px;
}
.outer-box-database-development .dd-services-wrapper .dd-services .boxes-wrapper .inner-box {
  display: flex;
  flex-direction: row;
  justify-content: space-between;
  align-items: center;
  gap: 20px;
  background-color: #f9f9f9;
  border-radius: 15px;
}
.outer-box-database-development .dd-services-wrapper .dd-services .boxes-wrapper .inner-box .heading {
  font-size: 24px;
  line-height: 36px;
  font-weight: 600;
  color: #202323;
  margin: 0 0 10px 0;
}

/*********************[][][][][][]********************* DEVOPS & CLOUD *******************[][][][][][]********************/
.outer-box-devops-cloud .ed-banner .ed-inner-box .infra {
  position: absolute;
  top: 183px;
  left: 32.5%;
}
.outer-box-devops-cloud .ed-banner .ed-inner-box .cloud {
  position: absolute;
  top: 387px;
  left: 27.5%;
}
.outer-box-devops-cloud .ed-banner .ed-inner-box .monitor {
  position: absolute;
  top: 387px;
  left: 73.5%;
}
.outer-box-devops-cloud .ed-banner .ed-banner-heading {
  width: 1365px;
}
.outer-box-devops-cloud .ed-banner .banner-image {
  width: auto;
  position: absolute;
  top: 180px;
  left: 50%;
}
.outer-box-devops-cloud .cs-digital-transform-wrapper .digital-transformation.reverse {
  flex-direction: row-reverse;
}
.outer-box-devops-cloud .cs-digital-transform-wrapper .digital-transformation.reverse .left-part ul {
  padding-left: 20px;
}
.outer-box-devops-cloud .cs-digital-transform-wrapper .digital-transformation.reverse .left-part ul li {
  margin-bottom: 5px;
}
.outer-box-devops-cloud .cs-digital-transform-wrapper .digital-transformation .left-part {
  padding: 0 84px 0 84px;
}
.outer-box-devops-cloud .cs-digital-transform-wrapper .digital-transformation .left-part.border-zero {
  border-top-right-radius: 0;
  border-bottom-right-radius: 0;
}
.outer-box-devops-cloud .last-s ul {
  padding-left: 20px;
}
.outer-box-devops-cloud .last-s ul li {
  margin-bottom: 5px;
}

/*********************[][][][][][]********************* DEDICATED TEAM *******************[][][][][][]********************/
.back-transparent {
  background-color: transparent;
}

.blue-background {
  background-color: #136dfb;
}

.gray-backgorund {
  background-color: #f9f9f9;
}

.white-text {
  color: #ffffff;
}

.outer-box-dedicated-team .ui-banner .ui-banner-blur-circle {
  background-color: #136dfb;
  filter: blur(195px);
  width: 325px;
  height: 325px;
  position: absolute;
  top: 225px;
  left: 50%;
  transform: translateX(-50%);
}
.outer-box-dedicated-team .ui-banner .banner-girl-image {
  position: absolute;
  top: 160px;
  left: 50%;
  transform: translateX(-50%);
  width: auto;
}
.outer-box-dedicated-team .ui-banner .img-inside-img {
  width: auto;
  position: absolute;
  top: 250px;
  left: 46%;
}
.outer-box-dedicated-team .ui-banner .user-box {
  border-radius: 30px;
  border: 1px solid rgba(19, 109, 251, 0.0509803922);
  -webkit-backdrop-filter: blur(150px);
          backdrop-filter: blur(150px);
  box-shadow: 0px 30px 60px 0px rgba(0, 0, 0, 0.2);
  background: linear-gradient(178.83deg, rgba(255, 255, 255, 0.6) 2.73%, rgba(249, 249, 249, 0.6) 97.04%);
  display: flex;
  flex-direction: row;
  justify-content: center;
  align-items: center;
  gap: 10px;
}
.outer-box-dedicated-team .ui-banner .user-box.user-interface {
  position: absolute;
  top: 180px;
  left: 580px;
}
@media screen and (max-width: 1720px) {
  .outer-box-dedicated-team .ui-banner .user-box.user-interface {
    position: absolute;
    top: 310px;
    left: 370px;
  }
}
@media screen and (max-width: 1440px) {
  .outer-box-dedicated-team .ui-banner .user-box.user-interface {
    position: absolute;
    top: 330px;
    left: 240px;
  }
}
.outer-box-dedicated-team .ui-banner .user-box.user-interface2 {
  position: absolute;
  top: 400px;
  left: 580px;
}
@media screen and (max-width: 1720px) {
  .outer-box-dedicated-team .ui-banner .user-box.user-interface2 {
    position: absolute;
    top: 310px;
    left: 370px;
  }
}
@media screen and (max-width: 1440px) {
  .outer-box-dedicated-team .ui-banner .user-box.user-interface2 {
    position: absolute;
    top: 330px;
    left: 240px;
  }
}
.outer-box-dedicated-team .ui-banner .user-box.user-exp {
  position: absolute;
  top: 180px;
  right: 630px;
}
@media screen and (max-width: 1720px) {
  .outer-box-dedicated-team .ui-banner .user-box.user-exp {
    position: absolute;
    top: 155px;
    right: 410px;
  }
}
@media screen and (max-width: 1440px) {
  .outer-box-dedicated-team .ui-banner .user-box.user-exp {
    position: absolute;
    top: 155px;
    right: 290px;
  }
}
.outer-box-dedicated-team .ui-banner .user-box.user-exp2 {
  position: absolute;
  top: 400px;
  right: 630px;
}
@media screen and (max-width: 1720px) {
  .outer-box-dedicated-team .ui-banner .user-box.user-exp2 {
    position: absolute;
    top: 155px;
    right: 410px;
  }
}
@media screen and (max-width: 1440px) {
  .outer-box-dedicated-team .ui-banner .user-box.user-exp2 {
    position: absolute;
    top: 155px;
    right: 290px;
  }
}
.outer-box-dedicated-team .ui-banner .user-box .icon {
  width: 47px;
  height: 47px;
  display: flex;
  justify-content: center;
  align-items: center;
  background-color: #136dfb;
  border-radius: 23px;
}
.outer-box-dedicated-team .ui-banner .user-box span {
  font-size: 16px;
  line-height: 24px;
  font-weight: 600;
  color: #202323;
}
.outer-box-dedicated-team .ui-banner .line-design {
  display: flex;
  flex-direction: column;
  justify-content: center;
  align-items: center;
  gap: 15px;
}
.outer-box-dedicated-team .ui-banner .line-design.guided {
  position: absolute;
  top: 140px;
  right: -70px;
}
@media screen and (max-width: 1440px) {
  .outer-box-dedicated-team .ui-banner .line-design.guided {
    position: absolute;
    top: 80px;
    right: -150px;
  }
}
.outer-box-dedicated-team .ui-banner .line-design.guided .guided-line {
  top: 85px;
  right: 43px;
}
@media screen and (max-width: 1440px) {
  .outer-box-dedicated-team .ui-banner .line-design.guided .guided-line {
    top: 85px;
    right: -80px;
  }
}
.outer-box-dedicated-team .ui-banner .line-design.effective-nav {
  position: absolute;
  top: 165px;
  left: -75px;
}
@media screen and (max-width: 1440px) {
  .outer-box-dedicated-team .ui-banner .line-design.effective-nav {
    position: absolute;
    top: 165px;
    left: -150px;
  }
}
.outer-box-dedicated-team .ui-banner .line-design.effective-nav .nav-line {
  top: 80px;
  left: 80px;
}
@media screen and (max-width: 1440px) {
  .outer-box-dedicated-team .ui-banner .line-design.effective-nav .nav-line {
    top: 100px;
    left: -42px;
  }
}
.outer-box-dedicated-team .ui-banner .line-design span {
  font-size: 16px;
  line-height: 24px;
  font-weight: 600;
  color: #d9d9d9;
}
.outer-box-dedicated-team .ui-banner .line-design .logo-box {
  border: 1px solid #e5e6e8;
  display: flex;
  justify-content: center;
  align-items: center;
  width: 61px;
  height: 61px;
  border-radius: 12px;
  -webkit-backdrop-filter: blur(10px);
          backdrop-filter: blur(10px);
  background: linear-gradient(178.83deg, rgba(255, 255, 255, 0.6) 2.73%, rgba(249, 249, 249, 0.6) 97.04%);
}
.outer-box-dedicated-team .ui-banner .ui-banner-details {
  background: linear-gradient(178.83deg, rgba(255, 255, 255, 0.6) 2.73%, rgba(249, 249, 249, 0.6) 97.04%);
  width: 100%;
  height: calc(100vh - 510px);
  display: flex;
  flex-direction: column;
  justify-content: center;
  align-items: center;
  position: absolute;
  right: 0px;
  bottom: 0px;
  left: 0px;
  -webkit-backdrop-filter: blur(30px);
          backdrop-filter: blur(30px);
}
.outer-box-dedicated-team .ui-banner .ui-banner-details .banner-heading {
  margin-bottom: 16px;
  text-transform: uppercase;
  width: 50%;
  font-size: 60px;
  line-height: 86.7px;
  font-weight: 700;
  color: #202323;
}
@media screen and (max-width: 1700px) {
  .outer-box-dedicated-team .ui-banner .ui-banner-details .banner-heading {
    font-size: 55px;
    line-height: 68.7px;
    font-weight: 700;
    color: #202323;
  }
}
@media screen and (max-width: 1200px) {
  .outer-box-dedicated-team .ui-banner .ui-banner-details .banner-heading {
    font-size: 36px;
    line-height: 48.7px;
    font-weight: 700;
    color: #202323;
  }
}
@media screen and (max-width: 768px) {
  .outer-box-dedicated-team .ui-banner .ui-banner-details .banner-heading {
    font-size: 32px;
    line-height: 41.7px;
    font-weight: 700;
    color: #202323;
  }
}
@media screen and (max-width: 576px) {
  .outer-box-dedicated-team .ui-banner .ui-banner-details .banner-heading {
    font-size: 22px;
    line-height: 31.7px;
    font-weight: 700;
    color: #202323;
  }
}
.outer-box-dedicated-team .ui-banner .ui-banner-details .banner-content {
  margin-bottom: 28px;
  width: 55%;
  font-size: 16px;
  line-height: 24px;
  font-weight: 500;
  color: #707070;
}
@media screen and (max-width: 780px) {
  .outer-box-dedicated-team .ui-banner .ui-banner-details .banner-content {
    font-size: 14px;
    line-height: 20px;
    font-weight: 500;
    color: #707070;
  }
}
@media screen and (max-width: 480px) {
  .outer-box-dedicated-team .ui-banner .ui-banner-details .banner-content {
    font-size: 12px;
    line-height: 16px;
    font-weight: 500;
    color: #707070;
  }
}
.outer-box-dedicated-team .technos-wrapper {
  margin: 120px auto;
}
@media screen and (max-width: 580px) {
  .outer-box-dedicated-team .technos-wrapper {
    width: 90%;
    margin: 60px auto;
  }
}
.outer-box-dedicated-team .technos-wrapper .technos {
  width: 100%;
}
.outer-box-dedicated-team .technos-wrapper .technos .section-title {
  text-transform: uppercase;
}
@media screen and (max-width: 1400px) {
  .outer-box-dedicated-team .technos-wrapper .technos .section-title {
    font-size: 18px;
    line-height: 28px;
    font-weight: 600;
    color: #136dfb;
  }
}
@media screen and (max-width: 1140px) {
  .outer-box-dedicated-team .technos-wrapper .technos .section-title {
    font-size: 14px;
    line-height: 22px;
    font-weight: 600;
    color: #136dfb;
  }
}
.outer-box-dedicated-team .technos-wrapper .technos .section-heading {
  font-size: 48px;
  line-height: 60px;
  font-weight: 600;
  color: #202323;
}
@media screen and (max-width: 1600px) {
  .outer-box-dedicated-team .technos-wrapper .technos .section-heading {
    font-size: 40px;
    line-height: 48px;
    font-weight: 600;
    color: #202323;
  }
}
@media screen and (max-width: 1400px) {
  .outer-box-dedicated-team .technos-wrapper .technos .section-heading {
    font-size: 32px;
    line-height: 40px;
    font-weight: 600;
    color: #202323;
    margin: 0;
  }
}
@media screen and (max-width: 1140px) {
  .outer-box-dedicated-team .technos-wrapper .technos .section-heading {
    font-size: 24px;
    line-height: 36px;
    font-weight: 600;
    color: #202323;
  }
}
.outer-box-dedicated-team .technos-wrapper .technos .section-content {
  width: 55%;
  margin: 20px auto;
  font-size: 16px;
  line-height: 24px;
  font-weight: 400;
  color: #707070;
}
@media screen and (max-width: 1354px) {
  .outer-box-dedicated-team .technos-wrapper .technos .section-content {
    font-size: 14px;
    line-height: 22px;
    font-weight: 400;
    color: #707070;
    width: 100%;
  }
}
@media screen and (max-width: 1070px) {
  .outer-box-dedicated-team .technos-wrapper .technos .section-content {
    font-size: 12px;
    line-height: 18px;
    font-weight: 400;
    color: #707070;
    margin-top: 10px;
  }
}
.outer-box-dedicated-team .technos-wrapper .technos .boxes-wrapper {
  margin: auto;
  display: flex;
  flex-direction: row;
  flex-wrap: wrap;
  gap: 20px;
  width: 92%;
}
@media screen and (max-width: 1804px) {
  .outer-box-dedicated-team .technos-wrapper .technos .boxes-wrapper {
    width: 80%;
  }
}
@media screen and (max-width: 1550px) {
  .outer-box-dedicated-team .technos-wrapper .technos .boxes-wrapper {
    display: flex;
    flex-direction: row;
    align-items: center;
    flex-wrap: wrap;
    gap: 20px;
    width: 95%;
  }
}
@media screen and (max-width: 1300px) {
  .outer-box-dedicated-team .technos-wrapper .technos .boxes-wrapper {
    display: flex;
    flex-direction: row;
    justify-content: center;
    align-items: center;
    flex-wrap: wrap;
    gap: 20px;
  }
}
@media screen and (max-width: 580px) {
  .outer-box-dedicated-team .technos-wrapper .technos .boxes-wrapper {
    width: 100%;
  }
}
.outer-box-dedicated-team .technos-wrapper .technos .boxes-wrapper .box {
  width: 400px;
  height: auto;
  border: 1px solid #e8e8e8;
  box-shadow: 0px 20px 80px 0px rgba(0, 0, 0, 0.0509803922);
  background-color: #ffffff;
  border-radius: 16px;
  margin-top: 67px;
}
@media screen and (max-width: 900px) {
  .outer-box-dedicated-team .technos-wrapper .technos .boxes-wrapper .box {
    width: 600px;
    height: auto;
  }
}
@media screen and (max-width: 580px) {
  .outer-box-dedicated-team .technos-wrapper .technos .boxes-wrapper .box {
    margin-top: 30px;
  }
}
.outer-box-dedicated-team .technos-wrapper .technos .boxes-wrapper .box .logo {
  display: flex;
  flex-direction: row;
  justify-content: center;
  align-items: center;
  border-radius: 16px;
  width: 60px;
  height: 60px;
  position: absolute;
  top: -30px;
  left: 25px;
  background-color: #eb7500;
  box-shadow: 0px 10px 60px 0px rgba(235, 117, 0, 0.4);
}
@media screen and (max-width: 1094px) {
  .outer-box-dedicated-team .technos-wrapper .technos .boxes-wrapper .box .logo {
    width: 50px;
    height: 50px;
    border-radius: 12px;
  }
}
@media screen and (max-width: 580px) {
  .outer-box-dedicated-team .technos-wrapper .technos .boxes-wrapper .box .logo {
    width: 40px;
    height: 40px;
    border-radius: 8px;
  }
}
.outer-box-dedicated-team .technos-wrapper .technos .boxes-wrapper .box .box-heading {
  font-size: 24px;
  line-height: 36px;
  font-weight: 600;
  color: #202323;
  margin-top: 20px;
  margin-bottom: 10px;
}
@media screen and (max-width: 1400px) {
  .outer-box-dedicated-team .technos-wrapper .technos .boxes-wrapper .box .box-heading {
    font-size: 18px;
    line-height: 26px;
    font-weight: 600;
    color: #202323;
  }
}
.outer-box-dedicated-team .technos-wrapper .technos .boxes-wrapper .box .box-content {
  font-size: 14px;
  line-height: 22px;
  font-weight: 400;
  color: #707070;
}
@media screen and (max-width: 480px) {
  .outer-box-dedicated-team .technos-wrapper .technos .boxes-wrapper .box .box-content {
    font-size: 12px;
    line-height: 18px;
    font-weight: 400;
    color: #707070;
  }
}
.outer-box-dedicated-team .transform-future-wrapper {
  padding: 120px 0;
}
@media screen and (max-width: 1700px) {
  .outer-box-dedicated-team .transform-future-wrapper {
    padding: 60px;
  }
}
@media screen and (max-width: 1340px) {
  .outer-box-dedicated-team .transform-future-wrapper {
    padding: 40px;
  }
}
@media screen and (max-width: 580px) {
  .outer-box-dedicated-team .transform-future-wrapper {
    padding: 20px;
  }
}
.outer-box-dedicated-team .transform-future-wrapper .transform-future {
  width: 85%;
  display: flex;
  flex-direction: row;
  justify-content: space-between;
  gap: 86px;
}
@media screen and (max-width: 1520px) {
  .outer-box-dedicated-team .transform-future-wrapper .transform-future {
    width: 100%;
  }
}
@media screen and (max-width: 980px) {
  .outer-box-dedicated-team .transform-future-wrapper .transform-future {
    flex-direction: column;
  }
}
@media screen and (max-width: 580px) {
  .outer-box-dedicated-team .transform-future-wrapper .transform-future {
    gap: 40px;
  }
}
.outer-box-dedicated-team .transform-future-wrapper .transform-future .left-part {
  width: 48%;
  display: flex;
  flex-direction: column;
  justify-content: center;
}
@media screen and (max-width: 980px) {
  .outer-box-dedicated-team .transform-future-wrapper .transform-future .left-part {
    width: 100%;
  }
}
.outer-box-dedicated-team .transform-future-wrapper .transform-future .left-part .section-title-text {
  text-transform: uppercase;
  font-size: 24px;
  line-height: 36px;
  font-weight: 600;
  color: #ffffff;
}
@media screen and (max-width: 1400px) {
  .outer-box-dedicated-team .transform-future-wrapper .transform-future .left-part .section-title-text {
    font-size: 18px;
    line-height: 28px;
    font-weight: 600;
    color: #ffffff;
  }
}
@media screen and (max-width: 1140px) {
  .outer-box-dedicated-team .transform-future-wrapper .transform-future .left-part .section-title-text {
    font-size: 14px;
    line-height: 22px;
    font-weight: 600;
    color: #ffffff;
  }
}
@media screen and (max-width: 980px) {
  .outer-box-dedicated-team .transform-future-wrapper .transform-future .left-part .section-title-text {
    margin-bottom: 5px;
  }
}
.outer-box-dedicated-team .transform-future-wrapper .transform-future .left-part .section-title {
  text-transform: uppercase;
}
@media screen and (max-width: 1400px) {
  .outer-box-dedicated-team .transform-future-wrapper .transform-future .left-part .section-title {
    font-size: 18px;
    line-height: 28px;
    font-weight: 600;
    color: #136dfb;
  }
}
@media screen and (max-width: 1140px) {
  .outer-box-dedicated-team .transform-future-wrapper .transform-future .left-part .section-title {
    font-size: 14px;
    line-height: 18px;
    font-weight: 600;
    color: #136dfb;
  }
}
@media screen and (max-width: 980px) {
  .outer-box-dedicated-team .transform-future-wrapper .transform-future .left-part .section-title {
    margin-bottom: 10px;
  }
}
.outer-box-dedicated-team .transform-future-wrapper .transform-future .left-part .section-heading-white {
  font-size: 48px;
  line-height: 60px;
  font-weight: 600;
  color: #ffffff;
}
@media screen and (max-width: 1600px) {
  .outer-box-dedicated-team .transform-future-wrapper .transform-future .left-part .section-heading-white {
    font-size: 40px;
    line-height: 48px;
    font-weight: 600;
    color: #ffffff;
  }
}
@media screen and (max-width: 1400px) {
  .outer-box-dedicated-team .transform-future-wrapper .transform-future .left-part .section-heading-white {
    font-size: 32px;
    line-height: 40px;
    font-weight: 600;
    color: #ffffff;
  }
}
@media screen and (max-width: 1140px) {
  .outer-box-dedicated-team .transform-future-wrapper .transform-future .left-part .section-heading-white {
    font-size: 24px;
    line-height: 28px;
    font-weight: 600;
    color: #ffffff;
  }
}
@media screen and (max-width: 980px) {
  .outer-box-dedicated-team .transform-future-wrapper .transform-future .left-part .section-heading-white {
    margin-bottom: 10px;
  }
}
.outer-box-dedicated-team .transform-future-wrapper .transform-future .left-part .section-content-white {
  width: 92%;
  font-size: 16px;
  line-height: 24px;
  font-weight: 400;
  color: #ffffff;
}
@media screen and (max-width: 1354px) {
  .outer-box-dedicated-team .transform-future-wrapper .transform-future .left-part .section-content-white {
    font-size: 14px;
    line-height: 22px;
    font-weight: 400;
    color: #ffffff;
    width: 80%;
  }
}
@media screen and (max-width: 1070px) {
  .outer-box-dedicated-team .transform-future-wrapper .transform-future .left-part .section-content-white {
    font-size: 12px;
    line-height: 18px;
    font-weight: 400;
    color: #ffffff;
    width: 90%;
  }
}
.outer-box-dedicated-team .transform-future-wrapper .transform-future .left-part .section-heading {
  font-size: 48px;
  line-height: 60px;
  font-weight: 600;
  color: #202323;
}
@media screen and (max-width: 1600px) {
  .outer-box-dedicated-team .transform-future-wrapper .transform-future .left-part .section-heading {
    font-size: 40px;
    line-height: 48px;
    font-weight: 600;
    color: #202323;
  }
}
@media screen and (max-width: 1400px) {
  .outer-box-dedicated-team .transform-future-wrapper .transform-future .left-part .section-heading {
    font-size: 32px;
    line-height: 40px;
    font-weight: 600;
    color: #202323;
  }
}
@media screen and (max-width: 1140px) {
  .outer-box-dedicated-team .transform-future-wrapper .transform-future .left-part .section-heading {
    font-size: 24px;
    line-height: 28px;
    font-weight: 600;
    color: #202323;
  }
}
@media screen and (max-width: 980px) {
  .outer-box-dedicated-team .transform-future-wrapper .transform-future .left-part .section-heading {
    margin-bottom: 20px;
  }
}
.outer-box-dedicated-team .transform-future-wrapper .transform-future .left-part .section-content {
  width: 92%;
  font-size: 16px;
  line-height: 24px;
  font-weight: 400;
  color: #707070;
}
@media screen and (max-width: 1354px) {
  .outer-box-dedicated-team .transform-future-wrapper .transform-future .left-part .section-content {
    font-size: 14px;
    line-height: 22px;
    font-weight: 400;
    color: #707070;
    width: 80%;
  }
}
@media screen and (max-width: 1070px) {
  .outer-box-dedicated-team .transform-future-wrapper .transform-future .left-part .section-content {
    font-size: 12px;
    line-height: 18px;
    font-weight: 400;
    color: #707070;
    width: 90%;
  }
}
@media screen and (max-width: 980px) {
  .outer-box-dedicated-team .transform-future-wrapper .transform-future .left-part .section-content {
    margin-bottom: 30px;
  }
}
.outer-box-dedicated-team .transform-future-wrapper .transform-future .left-part .white-button {
  background-color: #ffffff;
  color: #136dfb;
}
.outer-box-dedicated-team .transform-future-wrapper .transform-future .right-part {
  width: 50%;
  background-color: #ffffff;
  border-radius: 15px;
  position: relative;
}
@media screen and (max-width: 1440px) {
  .outer-box-dedicated-team .transform-future-wrapper .transform-future .right-part {
    padding: 15px;
  }
}
@media screen and (max-width: 980px) {
  .outer-box-dedicated-team .transform-future-wrapper .transform-future .right-part {
    width: 100%;
    padding: 10px;
  }
}
@media screen and (max-width: 580px) {
  .outer-box-dedicated-team .transform-future-wrapper .transform-future .right-part {
    padding: 5px;
  }
}
.outer-box-dedicated-team .transform-future-wrapper .z-img1 {
  position: absolute;
  top: 0;
  right: 0;
}
.outer-box-dedicated-team .transform-future-wrapper .z-img2 {
  position: absolute;
  left: 0;
  bottom: 0;
}
.outer-box-dedicated-team .transform-future-wrapper .circle1 {
  width: 500px;
  height: 500px;
  background-color: white;
  filter: blur(295px);
  position: absolute;
  top: 0;
  right: 0;
}
.outer-box-dedicated-team .transform-future-wrapper .circle2 {
  width: 500px;
  height: 500px;
  background-color: white;
  filter: blur(295px);
  position: absolute;
  bottom: 0;
  right: 600px;
}
.outer-box-dedicated-team .transform-future-wrapper .circle3 {
  width: 200px;
  height: 200px;
  background-color: white;
  filter: blur(115px);
  position: absolute;
  top: 0;
  left: 0;
}
.outer-box-dedicated-team .digital-transform-wrapper {
  position: relative;
  padding: 120px;
}
@media screen and (max-width: 1500px) {
  .outer-box-dedicated-team .digital-transform-wrapper {
    padding: 20px;
  }
}
.outer-box-dedicated-team .digital-transform-wrapper .overley {
  content: "";
  margin: auto;
  position: absolute;
  left: 25%;
  top: 0px;
  z-index: -1;
  height: 100%;
  width: 800px;
  background: linear-gradient(109.92deg, rgba(0, 149, 255, 0.2), rgba(187, 100, 255, 0.2), rgba(242, 65, 107, 0.2), rgba(235, 117, 0, 0.2));
  filter: blur(80px);
}
.outer-box-dedicated-team .digital-transform-wrapper .digital-transformation {
  height: 520px;
  overflow: hidden;
  border-radius: 30px;
  display: flex;
  flex-direction: row;
  justify-content: space-between;
}
@media screen and (max-width: 980px) {
  .outer-box-dedicated-team .digital-transform-wrapper .digital-transformation {
    flex-direction: column;
    height: auto;
  }
}
.outer-box-dedicated-team .digital-transform-wrapper .digital-transformation .left-part {
  padding: 124px 204px 124px 84px;
  background-color: #ffffff;
  box-shadow: 0px 20px 80px 0px rgba(0, 0, 0, 0.5);
  display: flex;
  flex-direction: column;
  justify-content: center;
  border-top-left-radius: 30px;
  border-bottom-left-radius: 30px;
}
@media screen and (max-width: 1440px) {
  .outer-box-dedicated-team .digital-transform-wrapper .digital-transformation .left-part {
    padding: 50px;
  }
}
@media screen and (max-width: 980px) {
  .outer-box-dedicated-team .digital-transform-wrapper .digital-transformation .left-part {
    width: 90%;
    order: 2;
  }
}
@media screen and (max-width: 480px) {
  .outer-box-dedicated-team .digital-transform-wrapper .digital-transformation .left-part {
    width: 91%;
    padding: 20px;
    border-radius: 0;
  }
}
.outer-box-dedicated-team .digital-transform-wrapper .digital-transformation .left-part .section-title {
  text-transform: uppercase;
}
@media screen and (max-width: 1400px) {
  .outer-box-dedicated-team .digital-transform-wrapper .digital-transformation .left-part .section-title {
    font-size: 18px;
    line-height: 28px;
    font-weight: 600;
    color: #136dfb;
  }
}
@media screen and (max-width: 1140px) {
  .outer-box-dedicated-team .digital-transform-wrapper .digital-transformation .left-part .section-title {
    font-size: 14px;
    line-height: 22px;
    font-weight: 600;
    color: #136dfb;
  }
}
@media screen and (max-width: 980px) {
  .outer-box-dedicated-team .digital-transform-wrapper .digital-transformation .left-part .section-title {
    margin-bottom: 5px;
  }
}
.outer-box-dedicated-team .digital-transform-wrapper .digital-transformation .left-part .section-heading {
  font-size: 48px;
  line-height: 60px;
  font-weight: 600;
  color: #202323;
}
@media screen and (max-width: 1600px) {
  .outer-box-dedicated-team .digital-transform-wrapper .digital-transformation .left-part .section-heading {
    font-size: 40px;
    line-height: 48px;
    font-weight: 600;
    color: #202323;
  }
}
@media screen and (max-width: 1400px) {
  .outer-box-dedicated-team .digital-transform-wrapper .digital-transformation .left-part .section-heading {
    font-size: 32px;
    line-height: 40px;
    font-weight: 600;
    color: #202323;
  }
}
@media screen and (max-width: 1140px) {
  .outer-box-dedicated-team .digital-transform-wrapper .digital-transformation .left-part .section-heading {
    font-size: 22px;
    line-height: 28px;
    font-weight: 600;
    color: #202323;
  }
}
@media screen and (max-width: 980px) {
  .outer-box-dedicated-team .digital-transform-wrapper .digital-transformation .left-part .section-heading {
    margin-bottom: 10px;
  }
}
.outer-box-dedicated-team .digital-transform-wrapper .digital-transformation .left-part .section-content {
  width: 100%;
  font-size: 16px;
  line-height: 24px;
  font-weight: 400;
  color: #707070;
}
@media screen and (max-width: 1354px) {
  .outer-box-dedicated-team .digital-transform-wrapper .digital-transformation .left-part .section-content {
    font-size: 14px;
    line-height: 22px;
    font-weight: 400;
    color: #707070;
    width: 80%;
  }
}
@media screen and (max-width: 1070px) {
  .outer-box-dedicated-team .digital-transform-wrapper .digital-transformation .left-part .section-content {
    font-size: 12px;
    line-height: 18px;
    font-weight: 400;
    color: #707070;
    width: 90%;
  }
}
@media screen and (max-width: 980px) {
  .outer-box-dedicated-team .digital-transform-wrapper .digital-transformation .left-part .section-content {
    margin-bottom: 0px;
  }
}
.outer-box-dedicated-team .digital-transform-wrapper .digital-transformation .right-part {
  background-color: #ffffff;
}
@media screen and (max-width: 1440px) {
  .outer-box-dedicated-team .digital-transform-wrapper .digital-transformation .right-part {
    width: 50%;
  }
}
@media screen and (max-width: 980px) {
  .outer-box-dedicated-team .digital-transform-wrapper .digital-transformation .right-part {
    width: 100%;
    border-top-right-radius: 30px;
    border-top-left-radius: 30px;
    border-bottom-right-radius: 0;
    border-bottom-left-radius: 0;
    order: 1;
  }
  .outer-box-dedicated-team .digital-transform-wrapper .digital-transformation .right-part img {
    width: 100%;
  }
}
.outer-box-dedicated-team .digital-transform-wrapper .digital-transformation .z-img1 {
  position: absolute;
  z-index: 10;
  left: 0;
}
@media screen and (max-width: 980px) {
  .outer-box-dedicated-team .digital-transform-wrapper .digital-transformation .z-img1 {
    display: none;
  }
}
.outer-box-dedicated-team .digital-transform-wrapper .digital-transformation .circle4 {
  position: absolute;
  top: 0;
  left: 0;
  width: 400px;
  height: 400px;
  background-color: #c0bedd;
  filter: blur(125px);
}
@media screen and (max-width: 980px) {
  .outer-box-dedicated-team .digital-transform-wrapper .digital-transformation .circle4 {
    display: none;
  }
}

/*********************[][][][][][]********************* SERVICES PAGE *******************[][][][][][]********************/
.header-dropdown-wrapper {
  box-shadow: 0px 10px 30px 0px rgba(0, 0, 0, 0.1019607843);
  position: fixed;
  display: flex;
  width: 100%;
  background-color: #FFFFFF;
  z-index: 10;
  top: 81px;
  transition: all 0.9s ease;
  transform: translateX(-100%);
  pointer-events: none;
  opacity: 0;
}
.header-dropdown-wrapper.active {
  pointer-events: auto;
  opacity: 1;
  transform: translateX(0);
}
.header-dropdown-wrapper .left-part {
  width: 35%;
  padding: 0 60px 0 135px;
  box-sizing: border-box;
  background-color: #FAFAFA;
  display: flex;
  align-items: center;
  position: relative;
  overflow: hidden;
}
.header-dropdown-wrapper .left-part .upper-circle {
  width: 795px;
  height: 795px;
  border-radius: 50%;
  display: flex;
  flex-direction: row;
  justify-content: center;
  align-items: center;
  border: 1px solid #EFEFEF;
  position: absolute;
  top: -550px;
  left: -550px;
}
.header-dropdown-wrapper .left-part .upper-circle .upper-inner-circle {
  background-color: #EFEFEF;
  width: 627px;
  height: 627px;
  border-radius: 50%;
}
.header-dropdown-wrapper .left-part .lower-circle {
  width: 751px;
  height: 751px;
  border-radius: 50%;
  display: flex;
  flex-direction: row;
  justify-content: center;
  align-items: center;
  border: 1px solid #EFEFEF;
  position: absolute;
  bottom: -456px;
  right: -416px;
}
.header-dropdown-wrapper .left-part .lower-circle .lower-inner-circle {
  background-color: #EFEFEF;
  width: 593px;
  height: 593px;
  border-radius: 50%;
}
.header-dropdown-wrapper .left-part .content-wrapper .dropdown-heading {
  font-size: 48px;
  line-height: 58px;
  font-weight: 500;
  color: #136DFB;
}
.header-dropdown-wrapper .left-part .content-wrapper .dropdown-heading .letter-o {
  position: relative;
  display: inline-block;
}
.header-dropdown-wrapper .left-part .content-wrapper .dropdown-heading .letter-o .inner-gradient {
  position: absolute;
  top: 24%;
  left: 24%;
  width: 52%;
  height: 52%;
  background: linear-gradient(135deg, #ff88ee 0%, #77bbff 100%);
  border-radius: 50%;
  z-index: 0;
}
.header-dropdown-wrapper .left-part .content-wrapper .content {
  color: #707070;
  font-weight: 500;
  font-size: 18px;
  line-height: 22px;
}
.header-dropdown-wrapper .right-part {
  width: 65%;
  list-style: none;
  padding: 60px;
  box-sizing: border-box;
}
.header-dropdown-wrapper .right-part ul {
  display: grid;
  grid-template-columns: 1fr 1fr;
  gap: 30px;
}
.header-dropdown-wrapper .right-part ul .label-wrapper {
  display: flex;
  flex-direction: row;
  align-items: center;
  gap: 16px;
}
.header-dropdown-wrapper .right-part ul .label-wrapper .arrow {
  transition: all 0.3s ease;
}
.header-dropdown-wrapper .right-part ul .label-wrapper .arrow path {
  transition: all 0.3s ease;
}
.header-dropdown-wrapper .right-part ul .label-wrapper:hover .arrow {
  width: 78px;
}
.header-dropdown-wrapper .right-part ul .label-wrapper:hover .arrow .horizontal-part {
  transform: scaleX(2.5);
  transform-origin: left;
  width: 75px;
}
.header-dropdown-wrapper .right-part ul .label-wrapper:hover .arrow .move-on-hover {
  transform: translateX(45px);
}
.header-dropdown-wrapper .right-part ul .label-wrapper:hover .arrow path {
  stroke: #B0B0B0;
}
.header-dropdown-wrapper .right-part ul .label-wrapper:hover .label-name {
  color: #000000;
}
.header-dropdown-wrapper .right-part ul .label-wrapper:hover .logo {
  box-shadow: 0px 15px 25px 0px rgba(0, 0, 0, 0.2);
  position: relative;
}
.header-dropdown-wrapper .right-part ul .label-wrapper:hover .logo.logo-1::before, .header-dropdown-wrapper .right-part ul .label-wrapper:hover .logo.logo-2::before, .header-dropdown-wrapper .right-part ul .label-wrapper:hover .logo.logo-3::before, .header-dropdown-wrapper .right-part ul .label-wrapper:hover .logo.logo-4::before, .header-dropdown-wrapper .right-part ul .label-wrapper:hover .logo.logo-5::before, .header-dropdown-wrapper .right-part ul .label-wrapper:hover .logo.logo-6::before, .header-dropdown-wrapper .right-part ul .label-wrapper:hover .logo.logo-7::before, .header-dropdown-wrapper .right-part ul .label-wrapper:hover .logo.logo-8::before, .header-dropdown-wrapper .right-part ul .label-wrapper:hover .logo.logo-9::before, .header-dropdown-wrapper .right-part ul .label-wrapper:hover .logo.logo-10::before, .header-dropdown-wrapper .right-part ul .label-wrapper:hover .logo.logo-11::before {
  visibility: visible;
  left: -90%;
}
.header-dropdown-wrapper .right-part ul .label-wrapper:hover .logo svg path {
  stroke: #136DFB;
}
.header-dropdown-wrapper .right-part ul .label-wrapper:hover .logo svg g rect {
  fill: #136DFB;
}
.header-dropdown-wrapper .right-part ul .label-wrapper .logo {
  display: flex;
  justify-content: center;
  align-items: center;
  border-radius: 8px;
  width: 34px;
  height: 34px;
  background-color: #f4f4f4;
  transition: all 0.3s ease;
  position: relative;
}
.header-dropdown-wrapper .right-part ul .label-wrapper .logo.logo-1::before {
  content: "01";
  position: absolute;
  top: 50%;
  left: 50%;
  transform: translate(-50%, -50%);
  transition: all 0.3s ease;
  visibility: hidden;
  font-weight: 900;
  font-size: 30px;
  color: #e8e8e8;
  z-index: -1;
}
.header-dropdown-wrapper .right-part ul .label-wrapper .logo.logo-2::before {
  content: "02";
  position: absolute;
  top: 50%;
  left: 50%;
  transform: translate(-50%, -50%);
  transition: all 0.3s ease;
  visibility: hidden;
  font-weight: 900;
  font-size: 30px;
  color: #e8e8e8;
  z-index: -1;
}
.header-dropdown-wrapper .right-part ul .label-wrapper .logo.logo-3::before {
  content: "03";
  position: absolute;
  top: 50%;
  left: 50%;
  transform: translate(-50%, -50%);
  transition: all 0.3s ease;
  visibility: hidden;
  font-weight: 900;
  font-size: 30px;
  color: #e8e8e8;
  z-index: -1;
}
.header-dropdown-wrapper .right-part ul .label-wrapper .logo.logo-4::before {
  content: "04";
  position: absolute;
  top: 50%;
  left: 50%;
  transform: translate(-50%, -50%);
  transition: all 0.3s ease;
  visibility: hidden;
  font-weight: 900;
  font-size: 30px;
  color: #e8e8e8;
  z-index: -1;
}
.header-dropdown-wrapper .right-part ul .label-wrapper .logo.logo-5::before {
  content: "05";
  position: absolute;
  top: 50%;
  left: 50%;
  transform: translate(-50%, -50%);
  transition: all 0.3s ease;
  visibility: hidden;
  font-weight: 900;
  font-size: 30px;
  color: #e8e8e8;
  z-index: -1;
}
.header-dropdown-wrapper .right-part ul .label-wrapper .logo.logo-6::before {
  content: "06";
  position: absolute;
  top: 50%;
  left: 50%;
  transform: translate(-50%, -50%);
  transition: all 0.3s ease;
  visibility: hidden;
  font-weight: 900;
  font-size: 30px;
  color: #e8e8e8;
  z-index: -1;
}
.header-dropdown-wrapper .right-part ul .label-wrapper .logo.logo-7::before {
  content: "07";
  position: absolute;
  top: 50%;
  left: 50%;
  transition: all 0.3s ease;
  visibility: hidden;
  font-weight: 900;
  font-size: 30px;
  color: #e8e8e8;
  z-index: -1;
  transform: translate(-50%, -50%);
}
.header-dropdown-wrapper .right-part ul .label-wrapper .logo.logo-8::before {
  content: "08";
  position: absolute;
  top: 50%;
  left: 50%;
  transform: translate(-50%, -50%);
  transition: all 0.3s ease;
  visibility: hidden;
  font-weight: 900;
  font-size: 30px;
  color: #e8e8e8;
  z-index: -1;
}
.header-dropdown-wrapper .right-part ul .label-wrapper .logo.logo-9::before {
  content: "09";
  position: absolute;
  top: 50%;
  left: 50%;
  transform: translate(-50%, -50%);
  transition: all 0.3s ease;
  visibility: hidden;
  font-weight: 900;
  font-size: 30px;
  color: #e8e8e8;
  z-index: -1;
}
.header-dropdown-wrapper .right-part ul .label-wrapper .logo.logo-10::before {
  content: "10";
  position: absolute;
  top: 50%;
  left: 50%;
  transform: translate(-50%, -50%);
  transition: all 0.3s ease;
  visibility: hidden;
  font-weight: 900;
  font-size: 30px;
  color: #e8e8e8;
  z-index: -1;
}
.header-dropdown-wrapper .right-part ul .label-wrapper .logo.logo-11::before {
  content: "11";
  position: absolute;
  top: 50%;
  left: 50%;
  transform: translate(-50%, -50%);
  transition: all 0.3s ease;
  visibility: hidden;
  font-weight: 900;
  font-size: 30px;
  color: #e8e8e8;
  z-index: -1;
}
.header-dropdown-wrapper .right-part ul .label-wrapper .label-name {
  text-decoration: none;
  font-size: 18px;
  line-height: 22px;
  font-weight: 500;
  color: #707070;
  width: 330px;
  transition: all 0.3s ease;
}

/*********************[][][][][][]********************* APPLICATION MODERNIZATION *******************[][][][][][]********************/
.outer-box-appmod-page .ui-banner .user-box-left {
  position: absolute;
  top: 360px;
  left: 260px;
}
.outer-box-appmod-page .ui-banner .user-box-right {
  position: absolute;
  top: 270px;
  right: 425px;
}/*# sourceMappingURL=global.css.map */