/******************* colors *******************/
/******************** font-sizes *******************/
.fs-0 {
  font-size: 0px;
}

.fs-1 {
  font-size: 1px;
}

.fs-4 {
  font-size: 4px;
}

.fs-8 {
  font-size: 8px;
}

.fs-12 {
  font-size: 12px;
}

.fs-13 {
  font-size: 13px;
}

.fs-14 {
  font-size: 14px;
}

.fs-15 {
  font-size: 15px;
}

.fs-16 {
  font-size: 16px;
}

.fs-17 {
  font-size: 17px;
}

.fs-18 {
  font-size: 18px;
}

.fs-19 {
  font-size: 19px;
}

.fs-20 {
  font-size: 20px;
}

.fs-21 {
  font-size: 21px;
}

.fs-22 {
  font-size: 22px;
}

.fs-24 {
  font-size: 24px;
}

.fs-25 {
  font-size: 25px;
}

.fs-27 {
  font-size: 27px;
}

.fs-28 {
  font-size: 28px;
}

.fs-29 {
  font-size: 29px;
}

.fs-30 {
  font-size: 30px;
}

.fs-32 {
  font-size: 32px;
}

.fs-34 {
  font-size: 34px;
}

.fs-36 {
  font-size: 36px;
}

.fs-38 {
  font-size: 38px;
}

.fs-40 {
  font-size: 40px;
}

.fs-42 {
  font-size: 42px;
}

.fs-50 {
  font-size: 50px;
}

.fs-62 {
  font-size: 62px;
}

/************************** spacing-classes ******************************/
.my-auto {
  margin: 0 auto;
}

.margin-1 {
  margin: 1px;
}

.margin-60 {
  margin: 60px;
}

.margin-0 {
  margin: 0px;
}

.margin-4 {
  margin: 4px;
}

.margin-8 {
  margin: 8px;
}

.margin-12 {
  margin: 12px;
}

.margin-16 {
  margin: 16px;
}

.margin-20 {
  margin: 20px;
}

.margin-24 {
  margin: 24px;
}

.margin-28 {
  margin: 28px;
}

.margin-32 {
  margin: 32px;
}

.margin-40 {
  margin: 40px;
}

.padding-1 {
  padding: 1px;
}

.padding-60 {
  padding: 60px;
}

.padding-0 {
  padding: 0px;
}

.padding-4 {
  padding: 4px;
}

.padding-8 {
  padding: 8px;
}

.padding-12 {
  padding: 12px;
}

.padding-16 {
  padding: 16px;
}

.padding-20 {
  padding: 20px;
}

.padding-24 {
  padding: 24px;
}

.padding-28 {
  padding: 28px;
}

.padding-32 {
  padding: 32px;
}

.padding-36 {
  padding: 36px;
}

.padding-40 {
  padding: 40px;
}

.mr-1 {
  margin-right: 1px;
}

.mr-60 {
  margin-right: 60px;
}

.mr-0 {
  margin-right: 0px;
}

.mr-4 {
  margin-right: 4px;
}

.mr-8 {
  margin-right: 8px;
}

.mr-12 {
  margin-right: 12px;
}

.mr-16 {
  margin-right: 16px;
}

.mr-20 {
  margin-right: 20px;
}

.mr-24 {
  margin-right: 24px;
}

.mr-28 {
  margin-right: 28px;
}

.mr-32 {
  margin-right: 32px;
}

.mr-40 {
  margin-right: 40px;
}

.mb-1 {
  margin-bottom: 1px;
}

.mb-60 {
  margin-bottom: 60px;
}

.mb-0 {
  margin-bottom: 0px;
}

.mb-4 {
  margin-bottom: 4px;
}

.mb-8 {
  margin-bottom: 8px;
}

.mb-12 {
  margin-bottom: 12px;
}

.mb-16 {
  margin-bottom: 16px;
}

.mb-20 {
  margin-bottom: 20px;
}

.mb-24 {
  margin-bottom: 24px;
}

.mb-28 {
  margin-bottom: 28px;
}

.mb-32 {
  margin-bottom: 32px;
}

.mb-40 {
  margin-bottom: 40px;
}

.ml-1 {
  margin-bottom: 1px;
}

.ml-60 {
  margin-bottom: 60px;
}

.ml-0 {
  margin-left: 0px;
}

.ml-4 {
  margin-left: 4px;
}

.ml-8 {
  margin-left: 8px;
}

.ml-12 {
  margin-left: 12px;
}

.ml-16 {
  margin-left: 16px;
}

.ml-20 {
  margin-left: 20px;
}

.ml-24 {
  margin-left: 24px;
}

.ml-28 {
  margin-left: 28px;
}

.ml-32 {
  margin-left: 32px;
}

.ml-40 {
  margin-left: 40px;
}

.mt-1 {
  margin-top: 1px;
}

.mt-60 {
  margin-top: 60px;
}

.mt-68 {
  margin-top: 68px;
}

.mt-75 {
  margin-top: 75px;
}

.mt-90 {
  margin-top: 90px;
}

.mt-0 {
  margin-top: 0px;
}

.mt-4 {
  margin-top: 4px;
}

.mt-8 {
  margin-top: 8px;
}

.mt-12 {
  margin-top: 12px;
}

.mt-16 {
  margin-top: 16px;
}

.mt-20 {
  margin-top: 20px;
}

.mt-24 {
  margin-top: 24px;
}

.mt-28 {
  margin-top: 28px;
}

.mt-32 {
  margin-top: 32px;
}

.mt-40 {
  margin-top: 40px;
}

.mt-120 {
  margin-top: 120px;
}

.mb-120 {
  margin-bottom: 120px;
}

.m-auto {
  margin-right: auto;
  margin-left: auto;
}

/*********************** position-classes *********************/
.p-rel {
  position: relative;
}

.p-abs {
  position: absolute;
}

.p-st {
  position: static;
}

.p-fx {
  position: fixed;
}

.p-sty {
  position: sticky;
}

/*********************** z-index-classes ***********************/
.z-0 {
  z-index: 0;
}

.z-1 {
  z-index: 1;
}

.z-2 {
  z-index: 2;
}

.z-3 {
  z-index: 3;
}

.z-4 {
  z-index: 4;
}

.z-5 {
  z-index: 5;
}

.z-6 {
  z-index: 6;
}

.z-7 {
  z-index: 7;
}

.z-8 {
  z-index: 8;
}

.z-9 {
  z-index: 9;
}

/************************ transitions ***********************/
.t-1 {
  transition: all 0.1s ease;
}

.t-2 {
  transition: all 0.2s ease;
}

.t-3 {
  transition: all 0.3s ease;
}

.t-4 {
  transition: all 0.4s ease;
}

.t-5 {
  transition: all 0.5s ease;
}

.t-6 {
  transition: all 0.6s ease;
}

.t-7 {
  transition: all 0.7s ease;
}

.t-8 {
  transition: all 0.8s ease;
}

.t-9 {
  transition: all 0.9s ease;
}

/************************ overflows ****************************/
.o-a {
  overflow: auto;
}

.o-h {
  overflow: hidden;
}

.o-s {
  overflow: scroll;
}

.o-v {
  overflow: visible;
}

.ox-a {
  overflow-x: auto;
}

.ox-h {
  overflow-x: hidden;
}

.ox-s {
  overflow-x: scroll;
}

.ox-v {
  overflow-x: visible;
}

.oy-a {
  overflow-y: auto;
}

.oy-h {
  overflow-y: hidden;
}

.oy-s {
  overflow-y: scroll;
}

.oy-v {
  overflow-y: visible;
}

/************************** displays ***************************/
.d-n {
  display: none;
}

.d-i {
  display: inline;
}

.d-b {
  display: block;
}

.d-ib {
  display: inline-block;
}

/************************* border-radius *************************/
.br-100 {
  border-radius: 100%;
}

.br-50 {
  border-radius: 50%;
}

.tx-center {
  text-align: center;
}

.tx-end {
  text-align: end;
}

.tx-left {
  text-align: left;
}

.tx-start {
  text-align: start;
}

.full-vh {
  height: 100vh;
}

.h-auto {
  height: auto;
}

.bx-border-box {
  box-sizing: border-box;
}

.h-full {
  height: 100%;
}

.w-full {
  width: 100%;
}

.w-fc {
  width: -moz-fit-content;
  width: fit-content;
}

.cp {
  cursor: pointer;
}

.tx-dec-none {
  text-decoration: none;
}

/************************** breakpoints **************************/
@media screen and (min-width: 1721px) {
  .wds {
    width: 1650px;
  }
}
@media screen and (min-width: 1440px) and (max-width: 1720px) {
  .wds {
    width: 1350px;
  }
}
@media screen and (min-width: 1200px) and (max-width: 1440px) {
  .wds {
    width: 1050px;
  }
}
@media screen and (min-width: 992px) and (max-width: 1200px) {
  .wds {
    width: 940px;
  }
}
@media screen and (min-width: 700px) and (max-width: 992px) {
  .wds {
    width: 700px;
  }
}
@media screen and (max-width: 768px) {
  .wds {
    width: 100%;
    padding: 0 20px;
    box-sizing: border-box;
  }
}

/************************** triangles **************************/
@media screen and (max-width: 1720px) {
  .tgl-wds {
    width: 1730px;
    border-right-width: 865px;
    border-left-width: 865px;
  }
}
@media screen and (max-width: 1440px) {
  .tgl-wds {
    width: 1450px;
    border-right-width: 725px;
    border-left-width: 725px;
  }
}
@media screen and (max-width: 1200px) {
  .tgl-wds {
    width: 1210px;
    border-right-width: 605px;
    border-left-width: 605px;
  }
}

* {
  font-family: "Poppins", sans-serif;
  margin: 0;
  padding: 0;
}

@font-face {
  font-family: "Jost";
  src: url("../fonts/jost_font/Jost-Black-BF63dc52ccbba90.ttf") format("truetype");
  font-weight: 900;
  font-style: normal;
  font-display: swap;
}
@font-face {
  font-family: "Jost";
  src: url("../fonts/jost_font/Jost-Bold-BF63dc52d022010.ttf") format("truetype");
  font-style: normal;
  font-display: swap;
}
@font-face {
  font-family: "Jost";
  src: url("../fonts/jost_font/Jost-ExtraBold-BF63dc52d09ee91.ttf") format("truetype");
  font-style: normal;
  font-display: swap;
}
@font-face {
  font-family: "Jost";
  src: url("../fonts/jost_font/Jost-ExtraLight-BF63dc52cf9e5ef.ttf") format("truetype");
  font-style: normal;
  font-display: swap;
}
@font-face {
  font-family: "Jost";
  src: url("../fonts/jost_font/Jost-Light-BF63dc52d080910.ttf") format("truetype");
  font-style: normal;
  font-display: swap;
}
@font-face {
  font-family: "Jost";
  src: url("../fonts/jost_font/Jost-Medium-BF63dc52d2d8452.ttf") format("truetype");
  font-style: normal;
  font-display: swap;
}
@font-face {
  font-family: "Jost";
  src: url("../fonts/jost_font/Jost-Regular-BF63dc52d2b8031.ttf") format("truetype");
  font-style: normal;
  font-display: swap;
}
@font-face {
  font-family: "Jost";
  src: url("../fonts/jost_font/Jost-SemiBold-BF63dc52d0c0560.ttf") format("truetype");
  font-style: normal;
  font-display: swap;
}
@font-face {
  font-family: "Jost";
  src: url("../fonts/jost_font/Jost-Thin-BF63dc52d04ca41.ttf") format("truetype");
  font-style: normal;
  font-display: swap;
}
html,
body {
  padding: 0;
  margin: 0;
}

/************************** banner-upper-part **************************/
.banner-blur-circle-1 {
  background-color: #136dfb;
  filter: blur(195px);
  width: 325px;
  height: 325px;
  position: absolute;
  top: 225px;
  left: 50%;
  transform: translateX(-50%);
}
@media screen and (max-width: 768px) {
  .banner-blur-circle-1 {
    width: 200px;
    height: 200px;
  }
}

.banner-image {
  position: absolute;
  top: 135px;
  left: 50%;
  transform: translateX(-50%);
}
@media screen and (max-width: 576px) {
  .banner-image {
    position: absolute;
    top: 161px;
    left: 50%;
    width: 298px;
  }
}

.user-box-1 {
  border-radius: 8px;
  border: 1px solid rgba(19, 109, 251, 0.0509803922);
  -webkit-backdrop-filter: blur(150px);
          backdrop-filter: blur(150px);
  box-shadow: 0px 30px 60px 0px rgba(0, 0, 0, 0.2);
  background: linear-gradient(178.83deg, rgba(255, 255, 255, 0.6) 2.73%, rgba(249, 249, 249, 0.6) 97.04%);
  display: flex;
  flex-direction: row;
  justify-content: center;
  align-items: center;
  gap: 10px;
}
@media screen and (max-width: 576px) {
  .user-box-1 {
    padding: 4px;
  }
}
.user-box-1 span {
  font-size: 16px;
  line-height: 24px;
  font-weight: 600;
  color: #202323;
}
@media screen and (max-width: 768px) {
  .user-box-1 span {
    font-size: 14px;
    line-height: 24px;
    font-weight: 600;
    color: #202323;
  }
}
@media screen and (max-width: 576px) {
  .user-box-1 span {
    font-size: 12px;
    line-height: 24px;
    font-weight: 600;
    color: #202323;
  }
}
@media screen and (max-width: 576px) {
  .user-box-1 {
    padding: 5px;
    gap: 5px;
  }
}

.user-box-2 {
  border-radius: 8px;
  border: 1px solid rgba(19, 109, 251, 0.0509803922);
  -webkit-backdrop-filter: blur(150px);
          backdrop-filter: blur(150px);
  box-shadow: 0px 30px 60px 0px rgba(0, 0, 0, 0.2);
  background: linear-gradient(178.83deg, rgba(255, 255, 255, 0.6) 2.73%, rgba(249, 249, 249, 0.6) 97.04%);
  display: flex;
  flex-direction: row-reverse;
  justify-content: center;
  align-items: center;
  gap: 10px;
}
@media screen and (max-width: 576px) {
  .user-box-2 {
    padding: 4px;
  }
}
.user-box-2 span {
  font-size: 16px;
  line-height: 24px;
  font-weight: 600;
  color: #202323;
}
@media screen and (max-width: 768px) {
  .user-box-2 span {
    font-size: 14px;
    line-height: 24px;
    font-weight: 600;
    color: #202323;
  }
}
@media screen and (max-width: 576px) {
  .user-box-2 span {
    font-size: 12px;
    line-height: 24px;
    font-weight: 600;
    color: #202323;
  }
}

.user-box-left {
  position: absolute;
  top: 325px;
  left: 500px;
}
@media screen and (max-width: 1720px) {
  .user-box-left {
    position: absolute;
    top: 310px;
    left: 370px;
  }
}
@media screen and (max-width: 1440px) {
  .user-box-left {
    position: absolute;
    top: 330px;
    left: 240px;
  }
}
@media screen and (max-width: 1200px) {
  .user-box-left {
    position: absolute;
    top: 330px;
    left: 168px;
  }
}
@media screen and (max-width: 992px) {
  .user-box-left {
    position: absolute;
    top: 173px;
    left: 24px;
  }
}
@media screen and (max-width: 576px) {
  .user-box-left {
    position: absolute;
    top: 166px;
    left: 15px;
  }
}

.user-box-right {
  position: absolute;
  top: 120px;
  right: 570px;
}
@media screen and (max-width: 1720px) {
  .user-box-right {
    position: absolute;
    top: 155px;
    right: 410px;
  }
}
@media screen and (max-width: 1440px) {
  .user-box-right {
    position: absolute;
    top: 155px;
    right: 290px;
  }
}
@media screen and (max-width: 1200px) {
  .user-box-right {
    position: absolute;
    top: 155px;
    right: 180px;
  }
}
@media screen and (max-width: 992px) {
  .user-box-right {
    position: absolute;
    top: 183px;
    right: 8px;
  }
}
@media screen and (max-width: 576px) {
  .user-box-right {
    position: absolute;
    top: 95px;
    right: 15px;
  }
}

.banner-icon {
  width: 47px;
  height: 47px;
  display: flex;
  justify-content: center;
  align-items: center;
  background-color: #136dfb;
  border-radius: 8px;
}
@media screen and (max-width: 768px) {
  .banner-icon {
    width: 28px;
    height: 28px;
    border-radius: 4px;
  }
}
@media screen and (max-width: 768px) {
  .banner-icon img {
    width: 18px;
  }
}

.line-design {
  display: flex;
  flex-direction: column;
  justify-content: center;
  align-items: center;
  gap: 15px;
}
@media screen and (max-width: 992px) {
  .line-design {
    gap: 5px;
  }
}
.line-design span {
  font-size: 16px;
  line-height: 24px;
  font-weight: 600;
  color: #d9d9d9;
}
@media screen and (max-width: 1200px) {
  .line-design span {
    font-size: 12px;
    line-height: 18px;
    font-weight: 600;
    color: #d9d9d9;
  }
}
@media screen and (max-width: 576px) {
  .line-design span {
    font-size: 10px;
    line-height: 11px;
    font-weight: 600;
    color: #d9d9d9;
  }
}

.box-logo-n-text {
  display: flex;
  flex-direction: column;
  justify-content: center;
  align-items: center;
  gap: 10px;
}
@media screen and (max-width: 992px) {
  .box-logo-n-text {
    display: flex;
    justify-content: center;
    align-items: center;
    gap: 10px;
  }
}
@media screen and (max-width: 576px) {
  .box-logo-n-text {
    display: flex;
    justify-content: center;
    align-items: center;
    gap: 5px;
  }
}

.line-logo-box {
  border: 1px solid #e5e6e8;
  display: flex;
  justify-content: center;
  align-items: center;
  width: 61px;
  height: 61px;
  border-radius: 12px;
  -webkit-backdrop-filter: blur(10px);
          backdrop-filter: blur(10px);
  background: linear-gradient(178.83deg, rgba(255, 255, 255, 0.6) 2.73%, rgba(249, 249, 249, 0.6) 97.04%);
}
@media screen and (max-width: 992px) {
  .line-logo-box {
    width: 51px;
    height: 51px;
  }
}
@media screen and (max-width: 768px) {
  .line-logo-box {
    width: 41px;
    height: 41px;
  }
}
@media screen and (max-width: 576px) {
  .line-logo-box {
    width: 28px;
    height: 28px;
    border-radius: 4px;
  }
}
@media screen and (max-width: 576px) {
  .line-logo-box img {
    width: 18px;
  }
}

.right-line-box {
  position: absolute;
  top: 80px;
  right: -70px;
}
@media screen and (max-width: 1440px) {
  .right-line-box {
    position: absolute;
    top: 80px;
    right: -150px;
  }
}
@media screen and (max-width: 992px) {
  .right-line-box {
    position: absolute;
    top: -17px;
    right: -168px;
  }
}
@media screen and (max-width: 576px) {
  .right-line-box {
    position: absolute;
    top: -4px;
    right: -195px;
  }
}
.right-line-box .right-inner-line {
  position: absolute;
  top: 85px;
  right: 43px;
}
@media screen and (max-width: 1440px) {
  .right-line-box .right-inner-line {
    position: absolute;
    top: 85px;
    right: -80px;
  }
}
@media screen and (max-width: 992px) {
  .right-line-box .right-inner-line {
    position: absolute;
    top: 85px;
    right: -100%;
  }
}

.left-line-box {
  position: absolute;
  top: 165px;
  left: -75px;
}
@media screen and (max-width: 1440px) {
  .left-line-box {
    position: absolute;
    top: 165px;
    left: -150px;
  }
}
@media screen and (max-width: 992px) {
  .left-line-box {
    position: absolute;
    top: -20px;
    left: -117px;
  }
}
@media screen and (max-width: 576px) {
  .left-line-box {
    position: absolute;
    top: -90px;
    left: -115px;
  }
}

/************************** buttons **************************/
.primary-button {
  display: flex;
  align-items: center;
  justify-content: center;
  cursor: pointer;
  height: 48px;
  padding: 0 20px;
  background-color: #136dfb;
  border: none;
  box-sizing: border-box;
  border-radius: 24px;
  font-size: 16px;
  line-height: 24px;
  font-weight: 500;
  color: #ffffff !important;
  transition: all 0.3s ease;
  width: -moz-fit-content;
  width: fit-content;
  box-shadow: 0px 15px 60px 0px rgba(10, 81, 201, 0.6);
}
.primary-button a.btn-text {
  font-size: 16px;
  line-height: 24px;
  font-weight: 500;
  color: #ffffff !important;
  text-decoration: none;
}
@media screen and (max-width: 1200px) {
  .primary-button {
    height: 42px;
    font-size: 14px;
    line-height: 16px;
    font-weight: 500;
    color: #ffffff !important;
  }
}
@media screen and (max-width: 576px) {
  .primary-button {
    height: 38px;
    font-size: 12px;
    line-height: 18px;
    font-weight: 500;
    color: #ffffff !important;
  }
}
.primary-button:hover {
  box-shadow: 0px 15px 60px 0px rgba(10, 81, 201, 0.6);
  background-color: #0041ae;
}

/************************ banner-lower-part *************************/
.banner-details {
  background: linear-gradient(178.83deg, rgba(255, 255, 255, 0.6) 2.73%, rgba(249, 249, 249, 0.6) 97.04%);
  width: 100%;
  height: calc(100vh - 480px);
  display: flex;
  flex-direction: column;
  justify-content: center;
  align-items: center;
  position: absolute;
  right: 0px;
  bottom: 0px;
  left: 0px;
  -webkit-backdrop-filter: blur(30px);
          backdrop-filter: blur(30px);
}

.inner-banner-heading {
  font-family: "Jost", sans-serif;
  font-size: 58px;
  line-height: 68px;
  font-weight: 700;
  color: #202323;
  text-transform: uppercase;
}
@media screen and (max-width: 1440px) {
  .inner-banner-heading {
    font-size: 48px;
    line-height: 60px;
    font-weight: 700;
    color: #202323;
  }
}
@media screen and (max-width: 1200px) {
  .inner-banner-heading {
    font-size: 40px;
    line-height: 52px;
    font-weight: 700;
    color: #202323;
  }
}
@media screen and (max-width: 768px) {
  .inner-banner-heading {
    font-size: 34px;
    line-height: 43px;
    font-weight: 700;
    color: #202323;
  }
}
@media screen and (max-width: 576px) {
  .inner-banner-heading {
    font-size: 24px;
    line-height: 30px;
    font-weight: 700;
    color: #202323;
  }
}

.inner-banner-content {
  font-size: 16px;
  line-height: 24px;
  font-weight: 500;
  color: #707070;
}
@media screen and (max-width: 992px) {
  .inner-banner-content {
    font-size: 14px;
    line-height: 18px;
    font-weight: 500;
    color: #707070;
  }
}
@media screen and (max-width: 576px) {
  .inner-banner-content {
    font-size: 12px;
    line-height: 16px;
    font-weight: 500;
    color: #707070;
    margin-bottom: 20px;
    width: 95%;
  }
}

/************************* contents ****************************/
.section-title {
  background: linear-gradient(270.13deg, #ff623f 19.37%, #bc1ae4 91.6%);
  -webkit-background-clip: text;
          background-clip: text;
  -webkit-text-fill-color: transparent;
  font-size: 24px;
  line-height: 28px;
  font-weight: 600;
}
@media screen and (max-width: 1440px) {
  .section-title {
    font-size: 20px;
    font-weight: 600;
  }
}
@media screen and (max-width: 1200px) {
  .section-title {
    font-size: 16px;
    line-height: 22px;
    font-weight: 600;
  }
}
@media screen and (max-width: 420px) {
  .section-title {
    font-size: 12px;
    line-height: 18px;
    font-weight: 600;
  }
}

.section-heading {
  font-size: 48px;
  line-height: 62px;
  font-weight: 600;
  color: #202323;
  margin-top: 8px;
  margin-bottom: 22px;
}
@media screen and (max-width: 1720px) {
  .section-heading {
    font-size: 42px;
    line-height: 50px;
    font-weight: 600;
    color: #202323;
  }
}
@media screen and (max-width: 1440px) {
  .section-heading {
    font-size: 34px;
    line-height: 40px;
    font-weight: 600;
    color: #202323;
    margin-top: 0;
    margin-bottom: 12px;
  }
}
@media screen and (max-width: 1200px) {
  .section-heading {
    font-size: 28px;
    line-height: 36px;
    margin-bottom: 8px;
  }
}
@media screen and (max-width: 992px) {
  .section-heading {
    font-size: 26px;
    line-height: 30px;
  }
}
@media screen and (max-width: 768px) {
  .section-heading {
    font-size: 22px;
    line-height: 26px;
  }
}
@media screen and (max-width: 420px) {
  .section-heading {
    font-size: 16px;
    line-height: 22px;
  }
}

.section-content {
  font-size: 16px;
  line-height: 25px;
  font-weight: 500;
  color: #707070;
}
@media screen and (max-width: 1200px) {
  .section-content {
    font-size: 14px;
    line-height: 18px;
  }
}
@media screen and (max-width: 420px) {
  .section-content {
    font-size: 12px;
    line-height: 16px;
  }
}

.card-title {
  font-size: 24px;
  line-height: 36px;
  font-weight: 600;
  color: #202323;
}
@media screen and (max-width: 1200px) {
  .card-title {
    font-size: 18px;
    line-height: 22px;
    font-weight: 600;
    color: #202323;
  }
}
@media screen and (max-width: 420px) {
  .card-title {
    font-size: 16px;
    line-height: 18px;
    font-weight: 600;
    color: #202323;
  }
}

.card-content {
  font-size: 14px;
  line-height: 22px;
  font-weight: 400;
  color: #707070;
}
@media screen and (max-width: 768px) {
  .card-content {
    font-size: 12px;
    line-height: 18px;
    font-weight: 400;
    color: #707070;
  }
}
.card-content a {
  text-decoration: none;
  color: #202323;
}

.inner-heading {
  font-size: 18px;
  line-height: 25px;
  font-weight: 600;
  color: #202323;
}

.inner-content {
  font-size: 14px;
  line-height: 25px;
  font-weight: 400;
  color: #707070;
}

.inner-title {
  font-size: 24px;
  line-height: 36px;
  font-weight: 400;
  color: #202323;
}

.footer-heading-text {
  font-size: 24px;
  font-weight: 600;
  color: #202323;
}

a {
  text-decoration: none;
}

.footer-para-text {
  font-size: 18px;
  line-height: 28px;
  font-weight: 400;
  color: #707070;
}
@media screen and (max-width: 1440px) {
  .footer-para-text {
    font-size: 14px;
    line-height: 24px;
    font-weight: 400;
    color: #707070;
    margin-bottom: 12px;
  }
}
.footer-para-text:hover {
  color: #202323;
}
.footer-para-text:hover:before {
  background-color: #202323;
}

/************************ TRIANGLES ***********************/
.upper-triangle {
  width: 1930px;
  height: 132px;
  position: absolute;
  top: -131px;
  border-top: 66px solid transparent;
  border-right: 965px solid transparent;
  border-bottom: 66px solid #f9f9f9;
  border-left: 965px solid #f9f9f9;
}
@media screen and (max-width: 576px) {
  .upper-triangle {
    width: 700px;
    height: 80px;
    position: absolute;
    top: -77px;
    border-top: 40px solid transparent;
    border-right: 350px solid transparent;
    border-bottom: 40px solid #f9f9f9;
    border-left: 350px solid #f9f9f9;
  }
}

.lower-triangle {
  width: 1930px;
  height: 132px;
  position: absolute;
  bottom: -131px;
  border-top: 66px solid #f9f9f9;
  border-right: 965px solid #f9f9f9;
  border-bottom: 66px solid transparent;
  border-left: 965px solid transparent;
}
@media screen and (max-width: 576px) {
  .lower-triangle {
    width: 700px;
    height: 80px;
    position: absolute;
    bottom: -90px;
    border-top: 40px solid #f9f9f9;
    border-right: 350px solid #f9f9f9;
    border-bottom: 50px solid transparent;
    border-left: 350px solid transparent;
  }
}

.oe-upper-triangle {
  width: 1930px;
  height: 96px;
  position: absolute;
  top: -96px;
  border-top: 48px solid transparent;
  border-right: 965px solid #f9f9f9;
  border-bottom: 48px solid #f9f9f9;
  border-left: 965px solid transparent;
}

.oe-lower-triangle {
  width: 1930px;
  height: 96px;
  position: absolute;
  bottom: -96px;
  border-top: 48px solid #f9f9f9;
  border-right: 965px solid transparent;
  border-bottom: 48px solid transparent;
  border-left: 965px solid #f9f9f9;
}

/******************************bg-colors**************************/
.back-transparent {
  background-color: transparent;
}

.blue-background {
  background-color: #136dfb;
}

.gray-backgorund {
  background-color: #f9f9f9;
}

.white-text {
  color: #ffffff;
}

.white-backgorund {
  background-color: #ffffff !important;
}

/*****************************HEADER*****************************/
.header-wrapper {
  background-color: rgba(255, 255, 255, 0.7);
  -webkit-backdrop-filter: blur(10px);
          backdrop-filter: blur(10px);
  z-index: 40;
  top: 0px;
}
.header-wrapper .contact-us {
  background-color: #0a51c9;
  box-shadow: none;
}
.header-wrapper .contact-us:hover {
  background-color: #0041ae;
}
.header-wrapper .header {
  height: 80px;
  display: flex;
  flex-direction: row;
  justify-content: space-between;
  align-items: center;
}
@media screen and (max-width: 576px) {
  .header-wrapper .header {
    height: 48px;
  }
}
.header-wrapper .header .burger-btn {
  display: none;
}
@media screen and (max-width: 992px) {
  .header-wrapper .header .burger-btn {
    width: 30px;
    height: 24px;
    display: flex;
    flex-direction: column;
    justify-content: space-between;
    cursor: pointer;
    z-index: 1001;
  }
  .header-wrapper .header .burger-btn span {
    width: 100%;
    height: 4px;
    background-color: black;
    border-radius: 2px;
    transition: 0.3s;
  }
  .header-wrapper .header .burger-btn.active span:nth-child(1) {
    transform: rotate(45deg) translate(4px, 4px);
  }
  .header-wrapper .header .burger-btn.active span:nth-child(2) {
    opacity: 0;
  }
  .header-wrapper .header .burger-btn.active span:nth-child(3) {
    transform: rotate(-45deg) translate(10px, -10px);
  }
}
@media screen and (max-width: 768px) {
  .header-wrapper .header .burger-btn {
    height: 18px;
  }
  .header-wrapper .header .burger-btn.active span:nth-child(1) {
    transform: rotate(45deg) translate(4px, 4px);
  }
  .header-wrapper .header .burger-btn.active span:nth-child(2) {
    opacity: 0;
  }
  .header-wrapper .header .burger-btn.active span:nth-child(3) {
    transform: rotate(-45deg) translate(6px, -6px);
  }
}
.header-wrapper .header .logo {
  display: flex;
  align-items: center;
}
.header-wrapper .header .logo img {
  width: 86%;
}
@media screen and (max-width: 768px) {
  .header-wrapper .header .logo img {
    height: 40px;
  }
}
.header-wrapper .header .navbar {
  display: flex;
  list-style-type: none;
  display: flex;
  flex-direction: row;
  align-items: center;
  gap: 46px;
}
@media screen and (max-width: 1200px) {
  .header-wrapper .header .navbar {
    gap: 35px;
  }
}
@media screen and (max-width: 576px) {
  .header-wrapper .header .navbar {
    gap: 26px;
  }
}
@media screen and (max-width: 992px) {
  .header-wrapper .header .navbar {
    display: none;
  }
  .header-wrapper .header .navbar.active {
    display: flex;
    flex-direction: column;
    justify-content: start;
    background-color: #ffffff;
    position: absolute;
    top: 80px;
    right: 0px;
    width: 100%;
    padding: 60px 20px;
  }
}
@media screen and (max-width: 992px) and (max-width: 576px) {
  .header-wrapper .header .navbar.active {
    top: 48px;
    padding: 40px 20px;
  }
}
@media screen and (max-width: 992px) {
  .header-wrapper .header .navbar.active .nav-items {
    width: 100%;
    display: flex;
    justify-content: space-between;
  }
}
@media screen and (max-width: 992px) and (max-width: 992px) {
  .header-wrapper .header .navbar.active .nav-items {
    width: 700px;
  }
}
@media screen and (max-width: 992px) and (max-width: 768px) {
  .header-wrapper .header .navbar.active .nav-items {
    width: 100%;
  }
}
@media screen and (max-width: 992px) {
  .header-wrapper .header .navbar.active .nav-items .arrow {
    transform: rotate(-45deg);
  }
}
@media screen and (max-width: 992px) and (max-width: 576px) {
  .header-wrapper .header .navbar.active {
    top: 48px;
  }
}
.header-wrapper .header .navbar .nav-items {
  display: flex;
  justify-content: center;
  align-items: center;
  gap: 10px;
}
.header-wrapper .header .navbar .nav-items a {
  text-decoration: none;
  font-size: 16px;
  line-height: 24px;
  font-weight: 400;
  color: #202323;
  cursor: pointer;
}
@media screen and (max-width: 1200px) {
  .header-wrapper .header .navbar .nav-items a {
    font-size: 14px;
    line-height: 16px;
    font-weight: 400;
    cursor: pointer;
  }
}
@media screen and (max-width: 576px) {
  .header-wrapper .header .navbar .nav-items a {
    font-size: 12px;
    line-height: 14px;
    font-weight: 400;
    cursor: pointer;
  }
}
.header-wrapper .header .navbar .nav-items .arrow {
  display: inline-block;
  width: 6px;
  height: 6px;
  border-right: 2px solid #000000;
  border-bottom: 2px solid #000000;
  transform: rotate(45deg);
  margin-bottom: 2px;
}
.header-wrapper .header .navbar .nav-items .primary-button .btn-text {
  color: #ffffff;
}
.header-wrapper .header .navbar .nav-items:hover a, .header-wrapper .header .navbar .nav-items.active a {
  color: #136dfb;
}
.header-wrapper .header .navbar .nav-items:hover .arrow, .header-wrapper .header .navbar .nav-items.active .arrow {
  border-color: #136dfb;
}

/*****************************FOOTER*****************************/
.footers-wrapper {
  margin-top: 220px;
  background-color: #f9f9f9;
  display: flex;
  flex-direction: column;
  justify-content: center;
  align-items: center;
  padding-top: 90px;
}
@media screen and (max-width: 992px) {
  .footers-wrapper {
    margin-top: 100px;
  }
}
@media screen and (max-width: 576px) {
  .footers-wrapper {
    margin-top: 140px;
    padding-top: 24px;
  }
}
.footers-wrapper .footer {
  display: grid;
  grid-template-columns: repeat(4, 1fr);
  gap: 50px;
  border-bottom: 1px solid #999a9c;
  padding-bottom: 35px;
  margin-top: 120px;
}
@media screen and (max-width: 1366px) {
  .footers-wrapper .footer {
    grid-template-columns: repeat(2, 1fr);
    gap: 24px;
    margin-top: 60px;
  }
}
@media screen and (max-width: 576px) {
  .footers-wrapper .footer {
    grid-template-columns: repeat(1, 1fr);
  }
}
.footers-wrapper .footer .service-info .logo {
  margin-bottom: 26px;
  display: flex;
  align-items: center;
}
.footers-wrapper .footer .service-info .logo img {
  width: 222px;
  height: 40px;
}
@media screen and (max-width: 768px) {
  .footers-wrapper .footer .service-info .logo img {
    width: 197px;
    height: 40px;
  }
}
.footers-wrapper .footer .service-info .info {
  display: flex;
  justify-content: start;
  align-items: center;
  gap: 6px;
}
.footers-wrapper .footer .service-info .info .card-content {
  margin: 0;
  line-height: auto;
}
.footers-wrapper .footer .service-info ul li {
  list-style-type: none;
}
.footers-wrapper .footer .service-info ul li::before {
  content: "";
  width: 8px;
  height: 8px;
  border-radius: 10px;
  background-color: #D9D9D9;
  display: inline-block;
  margin-right: 8px;
}
.footers-wrapper .second-footer {
  padding: 45px 0;
  display: flex;
  flex-direction: row;
  justify-content: space-between;
  align-items: center;
}
@media screen and (max-width: 1226px) {
  .footers-wrapper .second-footer {
    display: flex;
    flex-direction: column;
    justify-content: center;
    align-items: baseline;
    gap: 16px;
  }
}
@media screen and (max-width: 768px) {
  .footers-wrapper .second-footer {
    padding: 45px 15px;
  }
}
@media screen and (max-width: 576px) {
  .footers-wrapper .second-footer {
    padding: 16px;
  }
}
@media screen and (max-width: 1226px) {
  .footers-wrapper .second-footer .card-content {
    width: 100%;
    text-align: center;
  }
}
.footers-wrapper .second-footer .card-content a {
  color: #202323;
}
.footers-wrapper .second-footer .footer-buttons {
  display: flex;
  flex-direction: row;
  align-items: center;
  gap: 15px;
}
@media screen and (max-width: 1226px) {
  .footers-wrapper .second-footer .footer-buttons {
    width: 100%;
    justify-content: center;
  }
}
@media screen and (max-width: 400px) {
  .footers-wrapper .second-footer .footer-buttons {
    flex-direction: column;
  }
}
.footers-wrapper .second-footer .footer-buttons .firm-logos {
  display: flex;
  flex-direction: row;
  justify-content: space-between;
  align-items: center;
  gap: 5px;
  padding: 12px 15px;
  border: 0;
  border-radius: 19px;
  text-decoration: none;
  background-color: transparent;
}
.footers-wrapper .second-footer .footer-buttons .firm-logos .outer-border {
  position: absolute;
  top: 0px;
  right: 0px;
  bottom: 0px;
  left: 0px;
  width: 100%;
  height: 38px;
  border-radius: 19px;
  background-color: transparent;
  border: 1px solid #999a9c;
}
.footers-wrapper .second-footer .footer-buttons .firm-logos span {
  font-size: 14px;
  line-height: 14px;
  font-weight: 500;
  color: #262626;
}
.footers-wrapper .second-footer .footer-buttons .firm-logos:hover {
  border-top: 0;
  border-right: 0;
  border-left: 0;
  border-radius: 0;
  overflow: hidden;
  background-color: transparent;
}
.footers-wrapper .second-footer .footer-buttons .firm-logos:hover .outer-border {
  transform: translateX(101%);
}
.footers-wrapper .second-footer .footer-buttons .facebook:hover svg path {
  fill: #0a51c9;
}
.footers-wrapper .second-footer .footer-buttons .facebook:hover span {
  color: #0a51c9;
}
.footers-wrapper .second-footer .footer-buttons .facebook:hover::after {
  width: 100%;
}
.footers-wrapper .second-footer .footer-buttons .facebook::after {
  content: "";
  position: absolute;
  bottom: 0px;
  left: 0px;
  width: 0px;
  height: 1px;
  background-color: #0a51c9;
  transition: width 0.3s ease;
}
.footers-wrapper .second-footer .footer-buttons .linkdin:hover span {
  color: #0a51c9;
}
.footers-wrapper .second-footer .footer-buttons .linkdin:hover svg path {
  fill: #0a51c9;
}
.footers-wrapper .second-footer .footer-buttons .linkdin:hover::after {
  width: 100%;
}
.footers-wrapper .second-footer .footer-buttons .linkdin::after {
  content: "";
  position: absolute;
  bottom: 0px;
  left: 0px;
  width: 0px;
  height: 1px;
  background-color: #0a51c9;
  transition: width 0.3s ease;
}
.footers-wrapper .second-footer .footer-buttons .instagram:hover span {
  color: #ef583b;
}
.footers-wrapper .second-footer .footer-buttons .instagram:hover svg path {
  fill: #ef583b;
}
.footers-wrapper .second-footer .footer-buttons .instagram:hover::after {
  width: 100%;
}
.footers-wrapper .second-footer .footer-buttons .instagram::after {
  content: "";
  position: absolute;
  bottom: 0px;
  left: 0px;
  width: 0px;
  height: 1px;
  background-color: #ef583b;
  transition: width 0.3s ease;
}
.footers-wrapper .footer-headings {
  display: flex;
  flex-direction: row;
  justify-content: space-between;
  align-items: center;
  border-radius: 26px;
  padding: 32px;
  background-color: #136dfb;
  box-sizing: border-box;
}
@media screen and (max-width: 1366px) {
  .footers-wrapper .footer-headings {
    border-radius: 20px;
    padding: 20px;
  }
}
@media screen and (max-width: 992px) {
  .footers-wrapper .footer-headings {
    flex-direction: column;
    border-radius: 12px;
    margin: 0 20px;
    width: 96%;
  }
}
.footers-wrapper .footer-headings .footer-left-header {
  max-width: 400px;
  display: flex;
  flex-direction: column;
  justify-content: start;
  align-items: start;
  gap: 8px;
}
@media screen and (max-width: 992px) {
  .footers-wrapper .footer-headings .footer-left-header {
    max-width: 100%;
    width: 100%;
  }
}
.footers-wrapper .footer-headings .footer-left-header .footer-heading {
  font-size: 24px;
  line-height: 36px;
  font-weight: 600;
  color: #ffffff;
}
@media screen and (max-width: 992px) {
  .footers-wrapper .footer-headings .footer-left-header .footer-heading {
    font-size: 20px;
    line-height: 22px;
    font-weight: 600;
    color: #ffffff;
  }
}
.footers-wrapper .footer-headings .footer-left-header .footer-text {
  font-size: 18px;
  line-height: 28px;
  font-weight: 400;
  color: #ffffff;
}
@media screen and (max-width: 1440px) {
  .footers-wrapper .footer-headings .footer-left-header .footer-text {
    font-size: 16px;
    line-height: 22px;
    font-weight: 400;
    color: #ffffff;
  }
}
.footers-wrapper .footer-headings .email-input {
  background-color: transparent;
  width: 361px;
  height: 48px;
  margin: 0;
  padding: 0 125px 0 45px;
  border-radius: 24px;
  border: 1px solid #ffffff;
  box-sizing: border-box;
  display: flex;
  flex-direction: row;
  align-items: center;
  min-width: 361px;
}
@media screen and (max-width: 992px) {
  .footers-wrapper .footer-headings .email-input {
    position: relative;
    margin: 20px 0 12px 0;
    width: 100%;
  }
}
@media screen and (max-width: 768px) {
  .footers-wrapper .footer-headings .email-input {
    width: 100%;
    min-width: auto;
  }
}
.footers-wrapper .footer-headings .email-input input {
  background-color: transparent;
  font-size: 14px;
  line-height: 21px;
  font-weight: 500;
  color: #ffffff;
  outline: none;
  border: none;
  width: calc(100% - 1px);
}
.footers-wrapper .footer-headings .email-input input::-moz-placeholder {
  font-size: 14px;
  line-height: 21px;
  font-weight: 500;
  color: #ffffff;
}
.footers-wrapper .footer-headings .email-input input::placeholder {
  font-size: 14px;
  line-height: 21px;
  font-weight: 500;
  color: #ffffff;
}
.footers-wrapper .footer-headings .email-input .user {
  position: absolute;
  top: 12px;
  left: 16px;
}
.footers-wrapper .footer-headings .email-input button {
  background-color: #ffffff;
  color: #136dfb !important;
  box-shadow: none;
  position: absolute;
  top: 2px;
  right: 2px;
  height: 42px;
}

/**************************cs-digital-development-wrapper***************************/
.cs-digital-development-wrapper {
  padding: 120px 0;
}
@media screen and (max-width: 992px) {
  .cs-digital-development-wrapper {
    padding: 80px 0;
  }
}
@media screen and (max-width: 576px) {
  .cs-digital-development-wrapper {
    padding: 60px 0;
  }
}
.cs-digital-development-wrapper .digital-development {
  display: grid;
  grid-template-columns: repeat(4, auto);
  background-color: rgba(249, 249, 249, 0.6);
  gap: 24px;
  padding: 80px;
  border: 1px solid #E8E8E8;
  border-radius: 20px;
}
@media screen and (max-width: 1720px) {
  .cs-digital-development-wrapper .digital-development {
    padding: 51px;
  }
}
@media screen and (max-width: 1440px) {
  .cs-digital-development-wrapper .digital-development {
    padding: 35px;
    grid-template-columns: repeat(3, auto);
  }
}
@media screen and (max-width: 992px) {
  .cs-digital-development-wrapper .digital-development {
    gap: 12px;
    padding: 20px;
    grid-template-columns: repeat(2, auto);
  }
}
@media screen and (max-width: 768px) {
  .cs-digital-development-wrapper .digital-development {
    margin: 0 15px;
    width: calc(100% - 30px);
    display: flex;
    flex-direction: column;
  }
}
.cs-digital-development-wrapper .digital-development .rectangles-wrapper {
  display: flex;
  flex-direction: row-reverse;
}
.cs-digital-development-wrapper .digital-development .rectangles-wrapper.rectangles-wrapper-1 {
  position: absolute;
  top: 0px;
  right: 200px;
}
.cs-digital-development-wrapper .digital-development .rectangles-wrapper.rectangles-wrapper-2 {
  position: absolute;
  right: 200px;
  bottom: 0px;
}
.cs-digital-development-wrapper .digital-development .rectangles-wrapper.rectangles-wrapper-3 {
  position: absolute;
  top: 0px;
  left: 200px;
}
.cs-digital-development-wrapper .digital-development .rectangles-wrapper .rectangles {
  width: 115px;
  height: 115px;
  filter: blur(100px);
}
.cs-digital-development-wrapper .digital-development .rectangles-wrapper .rectangle-1 {
  background-color: #EB7500;
}
.cs-digital-development-wrapper .digital-development .rectangles-wrapper .rectangle-2 {
  background-color: #F2416B;
}
.cs-digital-development-wrapper .digital-development .rectangles-wrapper .rectangle-3 {
  background-color: #BB64FF;
}
.cs-digital-development-wrapper .digital-development .rectangles-wrapper .rectangle-4 {
  background-color: #0096FF;
}
.cs-digital-development-wrapper .digital-development .title-n-heading {
  grid-column: 1/3;
}
@media screen and (min-width: 992px) and (max-width: 1440px) {
  .cs-digital-development-wrapper .digital-development .title-n-heading {
    grid-column: 1/4;
  }
}
@media screen and (max-width: 1440px) {
  .cs-digital-development-wrapper .digital-development .title-n-heading .section-content {
    margin-bottom: 40px;
  }
}
.cs-digital-development-wrapper .digital-development .colored-inner-box {
  width: 347px;
  height: 312px;
}
@media screen and (max-width: 1720px) {
  .cs-digital-development-wrapper .digital-development .colored-inner-box {
    width: 290px;
    height: auto;
  }
}
@media screen and (max-width: 1440px) {
  .cs-digital-development-wrapper .digital-development .colored-inner-box {
    width: 99%;
    height: auto;
  }
}
@media screen and (max-width: 768px) {
  .cs-digital-development-wrapper .digital-development .colored-inner-box {
    width: 100%;
    height: auto;
  }
}

/**************************color-full inner-box***************************/
.colored-inner-box {
  border-radius: 15px;
}
.colored-inner-box .z-img {
  position: absolute;
  top: 0px;
  right: 0px;
}
.colored-inner-box .logo {
  width: 50px;
  height: 50px;
  border-radius: 15px;
  background: #202323;
  display: flex;
  justify-content: center;
  align-items: center;
}
.colored-inner-box .box-heading {
  font-size: 28px;
  line-height: 42px;
  font-weight: 400;
  color: #202323;
}
@media screen and (max-width: 1440px) {
  .colored-inner-box .box-heading {
    font-size: 24px;
    line-height: 28px;
    font-weight: 400;
    color: #202323;
  }
}
@media screen and (max-width: 768px) {
  .colored-inner-box .box-heading {
    font-size: 20px;
    line-height: 24px;
    font-weight: 400;
    color: #202323;
    margin-bottom: 10px;
  }
}
.colored-inner-box .card-content {
  margin-bottom: 0;
}
.colored-inner-box::before {
  content: "";
  width: 100%;
  height: 100%;
  background: linear-gradient(109.92deg, #0096ff 12.78%, #bb64ff 37.63%, #f2416b 62.12%, #eb7500 87.3%);
  transition: all 0.3s ease;
  position: absolute;
  top: 50%;
  left: 50%;
  transform: translate(-50%, -50%);
  z-index: 0;
  border-radius: 15px;
}
.colored-inner-box .overlay {
  width: calc(100% - 2px);
  height: calc(100% - 2px);
  background-color: #ffffff;
  position: absolute;
  top: 50%;
  left: 50%;
  transform: translate(-50%, -50%);
  border-radius: 15px;
}
.colored-inner-box .circle {
  width: 220px;
  height: 220px;
  background-color: #c0bedd;
  filter: blur(100px);
  position: absolute;
  top: 0px;
  right: 0px;
}
.colored-inner-box:hover {
  box-shadow: 0px 30px 60px 0px rgba(0, 0, 0, 0.2);
}
.colored-inner-box:hover::before {
  visibility: hidden;
}
.colored-inner-box:hover .logo {
  background: linear-gradient(136.29deg, #0096FF -4.39%, #BB64FF 32.56%, #F2416B 83.66%, #EB7500 106.92%);
  display: flex;
  justify-content: center;
  align-items: center;
}

/**************************photo and content-wrapped***************************/
.pic-content-wrapped-section {
  display: flex;
  flex-direction: row;
  align-items: center;
  box-shadow: 0px 20px 80px 0px rgba(0, 0, 0, 0.0509803922);
  background-color: #ffffff;
  border-radius: 30px;
}
@media screen and (max-width: 992px) {
  .pic-content-wrapped-section {
    flex-direction: column;
  }
}
@media screen and (max-width: 768px) {
  .pic-content-wrapped-section {
    margin-right: 15px;
    margin-left: 15px;
    width: calc(100% - 30px);
    padding: 0;
  }
}
.pic-content-wrapped-section .left-part {
  width: 100%;
}
.pic-content-wrapped-section .left-part img {
  -o-object-fit: cover;
     object-fit: cover;
  border-top-left-radius: 30px;
  border-bottom-left-radius: 30px;
}
@media screen and (max-width: 1200px) {
  .pic-content-wrapped-section .left-part img {
    width: 520px;
  }
}
@media screen and (max-width: 992px) {
  .pic-content-wrapped-section .left-part img {
    width: 100%;
    border-radius: 0;
    border-top-left-radius: 30px;
    border-top-right-radius: 30px;
  }
}
.pic-content-wrapped-section .right-part {
  padding: 0 120px;
}
@media screen and (max-width: 1720px) {
  .pic-content-wrapped-section .right-part {
    padding: 0 90px;
  }
}
@media screen and (max-width: 1440px) {
  .pic-content-wrapped-section .right-part {
    padding: 0 25px;
  }
}
@media screen and (max-width: 992px) {
  .pic-content-wrapped-section .right-part {
    padding: 20px;
  }
}
.pic-content-wrapped-section .right-part .clr-variation {
  color: #136dfb;
}
.pic-content-wrapped-section .right-part .section-content {
  font-size: 14px;
  line-height: 25px;
  font-weight: 400;
  color: #707070;
}

.image-text-section-wrapper {
  background-color: #f9f9f9;
  padding: 120px 0;
}
@media screen and (max-width: 992px) {
  .image-text-section-wrapper {
    padding: 80px 0;
  }
}
@media screen and (max-width: 576px) {
  .image-text-section-wrapper {
    padding: 60px 0;
  }
}
.image-text-section-wrapper .image-text {
  display: flex;
  height: 555px;
  border-radius: 30px;
  box-shadow: 0 20px 80px 0 rgba(0, 0, 0, 0.0509803922);
}
@media screen and (max-width: 992px) {
  .image-text-section-wrapper .image-text {
    flex-direction: column;
    height: auto;
    box-shadow: none;
  }
}
.image-text-section-wrapper .image-text .img-section {
  width: 44%;
}
@media screen and (max-width: 992px) {
  .image-text-section-wrapper .image-text .img-section {
    width: 100%;
  }
}
.image-text-section-wrapper .image-text .img-section img {
  border-top-left-radius: 30px;
  border-bottom-left-radius: 30px;
  width: 100%;
  height: 100%;
  -o-object-fit: cover;
     object-fit: cover;
}
@media screen and (max-width: 992px) {
  .image-text-section-wrapper .image-text .img-section img {
    width: 100%;
    border-radius: 30px;
    border-bottom-left-radius: 0px;
    border-bottom-right-radius: 0px;
  }
}
@media screen and (max-width: 576px) {
  .image-text-section-wrapper .image-text .img-section img {
    width: 100%;
    border-radius: 20px;
    border-bottom-left-radius: 0px;
    border-bottom-right-radius: 0px;
  }
}
.image-text-section-wrapper .image-text .text-section {
  width: 60%;
  background-color: #ffffff;
  border-top-right-radius: 30px;
  border-bottom-right-radius: 30px;
  display: flex;
  flex-direction: row;
  align-items: center;
}
@media screen and (max-width: 992px) {
  .image-text-section-wrapper .image-text .text-section {
    border-radius: 30px;
    width: 100%;
    border-top-left-radius: 0px;
    border-top-right-radius: 0px;
  }
}
@media screen and (max-width: 576px) {
  .image-text-section-wrapper .image-text .text-section {
    border-radius: 20px;
    border-top-left-radius: 0px;
    border-top-right-radius: 0px;
  }
}
.image-text-section-wrapper .image-text .text-section .ios-app-circle1 {
  background-color: #ABCCFF;
  filter: blur(135px);
  width: 230px;
  height: 230px;
  position: absolute;
  top: 0px;
  right: 0px;
}
@media screen and (max-width: 576px) {
  .image-text-section-wrapper .image-text .text-section .ios-app-circle1 {
    display: none;
  }
}
.image-text-section-wrapper .image-text .text-section .ios-app-circle2 {
  background-color: #ABCCFF;
  filter: blur(125px);
  width: 200px;
  height: 200px;
  border-radius: 50%;
  position: absolute;
  bottom: 0px;
  left: -100px;
}
@media screen and (max-width: 576px) {
  .image-text-section-wrapper .image-text .text-section .ios-app-circle2 {
    display: none;
  }
}
.image-text-section-wrapper .image-text .text-section .section {
  width: 83%;
  padding: 0 0 0 60px;
}
@media screen and (max-width: 1440px) {
  .image-text-section-wrapper .image-text .text-section .section {
    padding: 30px;
  }
}
@media screen and (max-width: 992px) {
  .image-text-section-wrapper .image-text .text-section .section {
    width: auto;
    padding: 40px 20px;
    display: flex;
    flex-direction: column;
    justify-content: start;
    align-items: start;
  }
}
@media screen and (max-width: 768px) {
  .image-text-section-wrapper .image-text .text-section .section {
    width: 100%;
  }
}
@media screen and (max-width: 576px) {
  .image-text-section-wrapper .image-text .text-section .section {
    padding: 20px;
  }
}
.image-text-section-wrapper .image-text .text-section .section .card-content {
  margin-bottom: 24px;
}
.image-text-section-wrapper .image-text .text-section .section .points {
  list-style-type: none;
}
.image-text-section-wrapper .image-text .text-section .section .points li {
  padding: 0 0 0 30px;
  margin-bottom: 12px;
}
.image-text-section-wrapper .image-text .text-section .section .points li::before {
  content: "";
  position: absolute;
  top: 50%;
  left: 10px;
  transform: translate(-50%, -50%);
  width: 8px;
  height: 8px;
  border-radius: 50%;
  background-color: #D9D9D9;
}
.image-text-section-wrapper .image-text .text-section .ios-app-z-img1 {
  position: absolute;
  top: 0px;
  right: 0px;
}

/****************************featured-aspects*******************************/
.aspects {
  border: 1px solid #E8E8E8;
  border-radius: 30px;
  background-color: #ffffff;
  box-shadow: 0px 20px 80px 0px rgba(0, 0, 0, 0.0509803922);
  margin: 120px auto;
}
@media screen and (max-width: 992px) {
  .aspects {
    margin: 80px auto;
    padding: 20px;
  }
}
@media screen and (max-width: 768px) {
  .aspects {
    margin: 60px auto;
    padding: 20px;
    width: 96%;
  }
}
.aspects .large-heading {
  font-size: 48px;
  line-height: 72px;
  font-weight: 600;
  color: #202323;
}
@media screen and (max-width: 1440px) {
  .aspects .large-heading {
    font-size: 42px;
    line-height: 52px;
    font-weight: 600;
    color: #202323;
  }
}
@media screen and (max-width: 992px) {
  .aspects .large-heading {
    font-size: 32px;
    line-height: 42px;
    font-weight: 600;
    color: #202323;
  }
}
@media screen and (max-width: 576px) {
  .aspects .large-heading {
    font-size: 22px;
    line-height: 32px;
    font-weight: 600;
    color: #202323;
  }
}
.aspects .invisible {
  font-size: 120px;
  line-height: 180px;
  font-weight: 600;
  color: #FAFAFA;
  position: absolute;
  top: -35px;
  right: 21px;
}
@media screen and (max-width: 1720px) {
  .aspects .invisible {
    font-size: 95px;
    line-height: 130px;
    font-weight: 600;
    color: #FAFAFA;
    position: absolute;
    top: 0px;
    right: 21px;
  }
}
@media screen and (max-width: 1440px) {
  .aspects .invisible {
    font-size: 70px;
    line-height: 130px;
    font-weight: 600;
    color: #FAFAFA;
    position: absolute;
    top: -20px;
    right: 21px;
  }
}
@media screen and (max-width: 1200px) {
  .aspects .invisible {
    font-size: 60px;
    line-height: 100px;
    font-weight: 600;
    color: #FAFAFA;
    position: absolute;
    top: -10px;
    right: 21px;
  }
}
@media screen and (max-width: 992px) {
  .aspects .invisible {
    font-size: 45px;
    line-height: 100px;
    font-weight: 600;
    color: #FAFAFA;
    position: absolute;
    top: -15px;
    right: 21px;
  }
}
@media screen and (max-width: 576px) {
  .aspects .invisible {
    font-size: 20px;
    line-height: 80px;
    font-weight: 600;
    color: #FAFAFA;
  }
}
.aspects .boxes {
  display: grid;
  grid-template-columns: repeat(4, 1fr);
  gap: 24px;
}
@media screen and (max-width: 1440px) {
  .aspects .boxes {
    grid-template-columns: repeat(2, 1fr);
  }
}
@media screen and (max-width: 992px) {
  .aspects .boxes {
    margin-top: 28px;
    gap: 12px;
  }
}
@media screen and (max-width: 768px) {
  .aspects .boxes {
    grid-template-columns: repeat(1, 1fr);
  }
}
.aspects .boxes .aspect-card1:hover {
  background: linear-gradient(to right, #136DFB, #9AC1FF, #1A71FB);
}
.aspects .boxes .aspect-card2:hover {
  background: linear-gradient(to right, #BB64FF, #DCAFFF, #BB64FF);
}
.aspects .boxes .aspect-card3:hover {
  background: linear-gradient(to right, #F2416B, #FF83A0, #F2416B);
}
.aspects .boxes .aspect-card4:hover {
  background: linear-gradient(to right, #EB7500, #FFC183, #EB7500);
}
.aspects .boxes .box {
  border-radius: 12px;
  background-color: #f9f9f9;
  width: 100%;
}
@media screen and (max-width: 1440px) {
  .aspects .boxes .box {
    padding: 14px;
  }
}
.aspects .boxes .box img {
  margin: 0;
  margin-bottom: 24px;
}
@media screen and (max-width: 1440px) {
  .aspects .boxes .box img {
    width: 38px;
    height: 38px;
  }
}
.aspects .boxes .box .img1 {
  display: block;
}
.aspects .boxes .box .img2 {
  display: none;
}
.aspects .boxes .box .box-heading {
  margin-bottom: 6px;
  font-size: 24px;
  line-height: 36px;
  font-weight: 600;
  color: #202323;
}
@media screen and (max-width: 1440px) {
  .aspects .boxes .box .box-heading {
    font-size: 20px;
    line-height: 28px;
    font-weight: 600;
    color: #202323;
  }
}
.aspects .boxes .box .card-content {
  margin: 0;
}
.aspects .boxes .box:hover .hover-effect {
  color: #ffffff;
}
.aspects .boxes .box:hover .img1 {
  display: none;
}
.aspects .boxes .box:hover .img2 {
  display: block;
}

/*********************************transforming-future-AI*********************************/
.blue-transform-future-wrapper {
  padding: 40px 0;
}
.blue-transform-future-wrapper .transform-future {
  width: 85%;
  display: flex;
  flex-direction: row;
  justify-content: space-between;
  gap: 86px;
}
@media screen and (max-width: 992px) {
  .blue-transform-future-wrapper .transform-future {
    flex-direction: column;
  }
}
@media screen and (max-width: 576px) {
  .blue-transform-future-wrapper .transform-future {
    gap: 40px;
  }
}
.blue-transform-future-wrapper .transform-future .left-part {
  width: 48%;
  display: flex;
  flex-direction: column;
  justify-content: center;
}
@media screen and (max-width: 992px) {
  .blue-transform-future-wrapper .transform-future .left-part {
    width: 100%;
  }
}
.blue-transform-future-wrapper .transform-future .left-part .section-title-text {
  text-transform: uppercase;
  font-size: 24px;
  line-height: 36px;
  font-weight: 600;
  color: #ffffff;
}
@media screen and (max-width: 1440px) {
  .blue-transform-future-wrapper .transform-future .left-part .section-title-text {
    font-size: 20px;
    font-weight: 600;
  }
}
@media screen and (max-width: 1200px) {
  .blue-transform-future-wrapper .transform-future .left-part .section-title-text {
    font-size: 16px;
    font-weight: 600;
  }
}
@media screen and (max-width: 420px) {
  .blue-transform-future-wrapper .transform-future .left-part .section-title-text {
    font-size: 12px;
    line-height: 18px;
    font-weight: 600;
    margin-bottom: 5px;
  }
}
.blue-transform-future-wrapper .transform-future .left-part .section-title {
  text-transform: uppercase;
}
@media screen and (max-width: 1440px) {
  .blue-transform-future-wrapper .transform-future .left-part .section-title {
    font-size: 18px;
    line-height: 28px;
    font-weight: 600;
    color: #136dfb;
  }
}
@media screen and (max-width: 1200px) {
  .blue-transform-future-wrapper .transform-future .left-part .section-title {
    font-size: 14px;
    line-height: 18px;
    font-weight: 600;
    color: #136dfb;
  }
}
@media screen and (max-width: 992px) {
  .blue-transform-future-wrapper .transform-future .left-part .section-title {
    margin-bottom: 10px;
  }
}
.blue-transform-future-wrapper .transform-future .left-part .section-heading-white {
  font-size: 48px;
  line-height: 60px;
  font-weight: 600;
  color: #ffffff;
}
@media screen and (max-width: 1720px) {
  .blue-transform-future-wrapper .transform-future .left-part .section-heading-white {
    font-size: 42px;
    line-height: 50px;
    font-weight: 600;
    color: #ffffff;
  }
}
@media screen and (max-width: 1440px) {
  .blue-transform-future-wrapper .transform-future .left-part .section-heading-white {
    font-size: 34px;
    line-height: 40px;
    font-weight: 600;
    color: #ffffff;
  }
}
@media screen and (max-width: 1200px) {
  .blue-transform-future-wrapper .transform-future .left-part .section-heading-white {
    font-size: 30px;
    line-height: 36px;
    font-weight: 600;
    color: #ffffff;
  }
}
@media screen and (max-width: 992px) {
  .blue-transform-future-wrapper .transform-future .left-part .section-heading-white {
    margin-bottom: 10px;
    font-size: 26px;
    line-height: 30px;
  }
}
@media screen and (max-width: 768px) {
  .blue-transform-future-wrapper .transform-future .left-part .section-heading-white {
    font-size: 22px;
    line-height: 26px;
  }
}
@media screen and (max-width: 420px) {
  .blue-transform-future-wrapper .transform-future .left-part .section-heading-white {
    font-size: 16px;
    line-height: 24px;
  }
}
.blue-transform-future-wrapper .transform-future .left-part .section-content-white {
  width: 92%;
  font-size: 14px;
  line-height: 25px;
  font-weight: 500;
  color: #ffffff;
}
@media screen and (max-width: 1200px) {
  .blue-transform-future-wrapper .transform-future .left-part .section-content-white {
    width: 80%;
  }
}
@media screen and (max-width: 768px) {
  .blue-transform-future-wrapper .transform-future .left-part .section-content-white {
    font-size: 12px;
    line-height: 16px;
    font-weight: 500;
    color: #ffffff;
    width: 90%;
  }
}
.blue-transform-future-wrapper .transform-future .left-part .section-heading {
  font-size: 48px;
  line-height: 60px;
  font-weight: 600;
  color: #202323;
}
@media screen and (max-width: 1720px) {
  .blue-transform-future-wrapper .transform-future .left-part .section-heading {
    font-size: 40px;
    line-height: 48px;
    font-weight: 600;
    color: #202323;
  }
}
@media screen and (max-width: 1440px) {
  .blue-transform-future-wrapper .transform-future .left-part .section-heading {
    font-size: 32px;
    line-height: 40px;
    font-weight: 600;
    color: #202323;
  }
}
@media screen and (max-width: 1200px) {
  .blue-transform-future-wrapper .transform-future .left-part .section-heading {
    font-size: 24px;
    line-height: 28px;
    font-weight: 600;
    color: #202323;
  }
}
@media screen and (max-width: 992px) {
  .blue-transform-future-wrapper .transform-future .left-part .section-heading {
    margin-bottom: 20px;
  }
}
.blue-transform-future-wrapper .transform-future .left-part .section-content {
  width: 92%;
  font-size: 14px;
  line-height: 24px;
  font-weight: 400;
  color: #707070;
}
@media screen and (max-width: 1440px) {
  .blue-transform-future-wrapper .transform-future .left-part .section-content {
    width: 80%;
  }
}
@media screen and (max-width: 992px) {
  .blue-transform-future-wrapper .transform-future .left-part .section-content {
    width: 90%;
    margin-bottom: 30px;
  }
}
@media screen and (max-width: 768px) {
  .blue-transform-future-wrapper .transform-future .left-part .section-content {
    font-size: 12px;
    line-height: 18px;
    font-weight: 400;
    color: #707070;
  }
}
.blue-transform-future-wrapper .transform-future .left-part .white-button {
  background-color: #ffffff !important;
  color: #136dfb !important;
}
.blue-transform-future-wrapper .transform-future .right-part {
  width: 50%;
  background-color: #ffffff;
  border-radius: 15px;
  position: relative;
}
@media screen and (max-width: 1440px) {
  .blue-transform-future-wrapper .transform-future .right-part {
    padding: 15px;
  }
}
@media screen and (max-width: 992px) {
  .blue-transform-future-wrapper .transform-future .right-part {
    width: 100%;
    padding: 10px;
  }
}
@media screen and (max-width: 576px) {
  .blue-transform-future-wrapper .transform-future .right-part {
    padding: 5px;
  }
}
.blue-transform-future-wrapper .transform-future .colorful-background::after, .blue-transform-future-wrapper .transform-future .colorful-background::before {
  content: "";
  position: absolute;
  top: 0px;
  left: 0px;
  width: 100%;
  height: 100%;
  background: linear-gradient(-360deg, rgba(0, 150, 255, 0.3), rgba(187, 100, 255, 0.3), rgba(242, 65, 107, 0.3), rgba(235, 117, 0, 0.3));
  z-index: -1;
  background-size: 400%;
  border-radius: 15px;
}
.blue-transform-future-wrapper .transform-future .colorful-background::after {
  filter: blur(80px);
}
.blue-transform-future-wrapper .z-img1 {
  position: absolute;
  top: 0px;
  right: 0px;
}
.blue-transform-future-wrapper .z-img2 {
  position: absolute;
  top: 0px;
  bottom: 0px;
}
.blue-transform-future-wrapper .circle1 {
  width: 500px;
  height: 500px;
  background-color: #ffffff;
  filter: blur(295px);
  position: absolute;
  top: 0px;
  right: 0px;
}
.blue-transform-future-wrapper .circle2 {
  width: 500px;
  height: 500px;
  background-color: #ffffff;
  filter: blur(295px);
  position: absolute;
  top: 0px;
  right: 600px;
  bottom: 0px;
}
.blue-transform-future-wrapper .circle3 {
  width: 200px;
  height: 200px;
  background-color: #ffffff;
  filter: blur(115px);
  position: absolute;
  top: 0px;
  left: 0px;
}

/*********************************transforming-future-AI*******************************/
.transform-future-wrapper {
  padding: 40px 0;
  background-color: #f9f9f9;
}
.transform-future-wrapper .transform-future {
  display: flex;
  flex-direction: row;
  justify-content: space-between;
  gap: 60px;
}
@media screen and (max-width: 992px) {
  .transform-future-wrapper .transform-future {
    display: flex;
    flex-direction: column-reverse;
    justify-content: space-between;
    gap: 36px;
  }
}
.transform-future-wrapper .transform-future-alternate {
  display: flex;
  flex-direction: row-reverse;
  justify-content: space-between;
  gap: 60px;
}
@media screen and (max-width: 992px) {
  .transform-future-wrapper .transform-future-alternate {
    display: flex;
    flex-direction: column-reverse;
    justify-content: space-between;
    gap: 36px;
  }
}
.transform-future-wrapper .left-part {
  width: 50%;
  display: flex;
  flex-direction: column;
  justify-content: center;
}
@media screen and (max-width: 992px) {
  .transform-future-wrapper .left-part {
    width: 100%;
  }
}
.transform-future-wrapper .right-part {
  width: 50%;
  background-color: #ffffff;
  border-radius: 15px;
}
@media screen and (max-width: 992px) {
  .transform-future-wrapper .right-part {
    width: 100%;
    padding: 12px;
  }
}
@media screen and (max-width: 576px) {
  .transform-future-wrapper .right-part {
    padding: 8px;
  }
}
@media screen and (max-width: 1440px) {
  .transform-future-wrapper .right-part img {
    height: 100%;
    -o-object-fit: cover;
       object-fit: cover;
    border-radius: 10px;
  }
}

/**********************our-community*****************/
@media screen and (max-width: 576px) {
  .our-community .wcu-heading {
    width: 100%;
  }
}
.our-community .owl-carousel .owl-item img {
  display: block;
  width: auto !important;
}
@media screen and (max-width: 576px) {
  .our-community .owl-carousel .owl-item img {
    width: 38px;
    height: 38px;
  }
}
.our-community .slider {
  width: -moz-fit-content;
  width: fit-content;
  margin: 40px 0 110px 0;
  display: flex;
  flex-direction: row;
  align-items: center;
  flex-wrap: nowrap;
  gap: 30px;
}
.our-community .slider .owl-carousel {
  display: flex;
  gap: 20px;
}
.our-community .slider .owl-stage-outer .owl-stage .owl-item {
  width: 347px !important;
}
@media screen and (max-width: 576px) {
  .our-community .slider .owl-stage-outer .owl-stage .owl-item {
    width: 266 !important;
    height: 213 !important;
    margin-right: 10px !important;
  }
}
.our-community .slider .content-wrapper {
  width: 347px;
  height: 340px;
  border-radius: 20px;
  background: #f3f4f6;
  padding: 30px 20px;
  flex: 0 0 auto;
}
@media screen and (max-width: 576px) {
  .our-community .slider .content-wrapper {
    width: 266px;
    height: 213px;
    padding: 10px;
  }
}
.our-community .slider .content-wrapper .bottom-border {
  position: absolute;
  right: 88px;
  bottom: 0px;
}
@media screen and (max-width: 576px) {
  .our-community .slider .content-wrapper .bottom-border {
    position: absolute;
    right: 71px;
    bottom: 0px;
  }
}
.our-community .slider .content-wrapper .right-border {
  position: absolute;
  bottom: 75px;
  left: 0px;
}
@media screen and (max-width: 576px) {
  .our-community .slider .content-wrapper .right-border {
    position: absolute;
    bottom: 47px;
    left: 0px;
  }
}
.our-community .slider .content-wrapper .upper-img {
  width: 32px;
  height: 32px;
}
@media screen and (max-width: 576px) {
  .our-community .slider .content-wrapper .upper-img {
    width: 25px;
    height: 28px;
  }
}
.our-community .slider .content-wrapper .slider-content {
  font-size: 18px;
  line-height: 30px;
  font-weight: 500;
  color: #707070;
  margin: 40px 0 0 0;
}
@media screen and (max-width: 576px) {
  .our-community .slider .content-wrapper .slider-content {
    margin-top: 15px;
    font-size: 14px;
    line-height: 20px;
    font-weight: 500;
    color: #707070;
  }
}
.our-community .slider .content-wrapper .about-profile {
  width: 230px;
  height: 95px;
  position: absolute;
  bottom: 0px;
  left: 0px;
  display: flex;
  flex-direction: row;
  align-items: center;
  gap: 15px;
  background-color: #ffffff;
  border-radius: 20px;
}
@media screen and (max-width: 576px) {
  .our-community .slider .content-wrapper .about-profile {
    width: 164px;
    height: 52px;
    padding: 5px;
  }
}
.our-community .slider .content-wrapper .name-n-profile {
  display: flex;
  flex-direction: column;
  justify-content: center;
  align-items: baseline;
}
.our-community .slider .content-wrapper .name-n-profile .name {
  font-size: 18px;
  font-weight: 600;
  color: #202323;
}
@media screen and (max-width: 576px) {
  .our-community .slider .content-wrapper .name-n-profile .name {
    font-size: 12px;
    font-weight: 600;
    color: #202323;
  }
}
.our-community .slider .content-wrapper .name-n-profile .sol {
  font-size: 18px;
  font-weight: 500;
  color: #707070;
}
@media screen and (max-width: 576px) {
  .our-community .slider .content-wrapper .name-n-profile .sol {
    font-size: 12px;
    font-weight: 500;
    color: #202323;
  }
}

/**********************************full-spectrum [ MOBILE PAGE ] ********************************/
.full-spectrum-outer {
  margin: 120px auto;
  display: flex;
  flex-direction: column;
  justify-content: center;
  align-items: center;
}
@media screen and (max-width: 992px) {
  .full-spectrum-outer {
    margin: 80px auto;
  }
}
@media screen and (max-width: 768px) {
  .full-spectrum-outer {
    margin: 60px auto;
  }
}

.full-spectrum-cards {
  display: flex;
  gap: 24px;
}
@media screen and (max-width: 1440px) {
  .full-spectrum-cards {
    flex-wrap: wrap;
    justify-content: center;
  }
}
@media screen and (max-width: 992px) {
  .full-spectrum-cards {
    gap: 12px;
  }
}

.full-spectrum-inner {
  padding: 25px;
  border-radius: 15px;
  background-color: #f9f9f9;
  width: 20%;
}
@media screen and (max-width: 1440px) {
  .full-spectrum-inner {
    width: 43%;
    padding: 14px;
  }
}
@media screen and (max-width: 992px) {
  .full-spectrum-inner {
    width: 39%;
  }
}
@media screen and (max-width: 576px) {
  .full-spectrum-inner {
    width: 100%;
  }
}
.full-spectrum-inner .spectrum {
  display: flex;
  align-items: center;
  gap: 10px;
  margin-bottom: 16px;
}
.full-spectrum-inner .spectrum .div {
  border-radius: 12px;
  background-color: #0096FF;
  padding: 12px;
  display: flex;
  justify-content: center;
  align-items: center;
}
@media screen and (max-width: 1440px) {
  .full-spectrum-inner .spectrum .div {
    width: 44px;
    height: 44px;
    padding: 0;
  }
  .full-spectrum-inner .spectrum .div img {
    width: 38px;
    height: 38px;
  }
}
.full-spectrum-inner .spectrum .div img {
  width: 100%;
}
@media screen and (max-width: 1440px) {
  .full-spectrum-inner .spectrum .div img {
    width: 38px;
    height: 38px;
  }
}
.full-spectrum-inner .spectrum .img-div2 {
  background-color: #BB64FF;
}
.full-spectrum-inner .spectrum .img-div3 {
  background-color: #F2416B;
}
.full-spectrum-inner .spectrum .img-div4 {
  background-color: #EB7500;
}
.full-spectrum-inner .spectrum .mobile {
  font-size: 18px;
  line-height: 30px;
  font-weight: 600;
  color: #202323;
}
@media screen and (max-width: 992px) {
  .full-spectrum-inner .spectrum .mobile {
    font-size: 16px;
    line-height: 26px;
    font-weight: 600;
    color: #202323;
  }
}
.full-spectrum-inner .card-content {
  margin: 0;
}

.fs-large-heading {
  text-align: center;
  font-size: 48px;
  line-height: 60px;
  font-weight: 600;
  color: #202323;
}
@media screen and (max-width: 1720px) {
  .fs-large-heading {
    font-size: 42px;
    line-height: 50px;
    font-weight: 600;
    color: #202323;
  }
}
@media screen and (max-width: 1440px) {
  .fs-large-heading {
    font-size: 34px;
    line-height: 40px;
    font-weight: 600;
    color: #202323;
    margin-bottom: 12px;
  }
}
@media screen and (max-width: 1200px) {
  .fs-large-heading {
    font-size: 30px;
    line-height: 36px;
    margin-bottom: 8px;
  }
}
@media screen and (max-width: 992px) {
  .fs-large-heading {
    font-size: 26px;
    line-height: 30px;
  }
}
@media screen and (max-width: 768px) {
  .fs-large-heading {
    font-size: 22px;
    line-height: 26px;
  }
}
@media screen and (max-width: 420px) {
  .fs-large-heading {
    font-size: 16px;
    line-height: 24px;
  }
}

.fs-normal-text {
  text-align: center;
  width: 40%;
}
@media screen and (max-width: 1440px) {
  .fs-normal-text {
    width: 60%;
  }
}
@media screen and (max-width: 992px) {
  .fs-normal-text {
    width: 80%;
  }
}

.services-we-offer {
  margin-bottom: 120px;
}
@media screen and (max-width: 992px) {
  .services-we-offer {
    margin-bottom: 80px;
  }
}
@media screen and (max-width: 576px) {
  .services-we-offer {
    margin-bottom: 60px;
  }
}
.services-we-offer .boxes-wrapper {
  display: flex;
  flex-direction: row;
  justify-content: center;
  align-items: center;
  flex-wrap: wrap;
  gap: 24px;
  margin-top: 40px;
}
@media screen and (max-width: 992px) {
  .services-we-offer .boxes-wrapper {
    gap: 12px;
  }
}
@media screen and (max-width: 768px) {
  .services-we-offer .boxes-wrapper {
    padding: 0;
  }
}
.services-we-offer .boxes-wrapper .box {
  width: calc(24% - 16px);
  height: 318px;
  border: 1px solid #E8E8E8;
  box-shadow: 0px 20px 80px 0px rgba(0, 0, 0, 0.0509803922);
  background-color: #ffffff;
  border-radius: 16px;
}
.services-we-offer .boxes-wrapper .box.small-box {
  width: calc(24% - 16px);
  height: 209px;
}
@media screen and (max-width: 1440px) {
  .services-we-offer .boxes-wrapper .box.small-box {
    width: calc(33% - 16px);
    height: 209px;
  }
}
@media screen and (max-width: 992px) {
  .services-we-offer .boxes-wrapper .box.small-box {
    width: calc(50% - 16px);
    height: 200px;
  }
}
@media screen and (max-width: 768px) {
  .services-we-offer .boxes-wrapper .box.small-box {
    width: 100%;
    height: auto;
  }
}
@media screen and (max-width: 1440px) {
  .services-we-offer .boxes-wrapper .box {
    width: calc(33% - 16px);
    height: 316px;
  }
}
@media screen and (max-width: 992px) {
  .services-we-offer .boxes-wrapper .box {
    width: calc(50% - 16px);
    height: 316px;
  }
}
@media screen and (max-width: 768px) {
  .services-we-offer .boxes-wrapper .box {
    width: 100%;
    height: auto;
  }
}
.services-we-offer .boxes-wrapper .box .logo {
  display: flex;
  flex-direction: row;
  justify-content: center;
  align-items: center;
  border-radius: 16px;
  width: 60px;
  height: 60px;
  position: absolute;
  top: -30px;
  left: 25px;
}
@media screen and (max-width: 1440px) {
  .services-we-offer .boxes-wrapper .box .logo {
    width: 44px;
    height: 44px;
    border-radius: 12px;
    top: -20px;
  }
  .services-we-offer .boxes-wrapper .box .logo img,
  .services-we-offer .boxes-wrapper .box .logo svg {
    width: 30px;
    height: 30px;
  }
}
.services-we-offer .boxes-wrapper .box .logo.logo-1 {
  background-color: #136DFB;
  box-shadow: 0px 10px 60px 0px rgba(19, 109, 251, 0.4);
}
.services-we-offer .boxes-wrapper .box .logo.logo-2 {
  background-color: #EB7500;
  box-shadow: 0px 10px 60px 0px rgba(235, 117, 0, 0.4);
}
.services-we-offer .boxes-wrapper .box .logo.logo-3 {
  background-color: #BB64FF;
  box-shadow: 0px 10px 60px 0px rgba(187, 100, 255, 0.4);
}
.services-we-offer .boxes-wrapper .box .logo.logo-4 {
  background-color: #F2416B;
  box-shadow: 0px 10px 60px 0px rgba(242, 65, 107, 0.4);
}
.services-we-offer .boxes-wrapper .box .logo.logo-5 {
  background-color: #BB64FF;
  box-shadow: 0px 10px 60px 0px rgba(187, 100, 255, 0.4);
}
.services-we-offer .boxes-wrapper .box .logo.logo-6 {
  background-color: #F2416B;
  box-shadow: 0px 10px 60px 0px rgba(242, 65, 107, 0.4);
}
.services-we-offer .boxes-wrapper .box .logo.logo-7 {
  background-color: #136DFB;
  box-shadow: 0px 10px 60px 0px rgba(19, 109, 251, 0.4);
}
.services-we-offer .boxes-wrapper .box .number {
  font-size: 24px;
  line-height: 24px;
  font-weight: 600;
  color: #EDEEED;
  position: absolute;
  top: 12px;
  right: 12px;
}
.services-we-offer .boxes-wrapper .box .box-heading {
  font-size: 24px;
  line-height: 36px;
  font-weight: 600;
  color: #202323;
}
@media screen and (max-width: 1440px) {
  .services-we-offer .boxes-wrapper .box .box-heading {
    font-size: 18px;
    line-height: 26px;
    font-weight: 600;
    color: #202323;
  }
}
.services-we-offer .boxes-wrapper .box .card-title {
  margin-top: 24px;
  margin-bottom: 6px;
}
.services-we-offer .boxes-wrapper .box .card-content {
  font-size: 14px;
  line-height: 26px;
  font-weight: 400;
  color: #707070;
  margin: 0;
}
@media screen and (max-width: 420px) {
  .services-we-offer .boxes-wrapper .box .card-content {
    font-size: 12px;
    line-height: 22px;
    font-weight: 400;
    color: #707070;
  }
}

/***************************** KEY FEATURES ********************************/
.kf-wrapper {
  padding: 120px 0;
  background-color: #f9f9f9;
}
@media screen and (max-width: 992px) {
  .kf-wrapper {
    padding: 80px 0;
  }
}
@media screen and (max-width: 576px) {
  .kf-wrapper {
    padding: 60px 0;
  }
}
.kf-wrapper .kf-main-content {
  width: 700px;
}
@media screen and (max-width: 768px) {
  .kf-wrapper .kf-main-content {
    width: 100%;
  }
}
.kf-wrapper .key-features .kf-boxes-wrapper {
  display: flex;
  flex-direction: row;
  justify-content: center;
  align-items: center;
  gap: 24px;
  margin-top: 40px;
}
@media screen and (max-width: 1440px) {
  .kf-wrapper .key-features .kf-boxes-wrapper {
    flex-wrap: wrap;
  }
}
@media screen and (max-width: 992px) {
  .kf-wrapper .key-features .kf-boxes-wrapper {
    display: flex;
    flex-direction: row;
    justify-content: start;
    align-items: center;
    flex-wrap: wrap;
    gap: 12px;
  }
}
.kf-wrapper .key-features .kf-boxes-wrapper .kf-box {
  border-radius: 16px;
  background-color: #ffffff;
  width: 313px;
  height: 170px;
}
@media screen and (max-width: 1720px) {
  .kf-wrapper .key-features .kf-boxes-wrapper .kf-box {
    width: 254px;
    height: 190px;
  }
}
@media screen and (max-width: 1440px) {
  .kf-wrapper .key-features .kf-boxes-wrapper .kf-box {
    padding: 14px;
    width: 243px;
    height: 178px;
  }
}
@media screen and (max-width: 1200px) {
  .kf-wrapper .key-features .kf-boxes-wrapper .kf-box {
    width: 297px;
    height: 156px;
  }
}
@media screen and (max-width: 992px) {
  .kf-wrapper .key-features .kf-boxes-wrapper .kf-box {
    width: 343px;
    height: 130px;
  }
}
@media screen and (max-width: 768px) {
  .kf-wrapper .key-features .kf-boxes-wrapper .kf-box {
    width: calc(50% - 7px);
    height: auto;
  }
}
@media screen and (max-width: 576px) {
  .kf-wrapper .key-features .kf-boxes-wrapper .kf-box {
    width: calc(100% - 7px);
    height: auto;
  }
}
.kf-wrapper .key-features .kf-boxes-wrapper .kf-box .box-heading {
  font-size: 18px;
  line-height: 22px;
  font-weight: 600;
  color: #136dfb;
  margin-bottom: 16px;
}
.kf-wrapper .key-features .kf-boxes-wrapper .kf-box .box-heading span {
  color: #202323;
  margin-right: 4px;
}
.kf-wrapper .key-features .kf-boxes-wrapper .kf-box .card-content {
  margin: 0;
}

/************************************ AI SOLUTIONS ***************************************/
@media screen and (max-width: 768px) {
  .ai-solutions {
    padding: 15px;
    box-sizing: border-box;
  }
}

.as-main-content {
  width: 936px;
}
@media screen and (max-width: 1440px) {
  .as-main-content {
    width: 700px;
  }
}
@media screen and (max-width: 992px) {
  .as-main-content {
    width: 569px;
  }
}
@media screen and (max-width: 768px) {
  .as-main-content {
    width: 513;
  }
}
@media screen and (max-width: 576px) {
  .as-main-content {
    width: 90%;
  }
}

.as-box {
  width: 345px;
  height: 190px;
  box-shadow: 0px 20px 80px 0px rgba(0, 0, 0, 0.0509803922);
  background-color: #ffffff;
  border: 1px solid #E8E8E8;
  border-radius: 12px;
}
@media screen and (max-width: 1720px) {
  .as-box {
    width: 315px;
    height: 190px;
  }
}
@media screen and (max-width: 1440px) {
  .as-box {
    width: auto;
  }
}
@media screen and (max-width: 768px) {
  .as-box {
    width: 100%;
    height: auto;
  }
}
.as-box .upper-part {
  display: flex;
  flex-direction: row;
  align-items: center;
  gap: 16px;
  position: absolute;
  top: 0px;
  left: 0px;
}
@media screen and (max-width: 1440px) {
  .as-box .upper-part {
    display: flex;
    flex-direction: row;
    align-items: center;
    gap: 12px;
  }
}
.as-box .upper-part .logo-wrapper {
  width: 58px;
  height: 58px;
  background-color: #ffffff;
  border-bottom-right-radius: 12px;
  border-right: 1px solid #E8E8E8;
  border-bottom: 1px solid #E8E8E8;
  padding: 0 8px 8px 0;
}
.as-box .upper-part .logo-wrapper::before {
  content: "";
  position: relative;
  display: block;
  top: -1px;
  left: -1px;
  width: calc(100% + 9px);
  height: calc(100% + 9px);
  background-color: #ffffff;
  border-bottom-right-radius: 12px;
}
.as-box .upper-part .logo-wrapper .logo {
  display: flex;
  justify-content: center;
  align-items: center;
  position: absolute;
  top: 0px;
  left: 0px;
  background-color: #202323;
  width: 50px;
  height: 50px;
  border-radius: 12px;
}
.as-box .box-heading {
  font-size: 24px;
  font-weight: 600;
  color: #136dfb;
}
@media screen and (max-width: 1440px) {
  .as-box .box-heading {
    width: calc(100% - 80px);
    font-size: 20px;
    font-weight: 600;
    color: #136dfb;
  }
}
@media screen and (max-width: 1200px) {
  .as-box .box-heading {
    font-size: 18px;
    font-weight: 600;
    color: #136dfb;
    width: 75%;
  }
}
@media screen and (max-width: 768px) {
  .as-box .box-heading {
    width: 90%;
  }
}
.as-box .inner-section-content {
  margin-top: 52px;
  margin-bottom: 0;
}

.ai-solutions {
  margin: 120px auto;
}
@media screen and (max-width: 992px) {
  .ai-solutions {
    margin: 80px auto;
  }
}
@media screen and (max-width: 576px) {
  .ai-solutions {
    margin: 60px auto;
  }
}
.ai-solutions .as-boxes {
  display: grid;
  justify-content: space-between;
  gap: 24px;
  grid-template-columns: repeat(4, auto);
  margin-top: 40px;
  padding: 0 90px;
}
@media screen and (max-width: 1720px) {
  .ai-solutions .as-boxes {
    padding: 0;
  }
}
@media screen and (max-width: 1440px) {
  .ai-solutions .as-boxes {
    grid-template-columns: repeat(3, auto);
  }
}
@media screen and (max-width: 992px) {
  .ai-solutions .as-boxes {
    grid-template-columns: repeat(2, auto);
    gap: 12px;
  }
}
@media screen and (max-width: 576px) {
  .ai-solutions .as-boxes {
    grid-template-columns: repeat(1, auto);
  }
}

/***************************** web-dev-apps-wrapper ********************************/
.web-dev-apps-wrapper {
  margin-bottom: 120px;
}
@media screen and (max-width: 992px) {
  .web-dev-apps-wrapper {
    margin-bottom: 80px;
  }
}
@media screen and (max-width: 576px) {
  .web-dev-apps-wrapper {
    margin-bottom: 60px;
  }
}
.web-dev-apps-wrapper .web-dev-apps-inner {
  padding: 50px 0;
}
@media screen and (max-width: 1200px) {
  .web-dev-apps-wrapper .web-dev-apps-inner {
    padding: 20px;
  }
}
.web-dev-apps-wrapper .web-dev-apps-inner .section {
  width: 100%;
  border-bottom: 1px solid #ebebeb;
  display: flex;
  flex-direction: row;
  justify-content: space-between;
  gap: 20px;
}
.web-dev-apps-wrapper .web-dev-apps-inner .section:last-child {
  border-bottom: 0;
}
@media screen and (max-width: 992px) {
  .web-dev-apps-wrapper .web-dev-apps-inner .section {
    flex-direction: column;
    padding: 20px 0;
    gap: 5px;
  }
}
.web-dev-apps-wrapper .web-dev-apps-inner .section .heading {
  display: flex;
  flex-direction: row;
  align-items: center;
  gap: 30px;
  font-weight: 600;
  color: #262626;
}
.web-dev-apps-wrapper .web-dev-apps-inner .section .heading .overlay {
  content: "";
  margin: auto;
  position: absolute;
  left: 25%;
  top: 0px;
  z-index: -1;
  height: 100%;
  width: 200px;
  background: linear-gradient(109.92deg, rgba(0, 149, 255, 0.3), rgba(187, 100, 255, 0.3), rgba(242, 65, 107, 0.3), rgba(235, 117, 0, 0.3));
  filter: blur(80px);
}
.web-dev-apps-wrapper .web-dev-apps-inner .section .heading .listing {
  position: relative;
  font-weight: 300;
  color: #262626;
}
.web-dev-apps-wrapper .web-dev-apps-inner .section .content {
  padding: 50px 0;
  width: calc(100% - 490px);
  display: flex;
  flex-direction: column;
  gap: 20px;
  box-sizing: border-box;
}
@media screen and (max-width: 1440px) {
  .web-dev-apps-wrapper .web-dev-apps-inner .section .content {
    padding: 30px;
    width: calc(100% - 350px);
  }
}
@media screen and (max-width: 992px) {
  .web-dev-apps-wrapper .web-dev-apps-inner .section .content {
    padding: 15px;
    width: 100%;
  }
}
.web-dev-apps-wrapper .web-dev-apps-inner .section .content .inner-content {
  font-size: 16px;
  line-height: 25px;
  font-weight: 500;
  color: #707070;
}
@media screen and (max-width: 992px) {
  .web-dev-apps-wrapper .web-dev-apps-inner .section .content .inner-content {
    font-size: 14px;
    line-height: 22px;
    font-weight: 500;
    color: #707070;
  }
}
@media screen and (max-width: 576px) {
  .web-dev-apps-wrapper .web-dev-apps-inner .section .content .inner-content {
    font-size: 12px;
    line-height: 18px;
    font-weight: 500;
    color: #707070;
  }
}
.web-dev-apps-wrapper .web-dev-apps-inner .section .content .list {
  display: flex;
  flex-direction: row;
  align-items: center;
  flex-wrap: wrap;
  gap: 10px;
}
.web-dev-apps-wrapper .web-dev-apps-inner .section .content .list .item {
  height: 45px;
  padding: 0 16px;
  border: 1px solid #707070;
  border-radius: 22.5px;
  list-style-type: none;
  display: flex;
  flex-direction: row;
  justify-content: center;
  align-items: center;
  font-size: 16px;
  line-height: 25px;
  font-weight: 500;
  color: #707070;
}
@media screen and (max-width: 992px) {
  .web-dev-apps-wrapper .web-dev-apps-inner .section .content .list .item {
    height: 38px;
    font-size: 14px;
    line-height: 22px;
    font-weight: 500;
    color: #707070;
  }
}
@media screen and (max-width: 576px) {
  .web-dev-apps-wrapper .web-dev-apps-inner .section .content .list .item {
    height: 32px;
    font-size: 12px;
    line-height: 18px;
    font-weight: 500;
    color: #707070;
  }
}

/*************************************** ed-banner *************************************/
.ed-banner .ed-banner-heading {
  width: 1200px;
}
@media screen and (max-width: 1200px) {
  .ed-banner .ed-banner-heading {
    width: 75%;
  }
}
@media screen and (max-width: 768px) {
  .ed-banner .ed-banner-heading {
    width: 90%;
  }
}
.ed-banner .ed-banner-content {
  width: 1020px;
}
@media screen and (max-width: 1200px) {
  .ed-banner .ed-banner-content {
    width: 75%;
  }
}
@media screen and (max-width: 768px) {
  .ed-banner .ed-banner-content {
    width: 90%;
  }
}
.ed-banner .banner-image {
  position: absolute;
  top: 90px;
  left: 50%;
}
@media screen and (max-width: 992px) {
  .ed-banner .banner-image {
    width: 328px;
    position: absolute;
    top: 160px;
    left: 50%;
  }
}
.ed-banner .banner-blur-circle-1 {
  filter: blur(290px);
}
.ed-banner .banner-circle-border {
  width: 701px;
  height: 701px;
  position: absolute;
  top: 100px;
  left: 50%;
  transform: translateX(-50%);
  border: 1px solid #E8E8E8;
}
@media screen and (max-width: 992px) {
  .ed-banner .banner-circle-border {
    width: 550px;
    height: 550px;
  }
}
@media screen and (max-width: 768px) {
  .ed-banner .banner-circle-border {
    width: 368px;
    height: 368px;
  }
}
@media screen and (max-width: 576px) {
  .ed-banner .banner-circle-border {
    display: none;
  }
}
.ed-banner .ed-inner-box {
  width: 1835px;
  height: 200px;
  top: 110px;
  left: 50%;
  transform: translate(-50%, -50%);
}
@media screen and (max-width: 992px) {
  .ed-banner .ed-inner-box {
    width: 1440px;
  }
}
@media screen and (max-width: 768px) {
  .ed-banner .ed-inner-box {
    width: 1104px;
  }
}
.ed-banner .ed-inner-box .img-circle {
  width: 61px;
  height: 61px;
  display: flex;
  justify-content: center;
  align-items: center;
}
@media screen and (max-width: 768px) {
  .ed-banner .ed-inner-box .img-circle {
    width: 40px;
    height: 40px;
  }
  .ed-banner .ed-inner-box .img-circle img {
    width: 30px;
    height: 30px;
  }
}
.ed-banner .ed-inner-box .light-circle {
  background-color: #ffffff;
  border: 1px solid rgba(19, 109, 251, 0.0509803922);
}
.ed-banner .ed-inner-box .dark-circle {
  width: 47px;
  height: 47px;
  background-color: #202323;
}
@media screen and (max-width: 768px) {
  .ed-banner .ed-inner-box .dark-circle {
    width: 40px;
    height: 40px;
  }
  .ed-banner .ed-inner-box .dark-circle img {
    width: 30px;
    height: 30px;
  }
}
.ed-banner .ed-inner-box .chair-n-bag {
  width: 424px;
  height: 73px;
  padding: 0 6px;
  border-radius: 36px;
}
@media screen and (max-width: 992px) {
  .ed-banner .ed-inner-box .chair-n-bag {
    width: 291px;
    height: auto;
    padding: 4px;
  }
}
.ed-banner .ed-inner-box .chair-n-bag.cb-top {
  background: #E8E8E8;
  display: flex;
  flex-direction: row;
  justify-content: space-between;
  align-items: center;
  position: absolute;
  top: 100px;
  left: 50%;
  transform: translateX(-50%);
}
@media screen and (max-width: 576px) {
  .ed-banner .ed-inner-box .chair-n-bag.cb-top {
    display: none !important;
  }
}
.ed-banner .ed-inner-box .chair-n-bag.cb-left {
  background: linear-gradient(90deg, #FFFFFF 0%, #EBEBEB 100%);
  display: flex;
  flex-direction: row;
  justify-content: end;
  align-items: center;
  position: absolute;
  top: 277px;
  left: 22%;
  transform: translateX(-50%);
}
@media screen and (max-width: 576px) {
  .ed-banner .ed-inner-box .chair-n-bag.cb-left {
    position: absolute;
    top: 100px;
    left: 29%;
  }
}
.ed-banner .ed-inner-box .chair-n-bag.cb-right {
  background: linear-gradient(90deg, #EBEBEB 0%, #FFFFFF 100%);
  display: flex;
  flex-direction: row;
  justify-content: start;
  align-items: center;
  position: absolute;
  top: 277px;
  left: 78%;
  transform: translateX(-50%);
}
@media screen and (max-width: 576px) {
  .ed-banner .ed-inner-box .chair-n-bag.cb-right {
    position: absolute;
    top: 100px;
    left: 72%;
  }
}
.ed-banner .ed-inner-box .logo-n-label {
  width: -moz-fit-content;
  width: fit-content;
}
@media screen and (max-width: 768px) {
  .ed-banner .ed-inner-box .logo-n-label .label {
    font-size: 12px;
  }
}
.ed-banner .ed-inner-box .logo-n-label.management {
  display: flex;
  flex-direction: row-reverse;
  justify-content: space-between;
  align-items: center;
  gap: 10px;
  position: absolute;
  top: 183px;
  left: 31%;
  transform: translateX(-50%);
}
@media screen and (max-width: 992px) {
  .ed-banner .ed-inner-box .logo-n-label.management {
    position: absolute;
    top: 183px;
    left: 27%;
  }
}
@media screen and (max-width: 576px) {
  .ed-banner .ed-inner-box .logo-n-label.management {
    display: none;
  }
}
.ed-banner .ed-inner-box .logo-n-label.efficiency {
  display: flex;
  flex-direction: row-reverse;
  justify-content: space-between;
  align-items: center;
  gap: 10px;
  position: absolute;
  top: 387px;
  left: 27%;
  transform: translateX(-50%);
}
@media screen and (max-width: 992px) {
  .ed-banner .ed-inner-box .logo-n-label.efficiency {
    position: absolute;
    top: 387px;
    left: 25%;
  }
}
@media screen and (max-width: 768px) {
  .ed-banner .ed-inner-box .logo-n-label.efficiency {
    position: absolute;
    top: 387px;
    left: 32%;
  }
}
@media screen and (max-width: 576px) {
  .ed-banner .ed-inner-box .logo-n-label.efficiency {
    display: none;
  }
}
.ed-banner .ed-inner-box .logo-n-label.shopping {
  display: flex;
  flex-direction: row;
  justify-content: space-between;
  align-items: center;
  gap: 10px;
  position: absolute;
  top: 183px;
  left: 68%;
  transform: translateX(-50%);
}
@media screen and (max-width: 992px) {
  .ed-banner .ed-inner-box .logo-n-label.shopping {
    position: absolute;
    top: 183px;
    left: 70%;
  }
}
@media screen and (max-width: 576px) {
  .ed-banner .ed-inner-box .logo-n-label.shopping {
    display: none;
  }
}
.ed-banner .ed-inner-box .logo-n-label.market {
  display: flex;
  flex-direction: row;
  justify-content: space-between;
  align-items: center;
  gap: 10px;
  position: absolute;
  top: 387px;
  left: 72%;
  transform: translateX(-50%);
}
@media screen and (max-width: 992px) {
  .ed-banner .ed-inner-box .logo-n-label.market {
    position: absolute;
    top: 387px;
    left: 73%;
  }
}
@media screen and (max-width: 768px) {
  .ed-banner .ed-inner-box .logo-n-label.market {
    position: absolute;
    top: 387px;
    left: 69%;
  }
}
@media screen and (max-width: 576px) {
  .ed-banner .ed-inner-box .logo-n-label.market {
    display: none;
  }
}

/********************************** VISION TO LIFE *************************************/
.vision-to-life {
  background-image: url("../../custom/images/bg-img.png");
  background-repeat: no-repeat;
  background-size: cover;
  display: flex;
  flex-direction: row;
  justify-content: start;
  align-items: center;
  background-position: right;
  padding: 0 90px;
  height: 460px;
  border-radius: 30px;
  margin: 120px auto;
}
@media screen and (max-width: 992px) {
  .vision-to-life {
    height: 380px;
    padding: 0 30px;
    margin: 80px auto;
    border-radius: 20px;
  }
}
@media screen and (max-width: 768px) {
  .vision-to-life {
    width: 96%;
    height: 250px;
  }
}
@media screen and (max-width: 576px) {
  .vision-to-life {
    border-radius: 8px;
    background-image: url("../../custom/images/CTA Section2.png");
    height: 213px;
    margin: 60px auto;
    padding: 0 15px;
    width: 94%;
  }
}
.vision-to-life .content {
  width: 838px;
}
@media screen and (max-width: 1440px) {
  .vision-to-life .content {
    width: 600px;
  }
}
@media screen and (max-width: 992px) {
  .vision-to-life .content {
    width: 400px;
  }
}
@media screen and (max-width: 576px) {
  .vision-to-life .content {
    width: 330px;
  }
}
@media screen and (max-width: 420px) {
  .vision-to-life .content {
    width: 215px;
  }
}
.vision-to-life .content .vision {
  color: #F2416B;
}
.vision-to-life .content .start {
  color: #136dfb;
}
.vision-to-life .content .primary-button {
  margin-top: 20px;
}

/********************************** REMARKABLE BENEFITS *************************************/
.cs-remarkable-benefits-wrapper {
  margin: 120px 0;
}
@media screen and (max-width: 992px) {
  .cs-remarkable-benefits-wrapper {
    margin: 80px 0;
  }
}
@media screen and (max-width: 768px) {
  .cs-remarkable-benefits-wrapper {
    padding: 15px;
    box-sizing: border-box;
  }
}
@media screen and (max-width: 576px) {
  .cs-remarkable-benefits-wrapper {
    margin: 60px 0;
  }
}
@media screen and (max-width: 992px) {
  .cs-remarkable-benefits-wrapper .section-heading {
    width: 700px;
    margin-right: auto;
    margin-left: auto;
  }
}
@media screen and (max-width: 768px) {
  .cs-remarkable-benefits-wrapper .section-heading {
    width: 100%;
  }
}
.cs-remarkable-benefits-wrapper .boxes-wrapper {
  box-shadow: 0px 20px 80px 0px rgba(0, 0, 0, 0.0509803922);
  border: 1px solid #E8E8E8;
  border-radius: 30px;
  display: grid;
  grid-template-columns: repeat(4, auto);
  justify-content: space-between;
  gap: 24px;
  margin-top: 40px;
}
@media screen and (max-width: 1440px) {
  .cs-remarkable-benefits-wrapper .boxes-wrapper {
    padding: 28px;
  }
}
@media screen and (max-width: 1200px) {
  .cs-remarkable-benefits-wrapper .boxes-wrapper {
    grid-template-columns: repeat(2, auto);
  }
}
@media screen and (max-width: 992px) {
  .cs-remarkable-benefits-wrapper .boxes-wrapper {
    gap: 12px;
    padding: 20px;
  }
}
@media screen and (max-width: 576px) {
  .cs-remarkable-benefits-wrapper .boxes-wrapper {
    grid-template-columns: repeat(1, auto);
  }
}
.cs-remarkable-benefits-wrapper .boxes-wrapper .box {
  width: 372px;
  height: auto;
  background-color: #f9f9f9;
  border-radius: 15px;
}
@media screen and (max-width: 1720px) {
  .cs-remarkable-benefits-wrapper .boxes-wrapper .box {
    width: 298px;
    height: auto;
  }
}
@media screen and (max-width: 1440px) {
  .cs-remarkable-benefits-wrapper .boxes-wrapper .box {
    width: 227px;
    height: auto;
    padding: 14px;
  }
}
@media screen and (max-width: 1200px) {
  .cs-remarkable-benefits-wrapper .boxes-wrapper .box {
    width: 100%;
    height: auto;
  }
}
.cs-remarkable-benefits-wrapper .boxes-wrapper .box .upper-part {
  margin-bottom: 18px;
  display: flex;
  flex-direction: row;
  align-items: center;
  gap: 15px;
}
@media screen and (max-width: 1440px) {
  .cs-remarkable-benefits-wrapper .boxes-wrapper .box .upper-part {
    margin-bottom: 10px;
    gap: 12px;
  }
}
.cs-remarkable-benefits-wrapper .boxes-wrapper .box .upper-part .logo {
  width: 60px;
  height: 60px;
  display: flex;
  justify-content: center;
  align-items: center;
  border-radius: 16px;
}
@media screen and (max-width: 1440px) {
  .cs-remarkable-benefits-wrapper .boxes-wrapper .box .upper-part .logo {
    border-radius: 12px;
    width: 44px;
    height: 44px;
  }
}
@media screen and (max-width: 1440px) {
  .cs-remarkable-benefits-wrapper .boxes-wrapper .box .upper-part .logo img,
  .cs-remarkable-benefits-wrapper .boxes-wrapper .box .upper-part .logo svg {
    width: 30px;
  }
}
.cs-remarkable-benefits-wrapper .boxes-wrapper .box .upper-part .logo.logo-1 {
  background-color: #136DFB;
  box-shadow: 0px 10px 60px 0px rgba(19, 109, 251, 0.4);
}
.cs-remarkable-benefits-wrapper .boxes-wrapper .box .upper-part .logo.logo-2 {
  background-color: #EB7500;
  box-shadow: 0px 10px 60px 0px rgba(235, 117, 0, 0.4);
}
.cs-remarkable-benefits-wrapper .boxes-wrapper .box .upper-part .logo.logo-3 {
  background-color: #BB64FF;
  box-shadow: 0px 10px 60px 0px rgba(187, 100, 255, 0.4);
}
.cs-remarkable-benefits-wrapper .boxes-wrapper .box .upper-part .logo.logo-4 {
  background-color: #F2416B;
  box-shadow: 0px 10px 60px 0px rgba(242, 65, 107, 0.4);
}
.cs-remarkable-benefits-wrapper .boxes-wrapper .box .upper-part .logo.logo-5 {
  background-color: #BB64FF;
  box-shadow: 0px 10px 60px 0px rgba(187, 100, 255, 0.4);
}
.cs-remarkable-benefits-wrapper .boxes-wrapper .box .upper-part .logo.logo-6 {
  background-color: #F2416B;
  box-shadow: 0px 10px 60px 0px rgba(242, 65, 107, 0.4);
}
.cs-remarkable-benefits-wrapper .boxes-wrapper .box .upper-part .logo.logo-7 {
  background-color: #136DFB;
  box-shadow: 0px 10px 60px 0px rgba(19, 109, 251, 0.4);
}
.cs-remarkable-benefits-wrapper .boxes-wrapper .box .upper-part .logo.logo-8 {
  background-color: #EB7500;
  box-shadow: 0px 10px 60px 0px rgba(235, 117, 0, 0.4);
}
.cs-remarkable-benefits-wrapper .boxes-wrapper .box .upper-part .box-heading {
  width: calc(100% - 60px);
  font-size: 24px;
  line-height: 30px;
  font-weight: 600;
  color: #202323;
}
@media screen and (max-width: 1720px) {
  .cs-remarkable-benefits-wrapper .boxes-wrapper .box .upper-part .box-heading {
    font-size: 20px;
    line-height: 24px;
    font-weight: 600;
    color: #202323;
  }
}
@media screen and (max-width: 1440px) {
  .cs-remarkable-benefits-wrapper .boxes-wrapper .box .upper-part .box-heading {
    font-size: 16px;
    line-height: 20px;
    font-weight: 600;
    color: #202323;
  }
}
.cs-remarkable-benefits-wrapper .boxes-wrapper .box .card-content {
  margin: 0;
}

/********************************** DIGITAL TRANSFORMATION *************************************/
.cs-digital-transform-wrapper {
  position: relative;
}
.cs-digital-transform-wrapper .overley {
  content: "";
  margin: auto;
  position: absolute;
  left: 25%;
  top: 0px;
  z-index: -1;
  height: 100%;
  width: 600px;
  background: linear-gradient(109.92deg, rgba(0, 149, 255, 0.3), rgba(187, 100, 255, 0.3), rgba(242, 65, 107, 0.3), rgba(235, 117, 0, 0.3));
  filter: blur(80px);
}
.cs-digital-transform-wrapper .digital-transformation {
  width: 100%;
  height: 520px;
  margin: 120px 0;
  overflow: hidden;
  border-radius: 30px;
  box-shadow: 0px 20px 80px 0px rgba(0, 0, 0, 0.0509803922);
  display: flex;
  flex-direction: row;
  justify-content: space-between;
}
@media screen and (max-width: 992px) {
  .cs-digital-transform-wrapper .digital-transformation {
    flex-direction: column;
    height: auto;
    margin: 80px 0;
  }
}
@media screen and (max-width: 576px) {
  .cs-digital-transform-wrapper .digital-transformation {
    margin: 60px 0;
  }
}
.cs-digital-transform-wrapper .digital-transformation .left-part {
  padding: 0 100px 0 84px;
  background-color: #ffffff;
  box-shadow: 0px 20px 80px 0px rgba(0, 0, 0, 0.5);
  display: flex;
  flex-direction: column;
  justify-content: center;
  border-top-right-radius: 30px;
  border-bottom-right-radius: 30px;
  box-sizing: border-box;
}
@media screen and (max-width: 1440px) {
  .cs-digital-transform-wrapper .digital-transformation .left-part {
    padding: 30px;
  }
}
@media screen and (max-width: 992px) {
  .cs-digital-transform-wrapper .digital-transformation .left-part {
    width: 100%;
    border-radius: 0;
    padding: 40px 20px;
  }
}
@media screen and (max-width: 576px) {
  .cs-digital-transform-wrapper .digital-transformation .left-part {
    padding: 20px;
  }
}
.cs-digital-transform-wrapper .digital-transformation .right-part {
  background-color: #ffffff;
  border-radius: 15px;
  display: flex;
  justify-content: center;
  align-items: center;
}
@media screen and (max-width: 1440px) {
  .cs-digital-transform-wrapper .digital-transformation .right-part {
    width: 45%;
  }
}
@media screen and (max-width: 992px) {
  .cs-digital-transform-wrapper .digital-transformation .right-part {
    width: 100%;
    border-top-right-radius: 30px;
    border-top-left-radius: 30px;
    border-bottom-right-radius: 0;
    border-bottom-left-radius: 0;
  }
  .cs-digital-transform-wrapper .digital-transformation .right-part img {
    width: 100%;
  }
}
.cs-digital-transform-wrapper .digital-transformation .z-img1 {
  position: absolute;
  z-index: 1;
  right: 0;
}
@media screen and (max-width: 992px) {
  .cs-digital-transform-wrapper .digital-transformation .z-img1 {
    display: none;
  }
}
.cs-digital-transform-wrapper .digital-transformation .circle4 {
  position: absolute;
  top: 0;
  right: 0;
  width: 400px;
  height: 400px;
  background-color: #c0bedd;
  filter: blur(125px);
}
@media screen and (max-width: 992px) {
  .cs-digital-transform-wrapper .digital-transformation .circle4 {
    display: none;
  }
}

/********************************** DIGITAL TRANSFORMATION *************************************/
.cs-great-solution {
  padding: 74px 0;
}
.cs-great-solution .section-heading {
  font-size: 38px;
  line-height: 46px;
  font-weight: 600;
  color: #202323;
  margin: 0;
}
@media screen and (max-width: 1440px) {
  .cs-great-solution .section-heading {
    font-size: 32px;
    line-height: 38px;
    font-weight: 600;
    color: #202323;
  }
}
@media screen and (max-width: 768px) {
  .cs-great-solution .section-heading {
    font-size: 28px;
    line-height: 32px;
    font-weight: 600;
    color: #202323;
  }
}
.cs-great-solution .right-img {
  position: absolute;
  top: 0px;
  right: 0px;
}
@media screen and (max-width: 1200px) {
  .cs-great-solution .right-img {
    width: 40%;
  }
}
.cs-great-solution .left-img {
  position: absolute;
  top: 0px;
  left: 0px;
}
@media screen and (max-width: 1200px) {
  .cs-great-solution .left-img {
    width: 40%;
  }
}
.cs-great-solution .circle {
  background-color: #c0bedd;
  width: 500px;
  height: 500px;
  filter: blur(100px);
}
.cs-great-solution .circle.left-circle {
  position: absolute;
  top: 0px;
  left: 0px;
}
.cs-great-solution .circle.right-circle {
  position: absolute;
  top: 0px;
  right: 0px;
}

/********************************** START YOUR PROJECT *************************************/
.start-your-project {
  overflow: hidden;
  padding: 120px 0;
  display: flex;
  flex-direction: column;
  justify-content: center;
  align-items: center;
}
@media screen and (max-width: 1200px) {
  .start-your-project {
    height: auto;
    padding: 100px 0;
  }
}
@media screen and (max-width: 576px) {
  .start-your-project {
    padding: 20px;
  }
}
.start-your-project .large-text {
  font-size: 38px;
  line-height: 60px;
  font-weight: 600;
  color: #202323;
}
@media screen and (max-width: 1200px) {
  .start-your-project .large-text {
    font-size: 28px;
    line-height: 60px;
    font-weight: 600;
    color: #202323;
  }
}
@media screen and (max-width: 576px) {
  .start-your-project .large-text {
    font-size: 18px;
    line-height: 60px;
    font-weight: 600;
    color: #202323;
  }
}
.start-your-project .normal-text {
  width: 47%;
  text-align: center;
  font-size: 14px;
  line-height: 25px;
  font-weight: 400;
  color: #707070;
}
@media screen and (max-width: 1400px) {
  .start-your-project .normal-text {
    width: 60%;
  }
}
@media screen and (max-width: 576px) {
  .start-your-project .normal-text {
    width: 90%;
    font-size: 12px;
    line-height: 20px;
    font-weight: 400;
    color: #707070;
  }
}
.start-your-project .right-side {
  position: absolute;
  top: -62px;
  right: 0px;
}
.start-your-project .left-side {
  position: absolute;
  bottom: -60px;
  left: -11px;
}
.start-your-project .ios-app-circle1 {
  background-color: #ABCCFF;
  filter: blur(170px);
  width: 400px;
  height: 400px;
  position: absolute;
  right: 40px;
  bottom: -120px;
}
.start-your-project .ios-app-circle2 {
  background-color: #ABCCFF;
  filter: blur(145px);
  width: 350px;
  height: 350px;
  border-radius: 50%;
  position: absolute;
  top: -60px;
  left: -60px;
}
.start-your-project .z-img2 {
  position: absolute;
  top: -15px;
  left: 0px;
  z-index: 0;
}
@media screen and (max-width: 1200px) {
  .start-your-project .z-img2 {
    display: none;
  }
}
.start-your-project .z-img3 {
  position: absolute;
  top: 11px;
  right: 0px;
  z-index: 0;
}
.start-your-project::before {
  content: "";
  position: absolute;
  top: -0.4px;
  right: -0.4px;
  bottom: -0.4px;
  left: -0.4px;
  border: 0.5px solid transparent;
  background: linear-gradient(109.92deg, #0096FF 12.78%, #BB64FF 37.63%, #F2416B 62.12%, #EB7500 87.3%);
  -webkit-mask: linear-gradient(#ffffff 0 0) content-box, linear-gradient(#ffffff 0 0);
  -webkit-mask-composite: destination-out;
  mask-composite: exclude;
  pointer-events: none;
  transition: all 0.4s ease;
  z-index: 0;
}

/**********************what-we-do********************/
.what-we-do {
  padding: 30px;
  background-color: #f9f9f9;
  border-radius: 30px;
  margin: 0 auto 120px auto;
  z-index: 1;
}
@media screen and (max-width: 768px) {
  .what-we-do {
    width: calc(100% - 30px);
    padding: 15px;
    border-radius: 20px;
  }
}
@media screen and (max-width: 576px) {
  .what-we-do {
    margin: 0 auto 50px auto;
  }
}
.what-we-do .mouse-gif {
  position: absolute;
  top: -140px;
  left: 50%;
  width: 60px;
  transform: translateX(-50%);
}
@media screen and (max-width: 1440px) {
  .what-we-do .mouse-gif {
    position: absolute;
    top: -105px;
  }
}
@media screen and (max-width: 992px) {
  .what-we-do .mouse-gif {
    position: absolute;
    top: -140px;
    left: 50%;
    transform: translateX(-50%);
    width: 45px;
  }
}
.what-we-do .section-heading {
  width: 860px;
}
@media screen and (max-width: 1200px) {
  .what-we-do .section-heading {
    width: 640px;
  }
}
@media screen and (max-width: 768px) {
  .what-we-do .section-heading {
    width: 100%;
  }
}
.what-we-do .boxes-wrapper {
  display: grid;
  grid-template-columns: repeat(4, 1fr);
  gap: 24px;
  margin-top: 40px;
}
@media screen and (max-width: 1440px) {
  .what-we-do .boxes-wrapper {
    grid-template-columns: repeat(2, 1fr);
  }
}
@media screen and (max-width: 992px) {
  .what-we-do .boxes-wrapper {
    gap: 12px;
  }
}
@media screen and (max-width: 768px) {
  .what-we-do .boxes-wrapper {
    grid-template-columns: repeat(1, 1fr);
    margin-top: 25px;
  }
}
.what-we-do .inner-box {
  border-radius: 15px;
  padding: 15px;
  background-color: #ffffff;
}
@media screen and (max-width: 768px) {
  .what-we-do .inner-box {
    padding: 20px;
  }
}
@media screen and (max-width: 576px) {
  .what-we-do .inner-box {
    padding: 10px;
  }
}
.what-we-do .inner-box .inner-box-heading {
  margin-bottom: 10px;
}
@media screen and (max-width: 1720px) {
  .what-we-do .inner-box .inner-box-heading {
    height: 72px;
  }
}
@media screen and (max-width: 1440px) {
  .what-we-do .inner-box .inner-box-heading {
    height: auto;
  }
}
@media screen and (max-width: 768px) {
  .what-we-do .inner-box .inner-box-heading {
    margin-bottom: 5px !important;
  }
}
@media screen and (max-width: 420px) {
  .what-we-do .inner-box .inner-box-heading {
    margin-bottom: 5px !important;
  }
}
@media screen and (max-width: 1720px) {
  .what-we-do .inner-box .section-content {
    height: 75px;
  }
}
@media screen and (max-width: 1440px) {
  .what-we-do .inner-box .section-content {
    height: 55px;
  }
}
@media screen and (max-width: 1200px) {
  .what-we-do .inner-box .section-content {
    height: 40px;
  }
}
@media screen and (max-width: 768px) {
  .what-we-do .inner-box .section-content {
    height: auto;
  }
}
.what-we-do .inner-box .main-img {
  width: 100%;
}
.what-we-do .inner-box .learn-more {
  overflow: hidden;
}
.what-we-do .inner-box .learn-more .learn-more-arrow {
  position: absolute;
  left: 0px;
  width: 28px;
  opacity: 0;
  visibility: hidden;
  transition: opacity 0.1s ease, visibility 0.1s ease;
}
.what-we-do .inner-box:hover .inner-box-heading {
  background: linear-gradient(270.13deg, #ff623f 19.37%, #bc1ae4 91.6%);
  -webkit-background-clip: text;
          background-clip: text;
  -webkit-text-fill-color: transparent;
}
.what-we-do .inner-box:hover .learn-more span {
  color: #0a51c9;
  transition: all 0.6s ease;
  padding-left: 34px;
  line-height: 16px;
  font-weight: 500;
}
.what-we-do .inner-box:hover .learn-more-arrow {
  opacity: 1;
  visibility: visible;
  position: absolute;
  top: -7px;
  left: 0px;
  transition: opacity 0.1s ease, visibility 0.1s ease;
  width: 28px;
}

/*********************[][][][][][]********************* HOME PAGE *******************[][][][][][]********************/
.the-lines {
  display: none !important;
}

.outer-box-home-page {
  background-color: #ffffff;
  top: 0;
  /***********************banner********************/
  /**********************why-choose-us*****************/
  /**********************our-strategy*****************/
  /**********************our-expertise*****************/
}
.outer-box-home-page .the-lines {
  position: absolute;
  top: 2125px;
  bottom: -40px;
  z-index: 1;
}
@media screen and (max-width: 1720pxpx) {
  .outer-box-home-page .the-lines {
    position: absolute;
    top: 2290px;
    left: -140px;
  }
}
@media screen and (max-width: 1440pxpx) {
  .outer-box-home-page .the-lines {
    position: absolute;
    top: 2030px;
    left: -285px;
  }
}
.outer-box-home-page .banner-left-circle {
  position: absolute;
  top: 100px;
  left: -600px;
  width: 895px;
  height: 895px;
  filter: blur(112px);
  background: radial-gradient(circle, #c0bedd 60%, rgba(192, 190, 221, 0) 100%);
}
.outer-box-home-page .banner-right-circle {
  position: absolute;
  top: 100px;
  right: -500px;
  width: 895px;
  height: 895px;
  filter: blur(96px);
  background-color: #e5eaf9;
}
.outer-box-home-page .bold-circle {
  position: absolute;
  top: 605px;
  left: 50%;
  transform: translateX(-50%);
}
@media screen and (max-width: 1440pxpx) {
  .outer-box-home-page .bold-circle {
    position: absolute;
    top: 400px;
  }
}
@media screen and (max-width: 992px) {
  .outer-box-home-page .bold-circle {
    position: absolute;
    top: 524px;
    left: 50%;
    transform: translateX(-50%);
  }
}
.outer-box-home-page .banner .left-z {
  position: absolute;
  top: 225px;
  left: 0px;
}
.outer-box-home-page .banner .right-z {
  position: absolute;
  top: 245px;
  right: 0px;
}
.outer-box-home-page .banner .banner-items-wrapper {
  display: flex;
  flex-direction: column;
  justify-content: center;
}
.outer-box-home-page .banner .banner-items-wrapper .banner-heading {
  font-family: "Jost", sans-serif;
  width: 1350px;
  font-size: 70.63px;
  line-height: 90.75px;
  font-weight: 800;
  background: linear-gradient(90.25deg, #0096ff 0.14%, #bb64ff 28.32%, #f2416b 71.8%, #eb7500 95.68%);
  -webkit-background-clip: text;
          background-clip: text;
  -webkit-text-fill-color: transparent;
  margin: 40px auto 30px auto;
  position: relative;
  z-index: 1;
}
@media screen and (max-width: 1440px) {
  .outer-box-home-page .banner .banner-items-wrapper .banner-heading {
    width: 900px;
    font-size: 55.63px;
    line-height: 79.75px;
  }
}
@media screen and (max-width: 1200px) {
  .outer-box-home-page .banner .banner-items-wrapper .banner-heading {
    width: 895px;
  }
}
@media screen and (max-width: 992px) {
  .outer-box-home-page .banner .banner-items-wrapper .banner-heading {
    width: 651px;
    margin-bottom: 20px;
    font-size: 42.63px;
    line-height: 58.75px;
  }
}
@media screen and (max-width: 768px) {
  .outer-box-home-page .banner .banner-items-wrapper .banner-heading {
    position: relative;
    padding: 0 20px;
    width: 550px;
  }
}
@media screen and (max-width: 576px) {
  .outer-box-home-page .banner .banner-items-wrapper .banner-heading {
    margin: 0 0 20px 0;
    width: 416px;
    text-align: start;
    font-size: 40px;
    line-height: 50px;
    font-weight: 700;
    word-wrap: break-word;
  }
}
@media screen and (max-width: 420px) {
  .outer-box-home-page .banner .banner-items-wrapper .banner-heading {
    font-size: 26px;
    line-height: 36px;
    font-weight: 700;
  }
}
.outer-box-home-page .banner .banner-items-wrapper .banner-heading .ai-gif {
  height: 130px;
  position: absolute;
  top: 70px;
  left: 800px;
}
@media screen and (max-width: 1440px) {
  .outer-box-home-page .banner .banner-items-wrapper .banner-heading .ai-gif {
    width: 100px;
    height: 100px;
    position: absolute;
    top: 68px;
    left: 667px;
  }
}
@media screen and (max-width: 992px) {
  .outer-box-home-page .banner .banner-items-wrapper .banner-heading .ai-gif {
    width: 70px;
    height: 70px;
    position: absolute;
    top: 113px;
    left: 237px;
  }
}
@media screen and (max-width: 768px) {
  .outer-box-home-page .banner .banner-items-wrapper .banner-heading .ai-gif {
    position: absolute;
    top: 168px;
    left: 110px;
  }
}
@media screen and (max-width: 576px) {
  .outer-box-home-page .banner .banner-items-wrapper .banner-heading .ai-gif {
    position: absolute;
    top: 139px;
    left: 129px;
  }
}
@media screen and (max-width: 420px) {
  .outer-box-home-page .banner .banner-items-wrapper .banner-heading .ai-gif {
    width: 48px;
    height: 48px;
    position: absolute;
    top: 67px;
    left: 92px;
  }
}
.outer-box-home-page .banner .banner-items-wrapper .banner-content {
  width: 650px;
  font-size: 16px;
  line-height: 24px;
  font-weight: 500;
  color: #707070;
  margin: 0 auto 40px auto;
}
@media screen and (max-width: 1200px) {
  .outer-box-home-page .banner .banner-items-wrapper .banner-content {
    font-size: 14px;
    line-height: 18px;
    font-weight: 500;
    color: #707070;
    margin-top: 12px;
    width: 75%;
  }
}
@media screen and (max-width: 992px) {
  .outer-box-home-page .banner .banner-items-wrapper .banner-content {
    margin: 0 auto 20px auto;
  }
}
@media screen and (max-width: 768px) {
  .outer-box-home-page .banner .banner-items-wrapper .banner-content {
    position: relative;
    z-index: 1;
    margin-bottom: 30px;
    padding: 0 20px;
    width: 90%;
  }
}
@media screen and (max-width: 576px) {
  .outer-box-home-page .banner .banner-items-wrapper .banner-content {
    text-align: start;
    margin: 0 0 20px 0;
    width: 100%;
  }
}
@media screen and (max-width: 420px) {
  .outer-box-home-page .banner .banner-items-wrapper .banner-content {
    font-size: 12px;
    line-height: 14px;
    font-weight: 500;
    color: #707070;
  }
}
.outer-box-home-page .banner .banner-items-wrapper button {
  z-index: 1;
}
@media screen and (max-width: 576px) {
  .outer-box-home-page .banner .banner-items-wrapper button {
    margin: 0 auto 0 15px;
  }
}
.outer-box-home-page .banner .banner-bg-circles {
  width: 895px;
  height: 895px;
  filter: blur(244px);
  border-radius: 50%;
}
.outer-box-home-page .why-choose-us {
  position: relative;
}
.outer-box-home-page .why-choose-us::before {
  position: absolute;
  content: "";
  background-color: #f9f9f9;
  width: 1470px;
  height: 694px;
  border-radius: 30px;
  z-index: 0;
  top: 50%;
  left: 50%;
  transform: translate(-50%, -50%);
}
@media screen and (max-width: 1720px) {
  .outer-box-home-page .why-choose-us::before {
    width: 1420px;
  }
}
@media screen and (max-width: 1440px) {
  .outer-box-home-page .why-choose-us::before {
    width: 1160px;
    height: 952px;
  }
}
@media screen and (max-width: 1200px) {
  .outer-box-home-page .why-choose-us::before {
    width: 1074px;
  }
}
@media screen and (max-width: 768px) {
  .outer-box-home-page .why-choose-us::before {
    display: none;
  }
}
@media screen and (max-width: 768px) {
  .outer-box-home-page .why-choose-us {
    box-sizing: border-box;
    padding: 0 15px;
  }
}
.outer-box-home-page .why-choose-us .circle-gif {
  position: absolute;
  bottom: -120px;
  left: 510px;
}
@media screen and (max-width: 1720px) {
  .outer-box-home-page .why-choose-us .circle-gif {
    position: absolute;
    bottom: -120px;
    left: 410px;
  }
}
@media screen and (max-width: 1440px) {
  .outer-box-home-page .why-choose-us .circle-gif {
    position: absolute;
    bottom: -60px;
    left: 265px;
  }
}
@media screen and (max-width: 992px) {
  .outer-box-home-page .why-choose-us .circle-gif {
    left: 135px;
  }
}
@media screen and (max-width: 576px) {
  .outer-box-home-page .why-choose-us .circle-gif {
    display: none;
  }
}
.outer-box-home-page .why-choose-us .section-heading {
  width: 100%;
}
@media screen and (max-width: 1200px) {
  .outer-box-home-page .why-choose-us .section-heading {
    width: 520px;
  }
}
@media screen and (max-width: 576px) {
  .outer-box-home-page .why-choose-us .section-heading {
    width: 100%;
  }
}
.outer-box-home-page .why-choose-us .section-content {
  width: 100%;
  margin: 10px auto 40px auto;
}
@media screen and (max-width: 576px) {
  .outer-box-home-page .why-choose-us .section-content {
    width: 100%;
    margin: 10px auto 24px auto;
  }
}
.outer-box-home-page .why-choose-us .choose-div {
  margin-bottom: 180px;
  display: flex;
  flex-direction: row;
  justify-content: space-between;
  flex-wrap: wrap;
  gap: 24px;
}
@media screen and (max-width: 768px) {
  .outer-box-home-page .why-choose-us .choose-div {
    padding: 0;
    gap: 15px;
  }
}
@media screen and (max-width: 576px) {
  .outer-box-home-page .why-choose-us .choose-div {
    margin-bottom: 50px;
    flex-direction: column;
  }
}
@media screen and (max-width: 420px) {
  .outer-box-home-page .why-choose-us .choose-div {
    top: -420px;
  }
}
.outer-box-home-page .why-choose-us .choose-div .item {
  cursor: pointer;
  border-radius: 15px;
  padding: 20px;
  overflow: hidden;
  background: linear-gradient(to right, #307ffc, #a1c6ff, #136dfb);
  box-sizing: border-box;
  border: 4px solid #ffffff;
  width: 388px;
  height: 374px;
  display: flex;
  flex-direction: column;
  justify-content: start;
  display: flex;
  align-items: "";
  justify-content: "";
  flex-direction: column;
  flex-wrap: "";
  position: relative;
}
@media screen and (max-width: 1720px) {
  .outer-box-home-page .why-choose-us .choose-div .item {
    width: 318px;
    height: 355px;
  }
}
@media screen and (max-width: 1440px) {
  .outer-box-home-page .why-choose-us .choose-div .item {
    padding: 14px;
    width: 48%;
    height: 322px;
  }
}
@media screen and (max-width: 640px) {
  .outer-box-home-page .why-choose-us .choose-div .item {
    width: 100%;
  }
}
@media screen and (max-width: 420px) {
  .outer-box-home-page .why-choose-us .choose-div .item {
    height: 305px;
    margin-top: 0;
  }
}
.outer-box-home-page .why-choose-us .choose-div .item .small-circle1 {
  width: 23%;
  position: absolute;
  left: "";
  top: 10px;
  right: 10px;
  bottom: "";
  z-index: "";
  transition: transform 0.5s ease-in;
}
.outer-box-home-page .why-choose-us .choose-div .item .small-circle2 {
  width: 23%;
  position: absolute;
  left: 50px;
  top: "";
  right: "";
  bottom: 60px;
  z-index: "";
  transition: transform 0.5s ease-in;
}
.outer-box-home-page .why-choose-us .choose-div .item .big-circle {
  width: 30%;
  position: absolute;
  left: "";
  top: "";
  right: 0;
  bottom: 0;
  z-index: "";
  transition: transform 0.2s ease-in;
}
.outer-box-home-page .why-choose-us .choose-div .item .z-img {
  width: 250px;
  position: absolute;
  top: 0px;
  left: 135px;
}
.outer-box-home-page .why-choose-us .choose-div .item h1 {
  text-align: start;
  animation: texth1 0.5s ease-in-out;
  margin: 0;
  font-size: 48px;
  font-weight: 600;
  color: #ffffff;
}
@media screen and (max-width: 1440px) {
  .outer-box-home-page .why-choose-us .choose-div .item h1 {
    font-size: 40px;
    font-weight: 600;
    color: #ffffff;
  }
}
@media screen and (max-width: 992px) {
  .outer-box-home-page .why-choose-us .choose-div .item h1 {
    font-size: 35px;
    font-weight: 600;
    color: #ffffff;
  }
}
@media screen and (max-width: 420px) {
  .outer-box-home-page .why-choose-us .choose-div .item h1 {
    font-size: 30px;
    font-weight: 600;
    color: #ffffff;
  }
}
.outer-box-home-page .why-choose-us .choose-div .item .h2 {
  display: none;
  text-align: start;
}
.outer-box-home-page .why-choose-us .choose-div .item h2 {
  text-align: start;
  font-size: 38px;
  line-height: 40px;
  font-weight: 300;
  color: #ffffff;
  animation: texth2 0.5s ease-in-out;
}
@media screen and (max-width: 1440px) {
  .outer-box-home-page .why-choose-us .choose-div .item h2 {
    font-size: 28px;
    line-height: 32px;
    font-weight: 300;
    color: #ffffff;
    margin: 16px 0;
  }
}
@media screen and (max-width: 1200px) {
  .outer-box-home-page .why-choose-us .choose-div .item h2 {
    font-size: 24px;
    line-height: 28px;
    font-weight: 300;
    color: #ffffff;
  }
}
.outer-box-home-page .why-choose-us .choose-div .item .list {
  list-style-type: none;
  box-sizing: border-box;
  margin-top: 70px;
  -webkit-backdrop-filter: blur(10px);
          backdrop-filter: blur(10px);
  background-color: rgba(215, 215, 215, 0.2);
  border-radius: 15px;
  padding: 10px;
  width: 90%;
  z-index: 1;
  bottom: 15px;
  left: 50%;
  transform: translateX(-50%);
  border: 1.79px solid rgba(215, 215, 215, 0.2);
  list-style-type: disc;
  list-style-position: outside;
  display: flex;
  align-items: "";
  justify-content: "";
  flex-direction: column;
  flex-wrap: "";
  position: absolute;
}
.outer-box-home-page .why-choose-us .choose-div .item .list li {
  list-style-type: none;
  padding-left: 16px;
  text-align: start;
  position: relative;
  font-size: 14px;
  line-height: 20px;
  font-weight: 500;
  color: #ffffff;
}
.outer-box-home-page .why-choose-us .choose-div .item .list li::before {
  content: "";
  width: 8px;
  height: 8px;
  background-color: #ffffff;
  border-radius: 50%;
  position: absolute;
  top: 6px;
  left: 0px;
}
@media screen and (max-width: 420px) {
  .outer-box-home-page .why-choose-us .choose-div .item .list li {
    font-size: 12px;
    line-height: 18px;
    font-weight: 500;
    color: #ffffff;
  }
}
.outer-box-home-page .why-choose-us .choose-div .item:hover {
  background: linear-gradient(to right, #0096ff, #bb64ff, #f2416b, #eb7500) border-box;
  border: 4px solid #ffffff;
}
.outer-box-home-page .why-choose-us .choose-div .item:hover h1 {
  animation: moveInOut 0.5s ease-in-out, moveIn 0.5s 0.5s ease-in-out;
  opacity: 0.5;
}
.outer-box-home-page .why-choose-us .choose-div .item:hover h2 {
  animation: moveInOut2 0.5s ease-in-out, moveIn2 0.5s 0.5s ease-in-out;
  font-weight: 500;
}
.outer-box-home-page .why-choose-us .choose-div .item:hover .big-circle {
  transform: translateX(90%);
}
.outer-box-home-page .why-choose-us .choose-div .item:hover .small-circle1 {
  transform: translateX(100%);
}
.outer-box-home-page .why-choose-us .choose-div .item:hover .small-circle2 {
  transform: translateX(-200%);
}
.outer-box-home-page .our-strategy {
  background-color: #f9f9f9;
  margin: 270px 0 300px 0;
  display: flex;
  flex-direction: row;
  gap: 92px;
  padding: 30px 0 20px 0;
}
@media screen and (max-width: 1200px) {
  .outer-box-home-page .our-strategy {
    margin: 200px 0 120px 0;
    padding: 0;
  }
}
@media screen and (max-width: 576px) {
  .outer-box-home-page .our-strategy {
    margin: 120px 0 120px 0;
  }
}
@media screen and (max-width: 1200px) {
  .outer-box-home-page .our-strategy .section-heading {
    margin-top: 10px;
  }
}
.outer-box-home-page .our-strategy .left-right-part-wrapper {
  display: flex;
  flex-direction: row;
  justify-content: space-between;
  gap: 10px;
}
@media screen and (max-width: 992px) {
  .outer-box-home-page .our-strategy .left-right-part-wrapper {
    display: flex;
    flex-direction: column;
    gap: 0px;
  }
}
@media screen and (max-width: 576px) {
  .outer-box-home-page .our-strategy .left-right-part-wrapper {
    display: flex;
    flex-direction: column;
    padding-bottom: 50px;
  }
}
.outer-box-home-page .our-strategy .right-boxes {
  margin-top: 50px;
}
@media screen and (max-width: 768px) {
  .outer-box-home-page .our-strategy .right-boxes {
    margin-top: 0;
  }
}
.outer-box-home-page .our-strategy .left-part {
  width: 710px;
}
@media screen and (max-width: 1720px) {
  .outer-box-home-page .our-strategy .left-part {
    width: 590px;
  }
}
@media screen and (max-width: 1440px) {
  .outer-box-home-page .our-strategy .left-part {
    height: auto;
  }
}
.outer-box-home-page .our-strategy .left-part .section-heading {
  margin: 10px 0 20px 0;
}
@media screen and (max-width: 992px) {
  .outer-box-home-page .our-strategy .left-part .section-heading {
    margin: 5px 0 10px 0;
  }
}
@media screen and (max-width: 1200pxpx) {
  .outer-box-home-page .our-strategy .left-part .section-content {
    margin: 0px 0 24px 0;
  }
}
@media screen and (max-width: 576px) {
  .outer-box-home-page .our-strategy .left-part .wcu-btn {
    margin-top: 24px;
  }
}
@media screen and (max-width: 992px) {
  .outer-box-home-page .our-strategy .left-part {
    width: 100%;
  }
}
.outer-box-home-page .our-strategy .right-part {
  display: flex;
  flex-direction: row;
  gap: 26px;
}
@media screen and (max-width: 992px) {
  .outer-box-home-page .our-strategy .right-part {
    justify-content: center;
    padding: 12px;
  }
}
@media screen and (max-width: 576px) {
  .outer-box-home-page .our-strategy .right-part {
    padding: 8px;
    display: flex;
    flex-direction: row;
    gap: 10px;
  }
}
@media screen and (max-width: 576px) {
  .outer-box-home-page .our-strategy .right-part .left-boxes,
  .outer-box-home-page .our-strategy .right-part .right-boxes {
    width: calc(50% - 5px);
  }
}
.outer-box-home-page .our-strategy .right-part .gradient-border {
  border-radius: 16px;
  padding: 15px;
  width: 355px;
  height: 190px;
}
@media screen and (max-width: 1720px) {
  .outer-box-home-page .our-strategy .right-part .gradient-border {
    width: 276px;
  }
}
@media screen and (max-width: 992px) {
  .outer-box-home-page .our-strategy .right-part .gradient-border {
    width: 321px;
  }
}
@media screen and (max-width: 768px) {
  .outer-box-home-page .our-strategy .right-part .gradient-border {
    width: 100%;
  }
}
@media screen and (max-width: 576px) {
  .outer-box-home-page .our-strategy .right-part .gradient-border {
    padding: 10px;
    height: 150px;
  }
}
@media screen and (max-width: 420px) {
  .outer-box-home-page .our-strategy .right-part .gradient-border {
    height: 170px;
  }
}
.outer-box-home-page .our-strategy .right-part .gradient-border .inner-box {
  border-radius: 15px;
  z-index: 4;
}
.outer-box-home-page .our-strategy .right-part .gradient-border .inner-box .box-logo {
  width: 40px;
  height: 40px;
  display: flex;
  flex-direction: row;
  justify-content: center;
  align-items: center;
  border-radius: 8px;
  background-color: #202323;
}
@media screen and (max-width: 576px) {
  .outer-box-home-page .our-strategy .right-part .gradient-border .inner-box .box-logo {
    width: 32px;
    height: 32px;
  }
}
@media screen and (max-width: 576px) {
  .outer-box-home-page .our-strategy .right-part .gradient-border .inner-box .box-logo img {
    width: 16px;
    height: 16px;
  }
}
.outer-box-home-page .our-strategy .right-part .gradient-border .inner-box .box-title {
  font-size: 20px;
  line-height: 25px;
  font-weight: 600;
  color: #202323;
  margin: 15px 0 10px 0;
}
@media screen and (max-width: 576px) {
  .outer-box-home-page .our-strategy .right-part .gradient-border .inner-box .box-title {
    margin: 12px 0 6px 0;
    font-size: 16px;
    line-height: 25px;
    font-weight: 600;
    color: #202323;
  }
}
.outer-box-home-page .our-strategy .right-part .gradient-border .inner-box .gb-content {
  margin: 6px 0;
}
.outer-box-home-page .our-strategy .right-part .gradient-border .circle {
  position: absolute;
  right: -42px;
  bottom: -50px;
  width: 220px;
  height: 220px;
  background: radial-gradient(circle, #c0bedd 100%, #c0bedd 100%);
  filter: blur(80px);
  z-index: 2;
}
.outer-box-home-page .our-strategy .right-part .gradient-border .snake {
  position: absolute;
  right: 0px;
  bottom: 0px;
  z-index: 2;
}
.outer-box-home-page .our-strategy .right-part .gradient-border .white-overlay {
  position: absolute;
  top: 0px;
  right: 0px;
  width: 0%;
  height: 100%;
  background-color: #ffffff;
  border-radius: 16px;
  z-index: 3;
}
.outer-box-home-page .our-strategy .right-part .gradient-border .white-inner-overlay {
  position: absolute;
  top: 0px;
  right: 0px;
  width: 0%;
  height: 100%;
  background-color: #ffffff;
  border-radius: 16px;
  z-index: 1;
}
.outer-box-home-page .our-strategy .right-part .gradient-border::before {
  content: "";
  position: absolute;
  top: 0px;
  right: 0px;
  bottom: 0px;
  left: 0px;
  border-radius: 16px;
  border: 1px solid transparent;
  background: linear-gradient(109.92deg, #0096ff 12.78%, #bb64ff 37.63%, #f2416b 62.12%, #eb7500 87.3%);
  -webkit-mask: linear-gradient(#ffffff 0 0) content-box, linear-gradient(#ffffff 0 0);
  -webkit-mask-composite: destination-out;
  mask-composite: exclude;
  pointer-events: none;
  transition: all 0.4s ease;
  z-index: 0;
}
.outer-box-home-page .our-strategy .right-part .gradient-border:hover {
  box-shadow: 0px 30px 60px 0px rgba(0, 0, 0, 0.2);
}
.outer-box-home-page .our-strategy .right-part .gradient-border:hover .white-inner-overlay {
  width: 100%;
}
.outer-box-home-page .our-strategy .right-part .gradient-border:hover .box-logo {
  background: linear-gradient(136.29deg, #0096ff -4.39%, #bb64ff 32.56%, #f2416b 83.66%, #eb7500 106.92%);
  transition: all 0.3s ease;
}
.outer-box-home-page .our-strategy .right-part .gradient-border:hover .box-logo img {
  width: 28px;
  transition: width 0.4s ease;
  box-shadow: 0px 8px 25px 0px rgba(19, 109, 251, 0.4);
}
.outer-box-home-page .our-strategy .right-part .lower-box {
  margin: 48px 0 0 16px;
}
@media screen and (max-width: 768px) {
  .outer-box-home-page .our-strategy .right-part .lower-box {
    margin: 20px 0 0 0;
  }
}
@media screen and (max-width: 576px) {
  .outer-box-home-page .our-strategy .right-part .lower-box {
    margin: 10px 0 0 0;
  }
}
.outer-box-home-page .our-expertise {
  margin-bottom: 123px;
}
@media screen and (max-width: 576px) {
  .outer-box-home-page .our-expertise {
    box-sizing: border-box;
    padding: 35px 15px;
    margin-bottom: 60px;
  }
}
@media screen and (max-width: 1720px) {
  .outer-box-home-page .our-expertise .wcu-heading {
    width: 650px;
    margin: 0 auto;
  }
}
@media screen and (max-width: 768px) {
  .outer-box-home-page .our-expertise .wcu-heading {
    width: 100%;
    margin: 0 auto;
  }
}
@media screen and (max-width: 1200px) {
  .outer-box-home-page .our-expertise .section-heading {
    margin-top: 10px;
  }
}
.outer-box-home-page .our-expertise .lower-part {
  display: flex;
  flex-direction: row;
  align-items: center;
  background-color: transparent;
  margin: 100px 0 120px 0;
  padding: 0 15px;
}
@media screen and (max-width: 992px) {
  .outer-box-home-page .our-expertise .lower-part {
    margin: 100px 0 60px 0;
  }
}
@media screen and (max-width: 576px) {
  .outer-box-home-page .our-expertise .lower-part {
    margin: 36px 0 0 0;
  }
}
.outer-box-home-page .our-expertise .lower-part .tech-circles {
  width: 100%;
  height: 600px;
  position: relative;
  overflow: visible;
}
@media screen and (max-width: 992px) {
  .outer-box-home-page .our-expertise .lower-part .tech-circles {
    height: 530px;
  }
}
@media screen and (max-width: 768px) {
  .outer-box-home-page .our-expertise .lower-part .tech-circles {
    height: auto;
    display: grid;
    grid-template-columns: repeat(3, 1fr);
    place-items: center;
    gap: 24px;
  }
}
@media screen and (max-width: 375px) {
  .outer-box-home-page .our-expertise .lower-part .tech-circles {
    grid-template-columns: repeat(2, 1fr);
  }
}
.outer-box-home-page .our-expertise .lower-part .tech-circles .line-lg {
  position: absolute;
  left: 50%;
  transform: translateX(-50%);
}
@media screen and (max-width: 768px) {
  .outer-box-home-page .our-expertise .lower-part .tech-circles .line-lg {
    display: none;
  }
}
.outer-box-home-page .our-expertise .lower-part .tech-circles .line-sm {
  position: absolute;
  left: 50%;
  transform: translateX(-50%);
}
@media screen and (min-width: 768px) {
  .outer-box-home-page .our-expertise .lower-part .tech-circles .line-sm {
    display: none;
    width: 100%;
  }
}
.outer-box-home-page .our-expertise .lower-part .tech-circles .tech-circle {
  display: flex;
  flex-direction: column;
  justify-content: center;
  align-items: center;
  gap: 20px;
}
@media screen and (max-width: 1200px) {
  .outer-box-home-page .our-expertise .lower-part .tech-circles .tech-circle {
    display: flex;
    flex-direction: column;
    justify-content: center;
    align-items: center;
    gap: 8px;
  }
}
.outer-box-home-page .our-expertise .lower-part .tech-circles .tech-circle.angular {
  position: absolute;
  top: -74px;
  left: 47%;
}
@media screen and (max-width: 1200px) {
  .outer-box-home-page .our-expertise .lower-part .tech-circles .tech-circle.angular {
    position: absolute;
    top: -40px;
    left: 47%;
  }
}
@media screen and (max-width: 768px) {
  .outer-box-home-page .our-expertise .lower-part .tech-circles .tech-circle.angular {
    position: relative;
    top: unset;
    left: unset;
  }
}
.outer-box-home-page .our-expertise .lower-part .tech-circles .tech-circle.laravel {
  position: absolute;
  top: -36px;
  left: 26%;
}
@media screen and (max-width: 1720px) {
  .outer-box-home-page .our-expertise .lower-part .tech-circles .tech-circle.laravel {
    position: absolute;
    top: -55px;
    left: 26%;
  }
}
@media screen and (max-width: 1440px) {
  .outer-box-home-page .our-expertise .lower-part .tech-circles .tech-circle.laravel {
    position: absolute;
    top: -58px;
    left: 24%;
  }
}
@media screen and (max-width: 1200px) {
  .outer-box-home-page .our-expertise .lower-part .tech-circles .tech-circle.laravel {
    position: absolute;
    top: -25px;
    left: 24%;
  }
}
@media screen and (max-width: 768px) {
  .outer-box-home-page .our-expertise .lower-part .tech-circles .tech-circle.laravel {
    position: relative;
    top: unset;
    left: unset;
  }
}
.outer-box-home-page .our-expertise .lower-part .tech-circles .tech-circle.java {
  position: absolute;
  top: -36px;
  left: 68%;
}
@media screen and (max-width: 1720px) {
  .outer-box-home-page .our-expertise .lower-part .tech-circles .tech-circle.java {
    position: absolute;
    top: -55px;
    left: 68%;
  }
}
@media screen and (max-width: 1440px) {
  .outer-box-home-page .our-expertise .lower-part .tech-circles .tech-circle.java {
    position: absolute;
    top: -67px;
    left: 66%;
  }
}
@media screen and (max-width: 1200px) {
  .outer-box-home-page .our-expertise .lower-part .tech-circles .tech-circle.java {
    position: absolute;
    top: -34px;
    left: 66%;
  }
}
@media screen and (max-width: 768px) {
  .outer-box-home-page .our-expertise .lower-part .tech-circles .tech-circle.java {
    position: relative;
    top: unset;
    left: unset;
  }
}
.outer-box-home-page .our-expertise .lower-part .tech-circles .tech-circle.tensorflow {
  position: absolute;
  top: 87px;
  left: 6%;
}
@media screen and (max-width: 1720px) {
  .outer-box-home-page .our-expertise .lower-part .tech-circles .tech-circle.tensorflow {
    position: absolute;
    top: 15px;
    left: 6%;
  }
}
@media screen and (max-width: 1440px) {
  .outer-box-home-page .our-expertise .lower-part .tech-circles .tech-circle.tensorflow {
    position: absolute;
    top: -23px;
    left: 3%;
  }
}
@media screen and (max-width: 1200px) {
  .outer-box-home-page .our-expertise .lower-part .tech-circles .tech-circle.tensorflow {
    position: absolute;
    top: 11px;
    left: 3%;
  }
}
@media screen and (max-width: 768px) {
  .outer-box-home-page .our-expertise .lower-part .tech-circles .tech-circle.tensorflow {
    position: relative;
    top: unset;
    left: unset;
  }
}
.outer-box-home-page .our-expertise .lower-part .tech-circles .tech-circle.pytorch {
  position: absolute;
  top: 87px;
  left: 87%;
}
@media screen and (max-width: 1720px) {
  .outer-box-home-page .our-expertise .lower-part .tech-circles .tech-circle.pytorch {
    position: absolute;
    top: 15px;
    left: 87%;
  }
}
@media screen and (max-width: 1440px) {
  .outer-box-home-page .our-expertise .lower-part .tech-circles .tech-circle.pytorch {
    position: absolute;
    top: -37px;
    left: 84%;
  }
}
@media screen and (max-width: 1200px) {
  .outer-box-home-page .our-expertise .lower-part .tech-circles .tech-circle.pytorch {
    position: absolute;
    top: -7px;
    left: 84%;
  }
}
@media screen and (max-width: 768px) {
  .outer-box-home-page .our-expertise .lower-part .tech-circles .tech-circle.pytorch {
    position: relative;
    top: unset;
    left: unset;
  }
}
.outer-box-home-page .our-expertise .lower-part .tech-circles .tech-circle.node {
  position: absolute;
  top: 190px;
  left: 16%;
}
@media screen and (max-width: 1720px) {
  .outer-box-home-page .our-expertise .lower-part .tech-circles .tech-circle.node {
    position: absolute;
    top: 150px;
    left: 18%;
  }
}
@media screen and (max-width: 1200px) {
  .outer-box-home-page .our-expertise .lower-part .tech-circles .tech-circle.node {
    position: absolute;
    top: 164px;
    left: 18%;
  }
}
@media screen and (max-width: 768px) {
  .outer-box-home-page .our-expertise .lower-part .tech-circles .tech-circle.node {
    position: relative;
    top: unset;
    left: unset;
  }
}
.outer-box-home-page .our-expertise .lower-part .tech-circles .tech-circle.flutter {
  position: absolute;
  top: 130px;
  left: 59%;
}
@media screen and (max-width: 1200px) {
  .outer-box-home-page .our-expertise .lower-part .tech-circles .tech-circle.flutter {
    position: absolute;
    top: 163px;
    left: 59%;
  }
}
@media screen and (max-width: 768px) {
  .outer-box-home-page .our-expertise .lower-part .tech-circles .tech-circle.flutter {
    position: relative;
    top: unset;
    left: unset;
  }
}
.outer-box-home-page .our-expertise .lower-part .tech-circles .tech-circle.react {
  position: absolute;
  top: 120px;
  left: 38%;
}
@media screen and (max-width: 1200px) {
  .outer-box-home-page .our-expertise .lower-part .tech-circles .tech-circle.react {
    position: absolute;
    top: 154px;
    left: 38%;
  }
}
@media screen and (max-width: 768px) {
  .outer-box-home-page .our-expertise .lower-part .tech-circles .tech-circle.react {
    position: relative;
    top: unset;
    left: unset;
  }
}
.outer-box-home-page .our-expertise .lower-part .tech-circles .tech-circle.python {
  position: absolute;
  top: 200px;
  left: 76%;
}
@media screen and (max-width: 1720px) {
  .outer-box-home-page .our-expertise .lower-part .tech-circles .tech-circle.python {
    position: absolute;
    top: 150px;
    left: 74%;
  }
}
@media screen and (max-width: 1200px) {
  .outer-box-home-page .our-expertise .lower-part .tech-circles .tech-circle.python {
    position: absolute;
    top: 170px;
    left: 75%;
  }
}
@media screen and (max-width: 768px) {
  .outer-box-home-page .our-expertise .lower-part .tech-circles .tech-circle.python {
    position: relative;
    top: unset;
    left: unset;
  }
}
.outer-box-home-page .our-expertise .lower-part .tech-circles .tech-circle.adobe-xd {
  position: absolute;
  top: 316px;
  left: 48%;
}
@media screen and (max-width: 1200px) {
  .outer-box-home-page .our-expertise .lower-part .tech-circles .tech-circle.adobe-xd {
    position: absolute;
    top: 345px;
    left: 48%;
  }
}
@media screen and (max-width: 768px) {
  .outer-box-home-page .our-expertise .lower-part .tech-circles .tech-circle.adobe-xd {
    position: relative;
    top: unset;
    left: unset;
  }
}
.outer-box-home-page .our-expertise .lower-part .tech-circles .tech-circle.devops {
  position: absolute;
  top: 350px;
  left: 66%;
}
@media screen and (max-width: 1200px) {
  .outer-box-home-page .our-expertise .lower-part .tech-circles .tech-circle.devops {
    position: absolute;
    top: 365px;
    left: 66%;
  }
}
@media screen and (max-width: 768px) {
  .outer-box-home-page .our-expertise .lower-part .tech-circles .tech-circle.devops {
    position: relative;
    top: unset;
    left: unset;
  }
}
.outer-box-home-page .our-expertise .lower-part .tech-circles .tech-circle.figma {
  position: absolute;
  top: 350px;
  left: 30%;
}
@media screen and (max-width: 1200px) {
  .outer-box-home-page .our-expertise .lower-part .tech-circles .tech-circle.figma {
    position: absolute;
    top: 365px;
    left: 30%;
  }
}
@media screen and (max-width: 768px) {
  .outer-box-home-page .our-expertise .lower-part .tech-circles .tech-circle.figma {
    position: relative;
    top: unset;
    left: unset;
  }
}
.outer-box-home-page .our-expertise .lower-part .tech-circles .tech-circle .text {
  font-size: 21px;
  line-height: 26px;
  font-weight: 600;
}
@media screen and (max-width: 1200px) {
  .outer-box-home-page .our-expertise .lower-part .tech-circles .tech-circle .text {
    font-size: 14px;
    line-height: 18px;
    font-weight: 600;
  }
}
.outer-box-home-page .our-expertise .lower-part .tech-circles .tech-circle .text.angular-text {
  color: #C3002F;
}
.outer-box-home-page .our-expertise .lower-part .tech-circles .tech-circle .text.laravel-text {
  color: #FF2D20;
}
.outer-box-home-page .our-expertise .lower-part .tech-circles .tech-circle .text.java-text {
  color: #0E8AC8;
}
.outer-box-home-page .our-expertise .lower-part .tech-circles .tech-circle .text.tensorflow-text {
  color: #FF6F00;
}
.outer-box-home-page .our-expertise .lower-part .tech-circles .tech-circle .text.pytorch-text {
  color: #EE4C2C;
}
.outer-box-home-page .our-expertise .lower-part .tech-circles .tech-circle .text.node-text {
  color: #404137;
}
.outer-box-home-page .our-expertise .lower-part .tech-circles .tech-circle .text.react-text {
  color: #66C0FF;
}
.outer-box-home-page .our-expertise .lower-part .tech-circles .tech-circle .text.flutter-text {
  color: #00569E;
}
.outer-box-home-page .our-expertise .lower-part .tech-circles .tech-circle .text.python-text {
  color: #3775AA;
}
.outer-box-home-page .our-expertise .lower-part .tech-circles .tech-circle .text.figma-text {
  color: #F24E1E;
}
.outer-box-home-page .our-expertise .lower-part .tech-circles .tech-circle .text.adobe-xd-text {
  color: #FF61F6;
}
.outer-box-home-page .our-expertise .lower-part .tech-circles .tech-circle .text.devops-text {
  color: #0D2C40;
}
.outer-box-home-page .our-expertise .lower-part .tech-circles .tech-circle .circle {
  display: flex;
  flex-direction: row;
  justify-content: center;
  align-items: center;
  box-shadow: 0px 37.63px 75.26px 0px rgba(0, 0, 0, 0.2);
  background-color: #ffffff;
}
.outer-box-home-page .our-expertise .lower-part .tech-circles .tech-circle .circle.angular-circle {
  border: 2px solid #AF052E;
  width: 160px;
  height: 160px;
}
@media screen and (max-width: 1200px) {
  .outer-box-home-page .our-expertise .lower-part .tech-circles .tech-circle .circle.angular-circle {
    width: 83px;
    height: 83px;
  }
}
.outer-box-home-page .our-expertise .lower-part .tech-circles .tech-circle .circle.angular-circle img {
  width: 97px;
  height: 106px;
}
@media screen and (max-width: 1200px) {
  .outer-box-home-page .our-expertise .lower-part .tech-circles .tech-circle .circle.angular-circle img {
    width: 51px;
    height: 56px;
  }
}
.outer-box-home-page .our-expertise .lower-part .tech-circles .tech-circle .circle.laravel-circle {
  border: 2px solid #F12B1E;
  width: 154px;
  height: 154px;
}
@media screen and (max-width: 1200px) {
  .outer-box-home-page .our-expertise .lower-part .tech-circles .tech-circle .circle.laravel-circle {
    width: 81px;
    height: 81px;
  }
}
.outer-box-home-page .our-expertise .lower-part .tech-circles .tech-circle .circle.laravel-circle img {
  width: 90px;
  height: 90px;
}
@media screen and (max-width: 1200px) {
  .outer-box-home-page .our-expertise .lower-part .tech-circles .tech-circle .circle.laravel-circle img {
    width: 47px;
    height: 47px;
  }
}
.outer-box-home-page .our-expertise .lower-part .tech-circles .tech-circle .circle.java-circle {
  border: 2px solid #0E8AC8;
  width: 160px;
  height: 160px;
}
@media screen and (max-width: 1200px) {
  .outer-box-home-page .our-expertise .lower-part .tech-circles .tech-circle .circle.java-circle {
    width: 84px;
    height: 84px;
  }
}
.outer-box-home-page .our-expertise .lower-part .tech-circles .tech-circle .circle.java-circle img {
  width: 96px;
  height: 96px;
}
@media screen and (max-width: 1200px) {
  .outer-box-home-page .our-expertise .lower-part .tech-circles .tech-circle .circle.java-circle img {
    width: 50px;
    height: 50px;
  }
}
.outer-box-home-page .our-expertise .lower-part .tech-circles .tech-circle .circle.tensorflow-circle {
  border: 2px solid #FF6F00;
  width: 148px;
  height: 148px;
}
@media screen and (max-width: 1200px) {
  .outer-box-home-page .our-expertise .lower-part .tech-circles .tech-circle .circle.tensorflow-circle {
    width: 78px;
    height: 78px;
  }
}
.outer-box-home-page .our-expertise .lower-part .tech-circles .tech-circle .circle.tensorflow-circle img {
  width: 82px;
  height: 82px;
}
@media screen and (max-width: 1200px) {
  .outer-box-home-page .our-expertise .lower-part .tech-circles .tech-circle .circle.tensorflow-circle img {
    width: 43px;
    height: 43px;
  }
}
.outer-box-home-page .our-expertise .lower-part .tech-circles .tech-circle .circle.pytorch-circle {
  border: 2px solid #EE4C2C;
  width: 171px;
  height: 171px;
}
@media screen and (max-width: 1200px) {
  .outer-box-home-page .our-expertise .lower-part .tech-circles .tech-circle .circle.pytorch-circle {
    width: 90px;
    height: 90px;
  }
}
.outer-box-home-page .our-expertise .lower-part .tech-circles .tech-circle .circle.pytorch-circle img {
  width: 86px;
  height: 104px;
}
@media screen and (max-width: 1200px) {
  .outer-box-home-page .our-expertise .lower-part .tech-circles .tech-circle .circle.pytorch-circle img {
    width: 45px;
    height: 54px;
  }
}
.outer-box-home-page .our-expertise .lower-part .tech-circles .tech-circle .circle.node-circle {
  border: 2px solid #83CD29;
  width: 174px;
  height: 174px;
}
@media screen and (max-width: 1200px) {
  .outer-box-home-page .our-expertise .lower-part .tech-circles .tech-circle .circle.node-circle {
    width: 91px;
    height: 91px;
  }
}
.outer-box-home-page .our-expertise .lower-part .tech-circles .tech-circle .circle.node-circle img {
  width: 130px;
  height: 130px;
}
@media screen and (max-width: 1200px) {
  .outer-box-home-page .our-expertise .lower-part .tech-circles .tech-circle .circle.node-circle img {
    width: 68px;
    height: 68px;
  }
}
.outer-box-home-page .our-expertise .lower-part .tech-circles .tech-circle .circle.react-circle {
  border: 2px solid #66C0FF;
  width: 150px;
  height: 150px;
}
@media screen and (max-width: 1200px) {
  .outer-box-home-page .our-expertise .lower-part .tech-circles .tech-circle .circle.react-circle {
    width: 80px;
    height: 80px;
  }
}
.outer-box-home-page .our-expertise .lower-part .tech-circles .tech-circle .circle.react-circle img {
  width: 94px;
  height: 94px;
}
@media screen and (max-width: 1200px) {
  .outer-box-home-page .our-expertise .lower-part .tech-circles .tech-circle .circle.react-circle img {
    width: 49px;
    height: 49px;
  }
}
.outer-box-home-page .our-expertise .lower-part .tech-circles .tech-circle .circle.flutter-circle {
  border: 2px solid #00569E;
  width: 141px;
  height: 141px;
}
@media screen and (max-width: 1200px) {
  .outer-box-home-page .our-expertise .lower-part .tech-circles .tech-circle .circle.flutter-circle {
    width: 74px;
    height: 74px;
  }
}
.outer-box-home-page .our-expertise .lower-part .tech-circles .tech-circle .circle.flutter-circle img {
  width: 84px;
  height: 84px;
}
@media screen and (max-width: 1200px) {
  .outer-box-home-page .our-expertise .lower-part .tech-circles .tech-circle .circle.flutter-circle img {
    width: 44px;
    height: 44px;
  }
}
.outer-box-home-page .our-expertise .lower-part .tech-circles .tech-circle .circle.python-circle {
  border: 2px solid #3775AA;
  width: 160px;
  height: 160px;
}
@media screen and (max-width: 1200px) {
  .outer-box-home-page .our-expertise .lower-part .tech-circles .tech-circle .circle.python-circle {
    width: 84px;
    height: 84px;
  }
}
.outer-box-home-page .our-expertise .lower-part .tech-circles .tech-circle .circle.python-circle img {
  width: 106px;
  height: 106px;
}
@media screen and (max-width: 1200px) {
  .outer-box-home-page .our-expertise .lower-part .tech-circles .tech-circle .circle.python-circle img {
    width: 56px;
    height: 56px;
  }
}
.outer-box-home-page .our-expertise .lower-part .tech-circles .tech-circle .circle.figma-circle {
  border: 2px solid #F24E1E;
  width: 136px;
  height: 136px;
}
@media screen and (max-width: 1200px) {
  .outer-box-home-page .our-expertise .lower-part .tech-circles .tech-circle .circle.figma-circle {
    width: 71px;
    height: 71px;
  }
}
.outer-box-home-page .our-expertise .lower-part .tech-circles .tech-circle .circle.figma-circle img {
  width: 80px;
  height: 80px;
}
@media screen and (max-width: 1200px) {
  .outer-box-home-page .our-expertise .lower-part .tech-circles .tech-circle .circle.figma-circle img {
    width: 42px;
    height: 42px;
  }
}
.outer-box-home-page .our-expertise .lower-part .tech-circles .tech-circle .circle.adobe-xd-circle {
  border: 2px solid #FF61F6;
  width: 150px;
  height: 150px;
}
@media screen and (max-width: 1200px) {
  .outer-box-home-page .our-expertise .lower-part .tech-circles .tech-circle .circle.adobe-xd-circle {
    width: 80px;
    height: 80px;
  }
}
.outer-box-home-page .our-expertise .lower-part .tech-circles .tech-circle .circle.adobe-xd-circle img {
  width: 72px;
  height: 70px;
}
@media screen and (max-width: 1200px) {
  .outer-box-home-page .our-expertise .lower-part .tech-circles .tech-circle .circle.adobe-xd-circle img {
    width: 37px;
    height: 39px;
  }
}
.outer-box-home-page .our-expertise .lower-part .tech-circles .tech-circle .circle.devops-circle {
  border: 2px solid #0D2C40;
  width: 136px;
  height: 136px;
}
@media screen and (max-width: 1200px) {
  .outer-box-home-page .our-expertise .lower-part .tech-circles .tech-circle .circle.devops-circle {
    width: 72px;
    height: 72px;
  }
}
.outer-box-home-page .our-expertise .lower-part .tech-circles .tech-circle .circle.devops-circle img {
  width: 90px;
  height: 90px;
}
@media screen and (max-width: 1200px) {
  .outer-box-home-page .our-expertise .lower-part .tech-circles .tech-circle .circle.devops-circle img {
    width: 47px;
    height: 47px;
  }
}
.outer-box-home-page .our-expertise .lower-part .tech-circles .tech-circle:hover .circle {
  transition: all 0.5s ease-in;
  transform: scale(0.8);
  box-shadow: none;
  border: 1px solid #EAEAEA;
}
.outer-box-home-page .our-expertise .lower-part .tech-circles .tech-circle:hover .text {
  transition: transform 3s linear, opacity 1s ease-in-out;
  transform: translateY(-108px);
  opacity: 0;
}

@keyframes texth1 {
  0% {
    transform: translateY(-120%);
    opacity: 0.5;
  }
  100% {
    transform: translateY(0);
    opacity: 1;
  }
}
@keyframes texth2 {
  0% {
    transform: translateX(-120%);
  }
  100% {
    transform: translateX(0);
…
@media screen and (max-width: 1200px) {
  .outer-box-appmod-page .ui-banner .user-box-right {
    position: absolute;
    top: 316px;
    right: 61px;
  }
}
@media screen and (max-width: 992px) {
  .outer-box-appmod-page .ui-banner .user-box-right {
    position: absolute;
    top: 295px;
    right: 10px;
  }
}
@media screen and (max-width: 768px) {
  .outer-box-appmod-page .ui-banner .user-box-right {
    position: absolute;
    top: 167px;
    right: 10px;
  }
}
@media screen and (max-width: 576px) {
  .outer-box-appmod-page .ui-banner .user-box-right {
    position: absolute;
    top: 149px;
    right: 10px;
  }
}
.outer-box-appmod-page .ui-banner .user-box-left {
  position: absolute;
  top: 330px;
  left: 265px;
}
@media screen and (max-width: 1720px) {
  .outer-box-appmod-page .ui-banner .user-box-left {
    position: absolute;
    top: 367px;
    left: 144px;
  }
}
@media screen and (max-width: 1200px) {
  .outer-box-appmod-page .ui-banner .user-box-left {
    position: absolute;
    top: 367px;
    left: 10px;
  }
}
@media screen and (max-width: 992px) {
  .outer-box-appmod-page .ui-banner .user-box-left {
    position: absolute;
    top: 179px;
    left: 10px;
  }
}
@media screen and (max-width: 768px) {
  .outer-box-appmod-page .ui-banner .user-box-left {
    position: absolute;
    top: 167px;
    left: 10px;
  }
}
@media screen and (max-width: 576px) {
  .outer-box-appmod-page .ui-banner .user-box-left {
    position: absolute;
    top: 149px;
    left: 10px;
  }
}
.outer-box-appmod-page .ui-banner .left-inner-line {
  position: absolute;
  top: 211px;
  left: -14px;
}
@media screen and (max-width: 1720px) {
  .outer-box-appmod-page .ui-banner .left-inner-line {
    position: absolute;
    top: 239px;
    left: -126px;
  }
}
@media screen and (max-width: 1200px) {
  .outer-box-appmod-page .ui-banner .left-inner-line {
    position: absolute;
    top: 149px;
    left: -307px;
  }
}
@media screen and (max-width: 992px) {
  .outer-box-appmod-page .ui-banner .left-inner-line {
    display: none;
  }
}
.outer-box-appmod-page .ui-banner .left-line-box {
  position: absolute;
  top: 262px;
  left: 40px;
}
@media screen and (max-width: 992px) {
  .outer-box-appmod-page .ui-banner .left-line-box {
    position: absolute;
    top: 99px;
    left: 20px;
  }
}
@media screen and (max-width: 768px) {
  .outer-box-appmod-page .ui-banner .left-line-box {
    position: absolute;
    top: 95px;
    left: 20px;
  }
}
.outer-box-appmod-page .ui-banner .right-inner-line {
  position: absolute;
  top: 167px;
  right: -115px;
}
@media screen and (max-width: 1720px) {
  .outer-box-appmod-page .ui-banner .right-inner-line {
    position: absolute;
    top: 184px;
    right: -240px;
  }
}
@media screen and (max-width: 1200px) {
  .outer-box-appmod-page .ui-banner .right-inner-line {
    position: absolute;
    top: 133px;
    right: -423px;
  }
}
@media screen and (max-width: 992px) {
  .outer-box-appmod-page .ui-banner .right-inner-line {
    display: none;
  }
}
.outer-box-appmod-page .ui-banner .right-line-box {
  position: absolute;
  top: 231px;
  right: 107px;
}
@media screen and (max-width: 1720px) {
  .outer-box-appmod-page .ui-banner .right-line-box {
    position: absolute;
    top: 214px;
    right: 93px;
  }
}
@media screen and (max-width: 992px) {
  .outer-box-appmod-page .ui-banner .right-line-box {
    position: absolute;
    top: 214px;
    right: 20px;
  }
}
@media screen and (max-width: 768px) {
  .outer-box-appmod-page .ui-banner .right-line-box {
    position: absolute;
    top: 97px;
    right: 20px;
  }
}
.outer-box-appmod-page .ui-banner .banner-image {
  top: 60px;
}
@media screen and (max-width: 992px) {
  .outer-box-appmod-page .ui-banner .banner-image {
    top: 126px;
    width: 356px;
  }
}
@media screen and (max-width: 768px) {
  .outer-box-appmod-page .ui-banner .banner-image {
    top: 160px;
    width: 322px;
  }
}
@media screen and (max-width: 576px) {
  .outer-box-appmod-page .ui-banner .banner-image {
    width: 300px;
    left: 50%;
    top: 184px;
  }
}

/*********************[][][][][][]*********************MOBILE APP CONSULTING *******************[][][][][][]********************/
.outer-box-mobile-page .ui-banner .ui-banner-details .inner-banner-heading {
  width: 1188px;
}
@media screen and (max-width: 1200px) {
  .outer-box-mobile-page .ui-banner .ui-banner-details .inner-banner-heading {
    width: 75%;
  }
}
@media screen and (max-width: 768px) {
  .outer-box-mobile-page .ui-banner .ui-banner-details .inner-banner-heading {
    width: 90%;
  }
}
.outer-box-mobile-page .ui-banner .ui-banner-details .inner-banner-content {
  width: 649px;
}
@media screen and (max-width: 1200px) {
  .outer-box-mobile-page .ui-banner .ui-banner-details .inner-banner-content {
    width: 75%;
  }
}
@media screen and (max-width: 768px) {
  .outer-box-mobile-page .ui-banner .ui-banner-details .inner-banner-content {
    width: 90%;
  }
}
.outer-box-mobile-page .ui-banner .left-line-box {
  position: absolute;
  top: 270px;
  left: 92px;
}
@media screen and (max-width: 768px) {
  .outer-box-mobile-page .ui-banner .left-line-box {
    top: 161px;
    left: 70px;
  }
}
@media screen and (max-width: 576px) {
  .outer-box-mobile-page .ui-banner .left-line-box {
    top: -63px;
    left: -205px;
  }
}
.outer-box-mobile-page .ui-banner .left-line-box .left-inner-line {
  position: absolute;
  top: -60px;
  left: -150px;
}
.outer-box-mobile-page .ui-banner .right-line-box {
  position: absolute;
  top: 222px;
  right: 130px;
}
@media screen and (max-width: 768px) {
  .outer-box-mobile-page .ui-banner .right-line-box {
    top: 188px;
    right: 80px;
  }
}
@media screen and (max-width: 576px) {
  .outer-box-mobile-page .ui-banner .right-line-box {
    top: -88px;
  }
}
.outer-box-mobile-page .ui-banner .right-line-box .right-inner-line {
  position: absolute;
  top: -40px;
  right: -145px;
}
@media screen and (max-width: 992px) {
  .outer-box-mobile-page .ui-banner .banner-image {
    transform: translateX(-38%);
  }
}
@media screen and (max-width: 768px) {
  .outer-box-mobile-page .ui-banner .banner-image {
    transform: translateX(-31%);
    width: 300px;
    top: 196px;
  }
}
@media screen and (max-width: 576px) {
  .outer-box-mobile-page .ui-banner .banner-image {
    top: 191px;
  }
}
.outer-box-mobile-page .ui-banner .user-box-left {
  position: absolute;
  top: 330px;
  left: 450px;
}
@media screen and (max-width: 1720px) {
  .outer-box-mobile-page .ui-banner .user-box-left {
    position: absolute;
    top: 380px;
    left: 305px;
  }
}
@media screen and (max-width: 1440px) {
  .outer-box-mobile-page .ui-banner .user-box-left {
    position: absolute;
    top: 380px;
    left: 56px;
  }
}
@media screen and (max-width: 768px) {
  .outer-box-mobile-page .ui-banner .user-box-left {
    position: absolute;
    top: 100px;
    left: 56px;
  }
}
@media screen and (max-width: 576px) {
  .outer-box-mobile-page .ui-banner .user-box-left {
    position: absolute;
    top: 144px;
    left: 6px;
  }
}
@media screen and (max-width: 768px) {
  .outer-box-mobile-page .ui-banner .user-box-left .banner-icon {
    width: 28px;
    height: 28px;
  }
}
@media screen and (max-width: 768px) {
  .outer-box-mobile-page .ui-banner .user-box-left .banner-icon img {
    width: 18px;
    height: 18px;
  }
}
.outer-box-mobile-page .ui-banner .user-box-left span {
  font-size: 16px;
  line-height: 24px;
  font-weight: 600;
  color: #202323;
}
@media screen and (max-width: 768px) {
  .outer-box-mobile-page .ui-banner .user-box-left span {
    font-size: 14px;
    line-height: 24px;
    font-weight: 600;
    color: #202323;
  }
}
@media screen and (max-width: 576px) {
  .outer-box-mobile-page .ui-banner .user-box-left span {
    font-size: 12px;
    line-height: 24px;
    font-weight: 600;
    color: #202323;
  }
}
@media screen and (max-width: 420px) {
  .outer-box-mobile-page .ui-banner .user-box-left span {
    font-size: 9px;
    line-height: 24px;
    font-weight: 600;
    color: #202323;
  }
}
.outer-box-mobile-page .ui-banner .user-box-right {
  position: absolute;
  top: 140px;
  right: 530px;
}
@media screen and (max-width: 1720px) {
  .outer-box-mobile-page .ui-banner .user-box-right {
    position: absolute;
    top: 140px;
    right: 354px;
  }
}
@media screen and (max-width: 1440px) {
  .outer-box-mobile-page .ui-banner .user-box-right {
    position: absolute;
    top: 140px;
    right: 44px;
  }
}
@media screen and (max-width: 768px) {
  .outer-box-mobile-page .ui-banner .user-box-right {
    position: absolute;
    top: 128px;
    right: 12px;
  }
}
@media screen and (max-width: 576px) {
  .outer-box-mobile-page .ui-banner .user-box-right {
    position: absolute;
    top: 88px;
    right: 9px;
  }
}
@media screen and (max-width: 768px) {
  .outer-box-mobile-page .ui-banner .user-box-right .banner-icon {
    width: 28px;
    height: 28px;
  }
}
@media screen and (max-width: 768px) {
  .outer-box-mobile-page .ui-banner .user-box-right .banner-icon img {
    width: 18px;
    height: 18px;
  }
}
.outer-box-mobile-page .ui-banner .user-box-right span {
  font-size: 16px;
  line-height: 24px;
  font-weight: 600;
  color: #202323;
}
@media screen and (max-width: 768px) {
  .outer-box-mobile-page .ui-banner .user-box-right span {
    font-size: 14px;
    line-height: 24px;
    font-weight: 600;
    color: #202323;
  }
}
@media screen and (max-width: 576px) {
  .outer-box-mobile-page .ui-banner .user-box-right span {
    font-size: 12px;
    line-height: 24px;
    font-weight: 600;
    color: #202323;
  }
}
@media screen and (max-width: 420px) {
  .outer-box-mobile-page .ui-banner .user-box-right span {
    font-size: 9px;
    line-height: 24px;
    font-weight: 600;
    color: #202323;
  }
}

/*********************[][][][][][]********************* WEB APP DEVELOPMENT *******************[][][][][][]********************/
.outer-box-web-app-development .ui-banner .ed-banner-details .ed-banner-heading {
  width: 1350px;
}
@media screen and (max-width: 1200px) {
  .outer-box-web-app-development .ui-banner .ed-banner-details .ed-banner-heading {
    width: 75%;
  }
}
@media screen and (max-width: 768px) {
  .outer-box-web-app-development .ui-banner .ed-banner-details .ed-banner-heading {
    width: 90%;
  }
}
.outer-box-web-app-development .ui-banner .ed-banner-details .ed-banner-content {
  width: 1350px;
}
@media screen and (max-width: 1200px) {
  .outer-box-web-app-development .ui-banner .ed-banner-details .ed-banner-content {
    width: 75%;
  }
}
@media screen and (max-width: 768px) {
  .outer-box-web-app-development .ui-banner .ed-banner-details .ed-banner-content {
    width: 90%;
  }
}
.outer-box-web-app-development .ui-banner .left-line-box {
  position: absolute;
  top: 270px;
  left: 92px;
}
@media screen and (max-width: 768px) {
  .outer-box-web-app-development .ui-banner .left-line-box {
    top: 161px;
    left: 70px;
  }
}
@media screen and (max-width: 576px) {
  .outer-box-web-app-development .ui-banner .left-line-box {
    top: 91px;
    left: 33px;
  }
}
.outer-box-web-app-development .ui-banner .right-line-box {
  position: absolute;
  top: 222px;
  right: 130px;
}
@media screen and (max-width: 768px) {
  .outer-box-web-app-development .ui-banner .right-line-box {
    top: 188px;
    right: 80px;
  }
}
@media screen and (max-width: 576px) {
  .outer-box-web-app-development .ui-banner .right-line-box {
    top: 136px;
  }
}
.outer-box-web-app-development .ui-banner .left-inner-line {
  position: absolute;
  top: 211px;
  left: -4px;
}
@media screen and (max-width: 1200px) {
  .outer-box-web-app-development .ui-banner .left-inner-line {
    position: absolute;
    top: 149px;
    left: -307px;
  }
}
@media screen and (max-width: 992px) {
  .outer-box-web-app-development .ui-banner .left-inner-line {
    display: none;
  }
}
.outer-box-web-app-development .ui-banner .right-inner-line {
  position: absolute;
  top: 145px;
  right: 63px;
}
@media screen and (max-width: 1200px) {
  .outer-box-web-app-development .ui-banner .right-inner-line {
    position: absolute;
    top: 133px;
    right: -423px;
  }
}
@media screen and (max-width: 992px) {
  .outer-box-web-app-development .ui-banner .right-inner-line {
    display: none;
  }
}
.outer-box-web-app-development .ui-banner .user-box-left {
  position: absolute;
  top: 330px;
  left: 450px;
}
@media screen and (max-width: 1720px) {
  .outer-box-web-app-development .ui-banner .user-box-left {
    position: absolute;
    top: 380px;
    left: 305px;
  }
}
@media screen and (max-width: 1440px) {
  .outer-box-web-app-development .ui-banner .user-box-left {
    position: absolute;
    top: 380px;
    left: 56px;
  }
}
@media screen and (max-width: 992px) {
  .outer-box-web-app-development .ui-banner .user-box-left {
    position: absolute;
    top: 353px;
    left: 10px;
  }
}
@media screen and (max-width: 768px) {
  .outer-box-web-app-development .ui-banner .user-box-left {
    position: absolute;
    top: 100px;
    left: 16px;
  }
}
@media screen and (max-width: 576px) {
  .outer-box-web-app-development .ui-banner .user-box-left {
    position: absolute;
    top: 144px;
    left: 10px;
  }
}
@media screen and (max-width: 768px) {
  .outer-box-web-app-development .ui-banner .user-box-left .banner-icon {
    width: 28px;
    height: 28px;
  }
}
@media screen and (max-width: 768px) {
  .outer-box-web-app-development .ui-banner .user-box-left .banner-icon img {
    width: 18px;
    height: 18px;
  }
}
.outer-box-web-app-development .ui-banner .user-box-left span {
  font-size: 16px;
  line-height: 24px;
  font-weight: 600;
  color: #202323;
}
@media screen and (max-width: 768px) {
  .outer-box-web-app-development .ui-banner .user-box-left span {
    font-size: 14px;
    line-height: 24px;
    font-weight: 600;
    color: #202323;
  }
}
@media screen and (max-width: 576px) {
  .outer-box-web-app-development .ui-banner .user-box-left span {
    font-size: 12px;
    line-height: 24px;
    font-weight: 600;
    color: #202323;
  }
}
@media screen and (max-width: 420px) {
  .outer-box-web-app-development .ui-banner .user-box-left span {
    font-size: 9px;
    line-height: 24px;
    font-weight: 600;
    color: #202323;
  }
}
.outer-box-web-app-development .ui-banner .user-box-right {
  position: absolute;
  top: 140px;
  right: 530px;
}
@media screen and (max-width: 1720px) {
  .outer-box-web-app-development .ui-banner .user-box-right {
    position: absolute;
    top: 140px;
    right: 354px;
  }
}
@media screen and (max-width: 1440px) {
  .outer-box-web-app-development .ui-banner .user-box-right {
    position: absolute;
    top: 140px;
    right: 44px;
  }
}
@media screen and (max-width: 992px) {
  .outer-box-web-app-development .ui-banner .user-box-right {
    position: absolute;
    top: 140px;
    right: 10px;
  }
}
@media screen and (max-width: 768px) {
  .outer-box-web-app-development .ui-banner .user-box-right {
    position: absolute;
    top: 128px;
    right: 10px;
  }
}
@media screen and (max-width: 576px) {
  .outer-box-web-app-development .ui-banner .user-box-right {
    position: absolute;
    top: 88px;
    right: 10px;
  }
}
@media screen and (max-width: 768px) {
  .outer-box-web-app-development .ui-banner .user-box-right .banner-icon {
    width: 28px;
    height: 28px;
  }
}
@media screen and (max-width: 768px) {
  .outer-box-web-app-development .ui-banner .user-box-right .banner-icon img {
    width: 18px;
    height: 18px;
  }
}
.outer-box-web-app-development .ui-banner .user-box-right span {
  font-size: 16px;
  line-height: 24px;
  font-weight: 600;
  color: #202323;
}
@media screen and (max-width: 768px) {
  .outer-box-web-app-development .ui-banner .user-box-right span {
    font-size: 14px;
    line-height: 24px;
    font-weight: 600;
    color: #202323;
  }
}
@media screen and (max-width: 576px) {
  .outer-box-web-app-development .ui-banner .user-box-right span {
    font-size: 12px;
    line-height: 24px;
    font-weight: 600;
    color: #202323;
  }
}
@media screen and (max-width: 420px) {
  .outer-box-web-app-development .ui-banner .user-box-right span {
    font-size: 9px;
    line-height: 24px;
    font-weight: 600;
    color: #202323;
  }
}
@media screen and (max-width: 992px) {
  .outer-box-web-app-development .ui-banner .banner-image {
    width: 348px;
  }
}
@media screen and (max-width: 768px) {
  .outer-box-web-app-development .ui-banner .banner-image {
    width: 300px;
    top: 196px;
  }
}
@media screen and (max-width: 576px) {
  .outer-box-web-app-development .ui-banner .banner-image {
    top: 213px;
    width: 267px;
  }
}
.outer-box-web-app-development .cs-digital-transform-wrapper .digital-transformation {
  height: -moz-fit-content;
  height: fit-content;
  margin-top: 0;
  width: 100%;
}
.outer-box-web-app-development .cs-digital-transform-wrapper .digital-transformation .custom-inner-content {
  width: 100%;
  padding: 38px;
  box-sizing: border-box;
}
@media screen and (max-width: 1200px) {
  .outer-box-web-app-development .cs-digital-transform-wrapper .digital-transformation .custom-inner-content {
    padding: 20px;
  }
}
.outer-box-web-app-development .cs-digital-transform-wrapper .digital-transformation .custom-inner-content .section-heading {
  width: 715px;
  margin-bottom: 20px;
}
@media screen and (max-width: 576px) {
  .outer-box-web-app-development .cs-digital-transform-wrapper .digital-transformation .custom-inner-content .section-heading {
    width: auto;
  }
}
.outer-box-web-app-development .cs-digital-transform-wrapper .digital-transformation .custom-inner-content .content-1 {
  width: 1150px;
}
@media screen and (max-width: 992px) {
  .outer-box-web-app-development .cs-digital-transform-wrapper .digital-transformation .custom-inner-content .content-1 {
    width: 75%;
  }
}
.outer-box-web-app-development .cs-digital-transform-wrapper .digital-transformation .custom-inner-content .content {
  font-size: 14px;
  line-height: 25px;
  font-weight: 400;
  color: #707070;
}
.outer-box-web-app-development .cs-digital-transform-wrapper .digital-transformation .custom-inner-content .tabs {
  margin: 30px 0 20px 0;
  height: 64px;
  border-radius: 16px;
  background-color: #f9f9f9;
  padding: 0 5px;
  width: -moz-fit-content;
  width: fit-content;
  display: flex;
  flex-direction: row;
  align-items: center;
}
.outer-box-web-app-development .cs-digital-transform-wrapper .digital-transformation .custom-inner-content .tabs ul {
  display: flex;
  flex-direction: row;
  align-items: center;
}
.outer-box-web-app-development .cs-digital-transform-wrapper .digital-transformation .custom-inner-content .tabs ul li {
  height: 54px;
  padding: 0 16px;
  border-radius: 16px;
  display: flex;
  justify-content: center;
  align-items: center;
  font-size: 18px;
  font-weight: 500;
  color: #202323;
}
@media screen and (max-width: 1200px) {
  .outer-box-web-app-development .cs-digital-transform-wrapper .digital-transformation .custom-inner-content .tabs ul li {
    font-size: 14px;
    font-weight: 500;
    color: #202323;
  }
}
@media screen and (max-width: 420px) {
  .outer-box-web-app-development .cs-digital-transform-wrapper .digital-transformation .custom-inner-content .tabs ul li {
    font-size: 12px;
    font-weight: 500;
    color: #202323;
  }
}
.outer-box-web-app-development .cs-digital-transform-wrapper .digital-transformation .custom-inner-content .tabs ul li.active {
  background-color: #136DFB;
  color: #ffffff;
}

/*********************[][][][][][]********************* CONTACT US *******************[][][][][][]********************/
.outer-box-contact-us .ui-banner .the-circle {
  filter: blur(195px);
  width: 325px;
  height: 325px;
  transform: translateX(-50%);
}
.outer-box-contact-us .ui-banner .ui-banner-blur-circle {
  background-color: #136dfb;
  position: absolute;
  top: 225px;
  left: 50%;
}
.outer-box-contact-us .ui-banner .ai-ml-banner-line {
  position: absolute;
  top: 140px;
  left: -42px;
}
.outer-box-contact-us .ui-banner .banner-girl-image {
  position: absolute;
  top: 150px;
  left: 43%;
}
@media screen and (max-width: 1366px) {
  .outer-box-contact-us .ui-banner .banner-girl-image {
    left: 47%;
  }
}
@media screen and (max-width: 1200px) {
  .outer-box-contact-us .ui-banner .banner-girl-image {
    left: 41%;
  }
}
@media screen and (max-width: 768px) {
  .outer-box-contact-us .ui-banner .banner-girl-image {
    left: 36%;
  }
}
@media screen and (max-width: 576px) {
  .outer-box-contact-us .ui-banner .banner-girl-image {
    left: 24%;
  }
}
.outer-box-contact-us .ui-banner .banner-girl-image .banner-gif {
  position: absolute;
  left: 0px;
}
@media screen and (max-width: 1366px) {
  .outer-box-contact-us .ui-banner .banner-girl-image .banner-gif {
    position: absolute;
    left: -72px;
  }
}
@media screen and (max-width: 1200px) {
  .outer-box-contact-us .ui-banner .banner-girl-image .banner-gif {
    position: absolute;
    top: 31px;
    left: 4px;
  }
}
@media screen and (max-width: 992px) {
  .outer-box-contact-us .ui-banner .banner-girl-image .banner-gif {
    width: 248px;
    left: -7px;
  }
}
@media screen and (max-width: 576px) {
  .outer-box-contact-us .ui-banner .banner-girl-image .banner-gif {
    width: 225px;
    position: absolute;
    top: 62px;
    left: 21px;
  }
}
@media screen and (max-width: 420px) {
  .outer-box-contact-us .ui-banner .banner-girl-image .banner-gif {
    width: 225px;
    position: absolute;
    top: 62px;
    left: -12px;
  }
}
.outer-box-contact-us .ui-banner .user-box {
  border-radius: 8px;
  border: 1px solid rgba(19, 109, 251, 0.0509803922);
  -webkit-backdrop-filter: blur(150px);
          backdrop-filter: blur(150px);
  box-shadow: 0px 30px 60px 0px rgba(0, 0, 0, 0.2);
  background: linear-gradient(178.83deg, rgba(255, 255, 255, 0.6) 2.73%, rgba(249, 249, 249, 0.6) 97.04%);
  display: flex;
  flex-direction: row;
  justify-content: center;
  align-items: center;
  gap: 10px;
}
@media screen and (max-width: 576px) {
  .outer-box-contact-us .ui-banner .user-box {
    padding: 4px;
  }
}
.outer-box-contact-us .ui-banner .user-box.ios-app-left {
  position: absolute;
  top: 385px;
  left: 259px;
}
@media screen and (max-width: 1720px) {
  .outer-box-contact-us .ui-banner .user-box.ios-app-left {
    position: absolute;
    top: 385px;
    left: 256px;
  }
}
@media screen and (max-width: 1520px) {
  .outer-box-contact-us .ui-banner .user-box.ios-app-left {
    position: absolute;
    top: 385px;
    left: 150px;
  }
}
@media screen and (max-width: 1200px) {
  .outer-box-contact-us .ui-banner .user-box.ios-app-left {
    position: absolute;
    top: 385px;
    left: 60px;
  }
}
@media screen and (max-width: 768px) {
  .outer-box-contact-us .ui-banner .user-box.ios-app-left {
    position: absolute;
    top: 90px;
    left: 10px;
  }
}
@media screen and (max-width: 576px) {
  .outer-box-contact-us .ui-banner .user-box.ios-app-left {
    position: absolute;
    top: 53px;
    left: 10px;
  }
}
@media screen and (max-width: 420px) {
  .outer-box-contact-us .ui-banner .user-box.ios-app-left {
    position: absolute;
    top: 63px;
    left: 10px;
  }
}
.outer-box-contact-us .ui-banner .user-box.ios-app-right {
  position: absolute;
  top: 385px;
  right: 394px;
}
@media screen and (max-width: 1720px) {
  .outer-box-contact-us .ui-banner .user-box.ios-app-right {
    position: absolute;
    top: 385px;
    right: 239px;
  }
}
@media screen and (max-width: 1520px) {
  .outer-box-contact-us .ui-banner .user-box.ios-app-right {
    position: absolute;
    top: 385px;
    right: 140px;
  }
}
@media screen and (max-width: 1200px) {
  .outer-box-contact-us .ui-banner .user-box.ios-app-right {
    position: absolute;
    top: 385px;
    right: 60px;
  }
}
@media screen and (max-width: 768px) {
  .outer-box-contact-us .ui-banner .user-box.ios-app-right {
    position: absolute;
    top: 90px;
    right: 10px;
  }
}
@media screen and (max-width: 576px) {
  .outer-box-contact-us .ui-banner .user-box.ios-app-right {
    position: absolute;
    top: 53px;
    right: 10px;
  }
}
@media screen and (max-width: 420px) {
  .outer-box-contact-us .ui-banner .user-box.ios-app-right {
    position: absolute;
    top: 63px;
    right: 10px;
  }
}
.outer-box-contact-us .ui-banner .user-box.ios-app-bottom {
  position: absolute;
  top: 180px;
  left: 346px;
}
@media screen and (max-width: 1720px) {
  .outer-box-contact-us .ui-banner .user-box.ios-app-bottom {
    position: absolute;
    top: 180px;
    left: 140px;
  }
}
@media screen and (max-width: 1520px) {
  .outer-box-contact-us .ui-banner .user-box.ios-app-bottom {
    position: absolute;
    top: 180px;
    left: 100px;
  }
}
@media screen and (max-width: 1200px) {
  .outer-box-contact-us .ui-banner .user-box.ios-app-bottom {
    position: absolute;
    top: 180px;
    left: 20px;
  }
}
@media screen and (max-width: 768px) {
  .outer-box-contact-us .ui-banner .user-box.ios-app-bottom {
    position: absolute;
    top: 180px;
    left: 20px;
  }
}
@media screen and (max-width: 576px) {
  .outer-box-contact-us .ui-banner .user-box.ios-app-bottom {
    position: absolute;
    top: 115px;
    left: 20px;
  }
}
.outer-box-contact-us .ui-banner .user-box.ai-bot {
  position: absolute;
  top: 205px;
  right: 348px;
}
@media screen and (max-width: 1720px) {
  .outer-box-contact-us .ui-banner .user-box.ai-bot {
    position: absolute;
    top: 205px;
    right: 78px;
  }
}
@media screen and (max-width: 1520px) {
  .outer-box-contact-us .ui-banner .user-box.ai-bot {
    position: absolute;
    top: 205px;
    right: 20px;
  }
}
@media screen and (max-width: 1200px) {
  .outer-box-contact-us .ui-banner .user-box.ai-bot {
    position: absolute;
    top: 180px;
    right: 20px;
  }
}
@media screen and (max-width: 768px) {
  .outer-box-contact-us .ui-banner .user-box.ai-bot {
    position: absolute;
    top: 180px;
    right: 20px;
  }
}
@media screen and (max-width: 576px) {
  .outer-box-contact-us .ui-banner .user-box.ai-bot {
    position: absolute;
    top: 115px;
    right: 20px;
  }
}
.outer-box-contact-us .ui-banner .user-box .icon {
  width: 47px;
  height: 47px;
  display: flex;
  justify-content: center;
  align-items: center;
  background-color: #136dfb;
  border-radius: 8px;
}
@media screen and (max-width: 992px) {
  .outer-box-contact-us .ui-banner .user-box .icon {
    width: 40px;
    height: 40px;
  }
  .outer-box-contact-us .ui-banner .user-box .icon img {
    width: 30px;
    height: 30px;
  }
}
@media screen and (max-width: 420px) {
  .outer-box-contact-us .ui-banner .user-box .icon {
    width: 30px;
    height: 30px;
  }
  .outer-box-contact-us .ui-banner .user-box .icon img {
    width: 20px;
    height: 20px;
  }
}
.outer-box-contact-us .ui-banner .user-box span {
  font-size: 16px;
  line-height: 24px;
  font-weight: 600;
  color: #202323;
}
@media screen and (max-width: 992px) {
  .outer-box-contact-us .ui-banner .user-box span {
    font-size: 14px;
    line-height: 24px;
    font-weight: 600;
    color: #202323;
  }
}
@media screen and (max-width: 576px) {
  .outer-box-contact-us .ui-banner .user-box span {
    font-size: 12px;
    line-height: 24px;
    font-weight: 600;
    color: #202323;
  }
}
@media screen and (max-width: 420px) {
  .outer-box-contact-us .ui-banner .user-box span {
    font-size: 9px;
    line-height: 24px;
    font-weight: 600;
    color: #202323;
  }
}
.outer-box-contact-us .ui-banner .ui-banner-details {
  background: linear-gradient(178.83deg, rgba(255, 255, 255, 0.6) 2.73%, rgba(249, 249, 249, 0.6) 97.04%);
  width: 100%;
  height: calc(100vh - 504px);
  display: flex;
  flex-direction: column;
  justify-content: center;
  align-items: center;
  position: absolute;
  right: 0px;
  bottom: 0px;
  left: 0px;
  -webkit-backdrop-filter: blur(30px);
          backdrop-filter: blur(30px);
}
.outer-box-contact-us .ui-banner .ui-banner-details .inner-banner-heading {
  width: 900px;
}
@media screen and (max-width: 1200px) {
  .outer-box-contact-us .ui-banner .ui-banner-details .inner-banner-heading {
    width: 75%;
  }
}
@media screen and (max-width: 768px) {
  .outer-box-contact-us .ui-banner .ui-banner-details .inner-banner-heading {
    width: 90%;
  }
}
.outer-box-contact-us .ui-banner .ui-banner-details .inner-banner-content {
  width: 960px;
}
@media screen and (max-width: 1200px) {
  .outer-box-contact-us .ui-banner .ui-banner-details .inner-banner-content {
    width: 75%;
  }
}
@media screen and (max-width: 768px) {
  .outer-box-contact-us .ui-banner .ui-banner-details .inner-banner-content {
    width: 90%;
  }
}
.outer-box-contact-us .map-section {
  margin-top: 120px;
  height: 665px;
  width: 100%;
}
.outer-box-contact-us .form-container .header-text {
  margin-top: 8px;
  font-size: 16px;
  line-height: 24px;
  font-weight: 500;
  color: #707070;
}
.outer-box-contact-us .form-container .main-title {
  margin-bottom: 40px;
  font-size: 48px;
  line-height: 60px;
  font-weight: 600;
  color: #202323;
}
.outer-box-contact-us .form-container .contact-section {
  display: flex;
  flex-direction: row;
  gap: 26px;
}
.outer-box-contact-us .form-container .contact-section .form-container {
  width: calc(100% - 450px);
}
.outer-box-contact-us .form-container .contact-section .form-container form label {
  font-size: 14px;
  line-height: 24px;
  font-weight: 500;
  color: #202323;
}
.outer-box-contact-us .form-container .contact-section .form-container form label span {
  color: #E71430;
}
.outer-box-contact-us .form-container .contact-section .form-container form input,
.outer-box-contact-us .form-container .contact-section .form-container form textarea {
  border: 1px solid #E3E3E3;
  height: 48px;
  border-radius: 8px;
  padding: 0 12px;
  font-size: 14px;
  line-height: 24px;
  font-weight: 500;
  color: #202323;
}
.outer-box-contact-us .form-container .contact-section .form-container form input::-moz-placeholder, .outer-box-contact-us .form-container .contact-section .form-container form textarea::-moz-placeholder {
  font-size: 14px;
  line-height: 24px;
  font-weight: 500;
  color: #8A8A8A;
}
.outer-box-contact-us .form-container .contact-section .form-container form input::placeholder,
.outer-box-contact-us .form-container .contact-section .form-container form textarea::placeholder {
  font-size: 14px;
  line-height: 24px;
  font-weight: 500;
  color: #8A8A8A;
}
.outer-box-contact-us .form-container .contact-section .form-container form textarea {
  height: 132px;
}
.outer-box-contact-us .form-container .contact-section .form-container form .form-group {
  width: 100%;
  margin-bottom: 26px;
  display: flex;
  flex-direction: column;
  gap: 8px;
}
.outer-box-contact-us .form-container .contact-section .form-container form .form-row {
  display: flex;
  flex-direction: row;
  gap: 26px;
}
.outer-box-contact-us .form-container .contact-section .contact-info {
  width: 450px;
  padding: 28px;
  border-radius: 16px;
  background: linear-gradient(88.91deg, #136DFB 0.93%, #004FFF 113.88%);
  color: #ffffff;
}
.outer-box-contact-us .form-container .contact-section .contact-info .info-section {
  display: flex;
  flex-direction: column;
  gap: 12px;
  margin-bottom: 28px;
  margin-left: 18px;
}
.outer-box-contact-us .form-container .contact-section .contact-info .info-section .info-title {
  list-style-type: none;
  font-size: 14px;
  line-height: 24px;
  font-weight: 600;
  color: #ffffff;
}
.outer-box-contact-us .form-container .contact-section .contact-info .info-section .info-item {
  font-size: 14px;
  line-height: 24px;
  font-weight: 400;
  color: #ffffff;
}
.outer-box-contact-us .form-container .contact-section .contact-info .social-section .social-title {
  font-size: 14px;
  line-height: 24px;
  font-weight: 600;
  color: #ffffff;
}
.outer-box-contact-us .form-container .contact-section .contact-info .social-section .social-links {
  margin-top: 12px;
  display: flex;
  justify-content: start;
  align-items: center;
  gap: 16px;
}
.outer-box-contact-us .form-container .contact-section .contact-info .social-section .social-links .social-link {
  display: flex;
  justify-content: center;
  align-items: center;
  width: 48px;
  height: 48px;
  border-radius: 50%;
  background-color: #ffffff;
}

/*********************[][][][][][]********************* ABOUT US *******************[][][][][][]********************/
.outer-box-about-us .ui-banner .the-circle {
  filter: blur(195px);
  width: 325px;
  height: 325px;
  transform: translateX(-50%);
}
.outer-box-about-us .ui-banner .ui-banner-blur-circle {
  background-color: #136dfb;
  position: absolute;
  top: 225px;
  left: 50%;
}
.outer-box-about-us .ui-banner .ai-ml-banner-line {
  position: absolute;
  top: 140px;
  left: -42px;
}
.outer-box-about-us .ui-banner .banner-girl-image {
  position: absolute;
  top: 150px;
  left: 43%;
}
@media screen and (max-width: 1200px) {
  .outer-box-about-us .ui-banner .banner-girl-image {
    left: 41%;
  }
}
@media screen and (max-width: 768px) {
  .outer-box-about-us .ui-banner .banner-girl-image {
    left: 36%;
  }
}
@media screen and (max-width: 576px) {
  .outer-box-about-us .ui-banner .banner-girl-image {
    left: 24%;
    top: 226px;
  }
}
@media screen and (max-width: 420px) {
  .outer-box-about-us .ui-banner .banner-girl-image {
    left: 16%;
    top: 226px;
    width: 100%;
  }
}
.outer-box-about-us .ui-banner .banner-girl-image .banner-gif {
  width: 500px;
  position: absolute;
  left: -99px;
}
@media screen and (max-width: 1366px) {
  .outer-box-about-us .ui-banner .banner-girl-image .banner-gif {
    position: absolute;
    left: -72px;
  }
}
@media screen and (max-width: 768px) {
  .outer-box-about-us .ui-banner .banner-girl-image .banner-gif {
    width: 400px;
    top: 42px;
  }
}
@media screen and (max-width: 576px) {
  .outer-box-about-us .ui-banner .banner-girl-image .banner-gif {
    width: 357px;
    top: 0;
    left: 0;
  }
}
@media screen and (max-width: 420px) {
  .outer-box-about-us .ui-banner .banner-girl-image .banner-gif {
    width: 294px;
    top: 50px;
  }
}
.outer-box-about-us .ui-banner .user-box {
  border-radius: 8px;
  border: 1px solid rgba(19, 109, 251, 0.0509803922);
  -webkit-backdrop-filter: blur(150px);
          backdrop-filter: blur(150px);
  box-shadow: 0px 30px 60px 0px rgba(0, 0, 0, 0.2);
  background: linear-gradient(178.83deg, rgba(255, 255, 255, 0.6) 2.73%, rgba(249, 249, 249, 0.6) 97.04%);
  display: flex;
  flex-direction: row;
  justify-content: center;
  align-items: center;
  gap: 10px;
}
@media screen and (max-width: 576px) {
  .outer-box-about-us .ui-banner .user-box {
    padding: 4px;
  }
}
.outer-box-about-us .ui-banner .user-box.ios-app-left {
  position: absolute;
  top: 385px;
  left: 259px;
}
@media screen and (max-width: 1720px) {
  .outer-box-about-us .ui-banner .user-box.ios-app-left {
    position: absolute;
    top: 385px;
    left: 256px;
  }
}
@media screen and (max-width: 1520px) {
  .outer-box-about-us .ui-banner .user-box.ios-app-left {
    position: absolute;
    top: 385px;
    left: 150px;
  }
}
@media screen and (max-width: 1200px) {
  .outer-box-about-us .ui-banner .user-box.ios-app-left {
    position: absolute;
    top: 304px;
    left: 60px;
  }
}
@media screen and (max-width: 768px) {
  .outer-box-about-us .ui-banner .user-box.ios-app-left {
    position: absolute;
    top: 90px;
    left: 10px;
  }
}
@media screen and (max-width: 576px) {
  .outer-box-about-us .ui-banner .user-box.ios-app-left {
    position: absolute;
    top: 53px;
    left: 10px;
  }
}
@media screen and (max-width: 420px) {
  .outer-box-about-us .ui-banner .user-box.ios-app-left {
    position: absolute;
    top: 63px;
    left: 10px;
  }
}
.outer-box-about-us .ui-banner .user-box.ios-app-right {
  position: absolute;
  top: 385px;
  right: 394px;
}
@media screen and (max-width: 1720px) {
  .outer-box-about-us .ui-banner .user-box.ios-app-right {
    position: absolute;
    top: 385px;
    right: 239px;
  }
}
@media screen and (max-width: 1520px) {
  .outer-box-about-us .ui-banner .user-box.ios-app-right {
    position: absolute;
    top: 385px;
    right: 140px;
  }
}
@media screen and (max-width: 1200px) {
  .outer-box-about-us .ui-banner .user-box.ios-app-right {
    position: absolute;
    top: 304px;
    right: 60px;
  }
}
@media screen and (max-width: 768px) {
  .outer-box-about-us .ui-banner .user-box.ios-app-right {
    position: absolute;
    top: 180px;
    right: 10px;
  }
}
@media screen and (max-width: 576px) {
  .outer-box-about-us .ui-banner .user-box.ios-app-right {
    position: absolute;
    top: 53px;
    right: 10px;
  }
}
@media screen and (max-width: 420px) {
  .outer-box-about-us .ui-banner .user-box.ios-app-right {
    position: absolute;
    top: 63px;
    right: 10px;
  }
}
.outer-box-about-us .ui-banner .user-box.ios-app-bottom {
  position: absolute;
  top: 180px;
  left: 346px;
}
@media screen and (max-width: 1720px) {
  .outer-box-about-us .ui-banner .user-box.ios-app-bottom {
    position: absolute;
    top: 180px;
    left: 140px;
  }
}
@media screen and (max-width: 1520px) {
  .outer-box-about-us .ui-banner .user-box.ios-app-bottom {
    position: absolute;
    top: 180px;
    left: 100px;
  }
}
@media screen and (max-width: 1200px) {
  .outer-box-about-us .ui-banner .user-box.ios-app-bottom {
    position: absolute;
    top: 180px;
    left: 20px;
  }
}
@media screen and (max-width: 768px) {
  .outer-box-about-us .ui-banner .user-box.ios-app-bottom {
    position: absolute;
    top: 180px;
    left: 20px;
  }
}
@media screen and (max-width: 576px) {
  .outer-box-about-us .ui-banner .user-box.ios-app-bottom {
    position: absolute;
    top: 115px;
    left: 20px;
  }
}
.outer-box-about-us .ui-banner .user-box.ai-bot {
  position: absolute;
  top: 205px;
  right: 348px;
}
@media screen and (max-width: 1720px) {
  .outer-box-about-us .ui-banner .user-box.ai-bot {
    position: absolute;
    top: 205px;
    right: 78px;
  }
}
@media screen and (max-width: 1520px) {
  .outer-box-about-us .ui-banner .user-box.ai-bot {
    position: absolute;
    top: 205px;
    right: 20px;
  }
}
@media screen and (max-width: 1200px) {
  .outer-box-about-us .ui-banner .user-box.ai-bot {
    position: absolute;
    top: 180px;
    right: 20px;
  }
}
@media screen and (max-width: 768px) {
  .outer-box-about-us .ui-banner .user-box.ai-bot {
    position: absolute;
    top: 90px;
    right: 20px;
  }
}
@media screen and (max-width: 576px) {
  .outer-box-about-us .ui-banner .user-box.ai-bot {
    position: absolute;
    top: 115px;
    right: 20px;
  }
}
.outer-box-about-us .ui-banner .user-box .icon {
  width: 47px;
  height: 47px;
  display: flex;
  justify-content: center;
  align-items: center;
  background-color: #136dfb;
  border-radius: 8px;
}
@media screen and (max-width: 992px) {
  .outer-box-about-us .ui-banner .user-box .icon {
    width: 40px;
    height: 40px;
  }
  .outer-box-about-us .ui-banner .user-box .icon img {
    width: 30px;
    height: 30px;
  }
}
@media screen and (max-width: 420px) {
  .outer-box-about-us .ui-banner .user-box .icon {
    width: 30px;
    height: 30px;
  }
  .outer-box-about-us .ui-banner .user-box .icon img {
    width: 20px;
    height: 20px;
  }
}
.outer-box-about-us .ui-banner .user-box span {
  font-size: 16px;
  line-height: 24px;
  font-weight: 600;
  color: #202323;
}
@media screen and (max-width: 992px) {
  .outer-box-about-us .ui-banner .user-box span {
    font-size: 14px;
    line-height: 24px;
    font-weight: 600;
    color: #202323;
  }
}
@media screen and (max-width: 576px) {
  .outer-box-about-us .ui-banner .user-box span {
    font-size: 12px;
    line-height: 24px;
    font-weight: 600;
    color: #202323;
  }
}
@media screen and (max-width: 420px) {
  .outer-box-about-us .ui-banner .user-box span {
    font-size: 9px;
    line-height: 24px;
    font-weight: 600;
    color: #202323;
  }
}
.outer-box-about-us .ui-banner .ui-banner-details {
  background: linear-gradient(178.83deg, rgba(255, 255, 255, 0.6) 2.73%, rgba(249, 249, 249, 0.6) 97.04%);
  width: 100%;
  height: calc(100vh - 504px);
  display: flex;
  flex-direction: column;
  justify-content: center;
  align-items: center;
  position: absolute;
  right: 0px;
  bottom: 0px;
  left: 0px;
  -webkit-backdrop-filter: blur(30px);
          backdrop-filter: blur(30px);
}
.outer-box-about-us .ui-banner .ui-banner-details .inner-banner-heading {
  width: 900px;
}
@media screen and (max-width: 1200px) {
  .outer-box-about-us .ui-banner .ui-banner-details .inner-banner-heading {
    width: 75%;
  }
}
@media screen and (max-width: 768px) {
  .outer-box-about-us .ui-banner .ui-banner-details .inner-banner-heading {
    width: 90%;
  }
}
.outer-box-about-us .ui-banner .ui-banner-details .banner-content {
  width: 960px;
  margin-bottom: 28px;
}
@media screen and (max-width: 1200px) {
  .outer-box-about-us .ui-banner .ui-banner-details .banner-content {
    width: 75%;
  }
}
@media screen and (max-width: 768px) {
  .outer-box-about-us .ui-banner .ui-banner-details .banner-content {
    width: 90%;
  }
}
.outer-box-about-us .image-text-section-wrapper {
  padding-bottom: 0;
}
.outer-box-about-us .services-we-offer {
  margin: 120px auto;
}
@media screen and (max-width: 992px) {
  .outer-box-about-us .services-we-offer {
    margin: 80px auto;
  }
}
@media screen and (max-width: 576px) {
  .outer-box-about-us .services-we-offer {
    margin: 60px auto;
  }
}
.outer-box-about-us .team-of-experts .teams-container {
  display: grid;
  grid-template-columns: repeat(4, 1fr);
  gap: 36px;
}
@media screen and (max-width: 1200px) {
  .outer-box-about-us .team-of-experts .teams-container {
    grid-template-columns: repeat(2, 1fr);
  }
}
@media screen and (max-width: 576px) {
  .outer-box-about-us .team-of-experts .teams-container {
    grid-template-columns: repeat(1, 1fr);
  }
}
.outer-box-about-us .team-of-experts .teams-container .team-member {
  display: flex;
  flex-direction: column;
  justify-content: center;
  align-items: center;
}
.outer-box-about-us .team-of-experts .teams-container .team-member .img-of-member {
  width: 100%;
}
.outer-box-about-us .team-of-experts .teams-container .team-member .img-of-member img {
  border-top-left-radius: 16px;
  border-top-right-radius: 16px;
  width: 100%;
  height: 100%;
  -o-object-fit: cover;
     object-fit: cover;
}
.outer-box-about-us .team-of-experts .teams-container .team-member .designation {
  padding-top: 16px;
  width: 100%;
  display: flex;
  justify-content: space-between;
  align-items: center;
}
.outer-box-about-us .team-of-experts .teams-container .team-member .designation .name {
  font-size: 16px;
  font-weight: 400;
  color: #000000;
}
.outer-box-about-us .team-of-experts .teams-container .team-member .designation .post {
  border-radius: 30px;
  border: 1px solid #000000;
  padding: 8px 16px;
  font-size: 16px;
  font-weight: 400;
  color: #000000;
}

/*********************[][][][][][]********************* EXPERIENCE PAGE *******************[][][][][][]********************/
.outer-experience-page .ui-banner .banner-image {
  position: absolute;
  top: 135px;
  left: 50%;
  transform: translateX(-50%);
}
@media screen and (max-width: 1720px) {
  .outer-experience-page .ui-banner .banner-image {
    width: 290px;
  }
}
@media screen and (max-width: 576px) {
  .outer-experience-page .ui-banner .banner-image {
    position: absolute;
    top: 190px;
    left: 50%;
    width: 234px;
  }
}
@media screen and (max-width: 420px) {
  .outer-experience-page .ui-banner .banner-image {
    position: absolute;
    top: 224px;
    left: 50%;
    width: 215px;
  }
}
.outer-experience-page .ui-banner .ui-banner-details .inner-banner-heading {
  width: 1188px;
}
@media screen and (max-width: 1200px) {
  .outer-experience-page .ui-banner .ui-banner-details .inner-banner-heading {
    width: 75%;
  }
}
@media screen and (max-width: 768px) {
  .outer-experience-page .ui-banner .ui-banner-details .inner-banner-heading {
    width: 90%;
  }
}
.outer-experience-page .ui-banner .ui-banner-details .inner-banner-content {
  width: 960px;
}
@media screen and (max-width: 1200px) {
  .outer-experience-page .ui-banner .ui-banner-details .inner-banner-content {
    width: 75%;
  }
}
@media screen and (max-width: 768px) {
  .outer-experience-page .ui-banner .ui-banner-details .inner-banner-content {
    width: 90%;
  }
}
.outer-experience-page .ui-banner .left-line-box {
  position: absolute;
  top: 270px;
  left: 92px;
}
@media screen and (max-width: 992px) {
  .outer-experience-page .ui-banner .left-line-box {
    position: absolute;
    top: 262px;
    left: 31px;
  }
}
@media screen and (max-width: 768px) {
  .outer-experience-page .ui-banner .left-line-box {
    top: 161px;
    left: 30px;
  }
}
@media screen and (max-width: 576px) {
  .outer-experience-page .ui-banner .left-line-box {
    top: 91px;
    left: 33px;
  }
}
.outer-experience-page .ui-banner .right-line-box {
  position: absolute;
  top: 222px;
  right: 130px;
}
@media screen and (max-width: 768px) {
  .outer-experience-page .ui-banner .right-line-box {
    top: 188px;
    right: 80px;
  }
}
@media screen and (max-width: 576px) {
  .outer-experience-page .ui-banner .right-line-box {
    top: 136px;
  }
}
.outer-experience-page .ui-banner .left-inner-line {
  position: absolute;
  top: 211px;
  left: -4px;
}
@media screen and (max-width: 1200px) {
  .outer-experience-page .ui-banner .left-inner-line {
    position: absolute;
    top: 149px;
    left: -307px;
  }
}
@media screen and (max-width: 992px) {
  .outer-experience-page .ui-banner .left-inner-line {
    display: none;
  }
}
.outer-experience-page .ui-banner .right-inner-line {
  position: absolute;
  top: 145px;
  right: 63px;
}
@media screen and (max-width: 1200px) {
  .outer-experience-page .ui-banner .right-inner-line {
    position: absolute;
    top: 133px;
    right: -423px;
  }
}
@media screen and (max-width: 992px) {
  .outer-experience-page .ui-banner .right-inner-line {
    display: none;
  }
}
.outer-experience-page .ui-banner .user-box-left {
  position: absolute;
  top: 330px;
  left: 450px;
}
@media screen and (max-width: 1720px) {
  .outer-experience-page .ui-banner .user-box-left {
    position: absolute;
    top: 380px;
    left: 305px;
  }
}
@media screen and (max-width: 1440px) {
  .outer-experience-page .ui-banner .user-box-left {
    position: absolute;
    top: 380px;
    left: 56px;
  }
}
@media screen and (max-width: 992px) {
  .outer-experience-page .ui-banner .user-box-left {
    position: absolute;
    top: 353px;
    left: 10px;
  }
}
@media screen and (max-width: 768px) {
  .outer-experience-page .ui-banner .user-box-left {
    position: absolute;
    top: 100px;
    left: 16px;
  }
}
@media screen and (max-width: 576px) {
  .outer-experience-page .ui-banner .user-box-left {
    position: absolute;
    top: 144px;
    left: 10px;
  }
}
@media screen and (max-width: 768px) {
  .outer-experience-page .ui-banner .user-box-left .banner-icon {
    width: 28px;
    height: 28px;
  }
}
@media screen and (max-width: 768px) {
  .outer-experience-page .ui-banner .user-box-left .banner-icon img {
    width: 18px;
    height: 18px;
  }
}
.outer-experience-page .ui-banner .user-box-left span {
  font-size: 16px;
  line-height: 24px;
  font-weight: 600;
  color: #202323;
}
@media screen and (max-width: 768px) {
  .outer-experience-page .ui-banner .user-box-left span {
    font-size: 14px;
    line-height: 24px;
    font-weight: 600;
    color: #202323;
  }
}
@media screen and (max-width: 576px) {
  .outer-experience-page .ui-banner .user-box-left span {
    font-size: 12px;
    line-height: 24px;
    font-weight: 600;
    color: #202323;
  }
}
@media screen and (max-width: 420px) {
  .outer-experience-page .ui-banner .user-box-left span {
    font-size: 9px;
    line-height: 24px;
    font-weight: 600;
    color: #202323;
  }
}
.outer-experience-page .ui-banner .user-box-right {
  position: absolute;
  top: 140px;
  right: 530px;
}
@media screen and (max-width: 1720px) {
  .outer-experience-page .ui-banner .user-box-right {
    position: absolute;
    top: 140px;
    right: 354px;
  }
}
@media screen and (max-width: 1440px) {
  .outer-experience-page .ui-banner .user-box-right {
    position: absolute;
    top: 140px;
    right: 44px;
  }
}
@media screen and (max-width: 992px) {
  .outer-experience-page .ui-banner .user-box-right {
    position: absolute;
    top: 140px;
    right: 10px;
  }
}
@media screen and (max-width: 768px) {
  .outer-experience-page .ui-banner .user-box-right {
    position: absolute;
    top: 128px;
    right: 10px;
  }
}
@media screen and (max-width: 576px) {
  .outer-experience-page .ui-banner .user-box-right {
    position: absolute;
    top: 88px;
    right: 10px;
  }
}
@media screen and (max-width: 768px) {
  .outer-experience-page .ui-banner .user-box-right .banner-icon {
    width: 28px;
    height: 28px;
  }
}
@media screen and (max-width: 768px) {
  .outer-experience-page .ui-banner .user-box-right .banner-icon img {
    width: 18px;
    height: 18px;
  }
}
.outer-experience-page .ui-banner .user-box-right span {
  font-size: 16px;
  line-height: 24px;
  font-weight: 600;
  color: #202323;
}
@media screen and (max-width: 768px) {
  .outer-experience-page .ui-banner .user-box-right span {
    font-size: 14px;
    line-height: 24px;
    font-weight: 600;
    color: #202323;
  }
}
@media screen and (max-width: 576px) {
  .outer-experience-page .ui-banner .user-box-right span {
    font-size: 12px;
    line-height: 24px;
    font-weight: 600;
    color: #202323;
  }
}
@media screen and (max-width: 420px) {
  .outer-experience-page .ui-banner .user-box-right span {
    font-size: 9px;
    line-height: 24px;
    font-weight: 600;
    color: #202323;
  }
}

.back-transparent {
  background-color: transparent;
}

.blue-background {
  background-color: #136dfb;
}

.gray-backgorund {
  background-color: #f9f9f9;
}

.white-text {
  color: #ffffff;
}/*# sourceMappingURL=global.css.map */